<?xml version="1.0" ?>
<net name="palm_detection_FP16" version="10">
	<layers>
		<layer id="0" name="input_1" type="Parameter" version="opset1">
			<data shape="1, 3, 192, 192" element_type="f16"/>
			<output>
				<port id="0" precision="FP16">
					<dim>1</dim>
					<dim>3</dim>
					<dim>192</dim>
					<dim>192</dim>
				</port>
			</output>
		</layer>
		<layer id="1" name="input_1/scale_copy" type="Const" version="opset1">
			<data element_type="f16" shape="32, 3, 5, 5" offset="0" size="4800"/>
			<output>
				<port id="0" precision="FP16" names="Conv2D/filter:0">
					<dim>32</dim>
					<dim>3</dim>
					<dim>5</dim>
					<dim>5</dim>
				</port>
			</output>
		</layer>
		<layer id="2" name="Conv2D" type="Convolution" version="opset1">
			<data strides="2, 2" dilations="1, 1" pads_begin="1, 1" pads_end="2, 2" auto_pad="same_upper"/>
			<input>
				<port id="0" precision="FP16">
					<dim>1</dim>
					<dim>3</dim>
					<dim>192</dim>
					<dim>192</dim>
				</port>
				<port id="1" precision="FP16">
					<dim>32</dim>
					<dim>3</dim>
					<dim>5</dim>
					<dim>5</dim>
				</port>
			</input>
			<output>
				<port id="2" precision="FP16" names="Conv2D:0">
					<dim>1</dim>
					<dim>32</dim>
					<dim>96</dim>
					<dim>96</dim>
				</port>
			</output>
		</layer>
		<layer id="3" name="model_1/model/batch_normalization/FusedBatchNormV3_model_1/model/depthwise_conv2d_4/depthwise_model_1/model/conv2d/Conv2D1/y" type="Const" version="opset1">
			<data element_type="f16" shape="1, 32, 1, 1" offset="4800" size="64"/>
			<output>
				<port id="0" precision="FP16" names="model_1/model/batch_normalization/FusedBatchNormV3_model_1/model/depthwise_conv2d_4/depthwise_model_1/model/conv2d/Conv2D1/y:0">
					<dim>1</dim>
					<dim>32</dim>
					<dim>1</dim>
					<dim>1</dim>
				</port>
			</output>
		</layer>
		<layer id="4" name="model_1/model/batch_normalization/FusedBatchNormV3_model_1/model/depthwise_conv2d_4/depthwise_model_1/model/conv2d/Conv2D1" type="Add" version="opset1">
			<data auto_broadcast="numpy"/>
			<input>
				<port id="0" precision="FP16">
					<dim>1</dim>
					<dim>32</dim>
					<dim>96</dim>
					<dim>96</dim>
				</port>
				<port id="1" precision="FP16">
					<dim>1</dim>
					<dim>32</dim>
					<dim>1</dim>
					<dim>1</dim>
				</port>
			</input>
			<output>
				<port id="2" precision="FP16" names="model_1/model/batch_normalization/FusedBatchNormV3_model_1/model/depthwise_conv2d_4/depthwise_model_1/model/conv2d/Conv2D1:0">
					<dim>1</dim>
					<dim>32</dim>
					<dim>96</dim>
					<dim>96</dim>
				</port>
			</output>
		</layer>
		<layer id="5" name="model_1/model/p_re_lu/add_model_1/model/p_re_lu/Relu_model_1/model/p_re_lu/Neg_1_model_1/model/p_re_lu/Relu_1_model_1/model/p_re_lu/mul_dequantize_prelu/Relu" type="ReLU" version="opset1">
			<input>
				<port id="0" precision="FP16">
					<dim>1</dim>
					<dim>32</dim>
					<dim>96</dim>
					<dim>96</dim>
				</port>
			</input>
			<output>
				<port id="1" precision="FP16" names="model_1/model/p_re_lu/add_model_1/model/p_re_lu/Relu_model_1/model/p_re_lu/Neg_1_model_1/model/p_re_lu/Relu_1_model_1/model/p_re_lu/mul_dequantize_prelu/Relu:0">
					<dim>1</dim>
					<dim>32</dim>
					<dim>96</dim>
					<dim>96</dim>
				</port>
			</output>
		</layer>
		<layer id="6" name="model_1/model/p_re_lu/add_model_1/model/p_re_lu/Relu_model_1/model/p_re_lu/Neg_1_model_1/model/p_re_lu/Relu_1_model_1/model/p_re_lu/mul_dequantize_prelu/Neg/mul_" type="Const" version="opset1">
			<data element_type="f16" shape="1, 32, 1, 1" offset="4864" size="64"/>
			<output>
				<port id="0" precision="FP16" names="model_1/model/p_re_lu/add_model_1/model/p_re_lu/Relu_model_1/model/p_re_lu/Neg_1_model_1/model/p_re_lu/Relu_1_model_1/model/p_re_lu/mul_dequantize_prelu/Neg:0">
					<dim>1</dim>
					<dim>32</dim>
					<dim>1</dim>
					<dim>1</dim>
				</port>
			</output>
		</layer>
		<layer id="7" name="model_1/model/p_re_lu/add_model_1/model/p_re_lu/Relu_model_1/model/p_re_lu/Neg_1_model_1/model/p_re_lu/Relu_1_model_1/model/p_re_lu/mul_dequantize_prelu/Neg_1/mul_/Negate" type="Negative" version="opset1">
			<input>
				<port id="0" precision="FP16">
					<dim>1</dim>
					<dim>32</dim>
					<dim>96</dim>
					<dim>96</dim>
				</port>
			</input>
			<output>
				<port id="1" precision="FP16" names="model_1/model/p_re_lu/add_model_1/model/p_re_lu/Relu_model_1/model/p_re_lu/Neg_1_model_1/model/p_re_lu/Relu_1_model_1/model/p_re_lu/mul_dequantize_prelu/Neg_1:0">
					<dim>1</dim>
					<dim>32</dim>
					<dim>96</dim>
					<dim>96</dim>
				</port>
			</output>
		</layer>
		<layer id="8" name="model_1/model/p_re_lu/add_model_1/model/p_re_lu/Relu_model_1/model/p_re_lu/Neg_1_model_1/model/p_re_lu/Relu_1_model_1/model/p_re_lu/mul_dequantize_prelu/Relu_1" type="ReLU" version="opset1">
			<input>
				<port id="0" precision="FP16">
					<dim>1</dim>
					<dim>32</dim>
					<dim>96</dim>
					<dim>96</dim>
				</port>
			</input>
			<output>
				<port id="1" precision="FP16" names="model_1/model/p_re_lu/add_model_1/model/p_re_lu/Relu_model_1/model/p_re_lu/Neg_1_model_1/model/p_re_lu/Relu_1_model_1/model/p_re_lu/mul_dequantize_prelu/Relu_1:0">
					<dim>1</dim>
					<dim>32</dim>
					<dim>96</dim>
					<dim>96</dim>
				</port>
			</output>
		</layer>
		<layer id="9" name="model_1/model/p_re_lu/add_model_1/model/p_re_lu/Relu_model_1/model/p_re_lu/Neg_1_model_1/model/p_re_lu/Relu_1_model_1/model/p_re_lu/mul_dequantize_prelu/mul" type="Multiply" version="opset1">
			<data auto_broadcast="numpy"/>
			<input>
				<port id="0" precision="FP16">
					<dim>1</dim>
					<dim>32</dim>
					<dim>1</dim>
					<dim>1</dim>
				</port>
				<port id="1" precision="FP16">
					<dim>1</dim>
					<dim>32</dim>
					<dim>96</dim>
					<dim>96</dim>
				</port>
			</input>
			<output>
				<port id="2" precision="FP16" names="model_1/model/p_re_lu/add_model_1/model/p_re_lu/Relu_model_1/model/p_re_lu/Neg_1_model_1/model/p_re_lu/Relu_1_model_1/model/p_re_lu/mul_dequantize_prelu/mul:0">
					<dim>1</dim>
					<dim>32</dim>
					<dim>96</dim>
					<dim>96</dim>
				</port>
			</output>
		</layer>
		<layer id="10" name="model_1/model/p_re_lu/add_model_1/model/p_re_lu/Relu_model_1/model/p_re_lu/Neg_1_model_1/model/p_re_lu/Relu_1_model_1/model/p_re_lu/mul_dequantize_prelu/add" type="Add" version="opset1">
			<data auto_broadcast="numpy"/>
			<input>
				<port id="0" precision="FP16">
					<dim>1</dim>
					<dim>32</dim>
					<dim>96</dim>
					<dim>96</dim>
				</port>
				<port id="1" precision="FP16">
					<dim>1</dim>
					<dim>32</dim>
					<dim>96</dim>
					<dim>96</dim>
				</port>
			</input>
			<output>
				<port id="2" precision="FP16" names="model_1/model/p_re_lu/add_model_1/model/p_re_lu/Relu_model_1/model/p_re_lu/Neg_1_model_1/model/p_re_lu/Relu_1_model_1/model/p_re_lu/mul_dequantize:0,model_1/model/p_re_lu/add_model_1/model/p_re_lu/Relu_model_1/model/p_re_lu/Neg_1_model_1/model/p_re_lu/Relu_1_model_1/model/p_re_lu/mul_dequantize_prelu/add:0">
					<dim>1</dim>
					<dim>32</dim>
					<dim>96</dim>
					<dim>96</dim>
				</port>
			</output>
		</layer>
		<layer id="11" name="depthwise/filter_in" type="Const" version="opset1">
			<data element_type="f16" shape="32, 1, 1, 5, 5" offset="4928" size="1600"/>
			<output>
				<port id="0" precision="FP16" names="depthwise/filter_in:0">
					<dim>32</dim>
					<dim>1</dim>
					<dim>1</dim>
					<dim>5</dim>
					<dim>5</dim>
				</port>
			</output>
		</layer>
		<layer id="12" name="depthwise" type="GroupConvolution" version="opset1">
			<data strides="1, 1" pads_begin="2, 2" pads_end="2, 2" dilations="1, 1" auto_pad="same_upper"/>
			<input>
				<port id="0" precision="FP16">
					<dim>1</dim>
					<dim>32</dim>
					<dim>96</dim>
					<dim>96</dim>
				</port>
				<port id="1" precision="FP16">
					<dim>32</dim>
					<dim>1</dim>
					<dim>1</dim>
					<dim>5</dim>
					<dim>5</dim>
				</port>
			</input>
			<output>
				<port id="2" precision="FP16" names="depthwise:0">
					<dim>1</dim>
					<dim>32</dim>
					<dim>96</dim>
					<dim>96</dim>
				</port>
			</output>
		</layer>
		<layer id="13" name="model_1/model/depthwise_conv2d/depthwise1/y" type="Const" version="opset1">
			<data element_type="f16" shape="1, 32, 1, 1" offset="6528" size="64"/>
			<output>
				<port id="0" precision="FP16" names="model_1/model/depthwise_conv2d/depthwise1/y:0">
					<dim>1</dim>
					<dim>32</dim>
					<dim>1</dim>
					<dim>1</dim>
				</port>
			</output>
		</layer>
		<layer id="14" name="model_1/model/depthwise_conv2d/depthwise1" type="Add" version="opset1">
			<data auto_broadcast="numpy"/>
			<input>
				<port id="0" precision="FP16">
					<dim>1</dim>
					<dim>32</dim>
					<dim>96</dim>
					<dim>96</dim>
				</port>
				<port id="1" precision="FP16">
					<dim>1</dim>
					<dim>32</dim>
					<dim>1</dim>
					<dim>1</dim>
				</port>
			</input>
			<output>
				<port id="2" precision="FP16" names="model_1/model/depthwise_conv2d/depthwise1:0">
					<dim>1</dim>
					<dim>32</dim>
					<dim>96</dim>
					<dim>96</dim>
				</port>
			</output>
		</layer>
		<layer id="15" name="Conv2D_1/filter" type="Const" version="opset1">
			<data element_type="f16" shape="32, 32, 1, 1" offset="6592" size="2048"/>
			<output>
				<port id="0" precision="FP16" names="Conv2D_1/filter:0">
					<dim>32</dim>
					<dim>32</dim>
					<dim>1</dim>
					<dim>1</dim>
				</port>
			</output>
		</layer>
		<layer id="16" name="Conv2D_1" type="Convolution" version="opset1">
			<data strides="1, 1" dilations="1, 1" pads_begin="0, 0" pads_end="0, 0" auto_pad="valid"/>
			<input>
				<port id="0" precision="FP16">
					<dim>1</dim>
					<dim>32</dim>
					<dim>96</dim>
					<dim>96</dim>
				</port>
				<port id="1" precision="FP16">
					<dim>32</dim>
					<dim>32</dim>
					<dim>1</dim>
					<dim>1</dim>
				</port>
			</input>
			<output>
				<port id="2" precision="FP16" names="Conv2D_1:0">
					<dim>1</dim>
					<dim>32</dim>
					<dim>96</dim>
					<dim>96</dim>
				</port>
			</output>
		</layer>
		<layer id="17" name="model_1/model/batch_normalization_1/FusedBatchNormV3_model_1/model/depthwise_conv2d_4/depthwise_model_1/model/conv2d_1/Conv2D1/y" type="Const" version="opset1">
			<data element_type="f16" shape="1, 32, 1, 1" offset="8640" size="64"/>
			<output>
				<port id="0" precision="FP16" names="model_1/model/batch_normalization_1/FusedBatchNormV3_model_1/model/depthwise_conv2d_4/depthwise_model_1/model/conv2d_1/Conv2D1/y:0">
					<dim>1</dim>
					<dim>32</dim>
					<dim>1</dim>
					<dim>1</dim>
				</port>
			</output>
		</layer>
		<layer id="18" name="model_1/model/batch_normalization_1/FusedBatchNormV3_model_1/model/depthwise_conv2d_4/depthwise_model_1/model/conv2d_1/Conv2D1" type="Add" version="opset1">
			<data auto_broadcast="numpy"/>
			<input>
				<port id="0" precision="FP16">
					<dim>1</dim>
					<dim>32</dim>
					<dim>96</dim>
					<dim>96</dim>
				</port>
				<port id="1" precision="FP16">
					<dim>1</dim>
					<dim>32</dim>
					<dim>1</dim>
					<dim>1</dim>
				</port>
			</input>
			<output>
				<port id="2" precision="FP16" names="model_1/model/batch_normalization_1/FusedBatchNormV3_model_1/model/depthwise_conv2d_4/depthwise_model_1/model/conv2d_1/Conv2D1:0">
					<dim>1</dim>
					<dim>32</dim>
					<dim>96</dim>
					<dim>96</dim>
				</port>
			</output>
		</layer>
		<layer id="19" name="model_1/model/add/add" type="Add" version="opset1">
			<data auto_broadcast="numpy"/>
			<input>
				<port id="0" precision="FP16">
					<dim>1</dim>
					<dim>32</dim>
					<dim>96</dim>
					<dim>96</dim>
				</port>
				<port id="1" precision="FP16">
					<dim>1</dim>
					<dim>32</dim>
					<dim>96</dim>
					<dim>96</dim>
				</port>
			</input>
			<output>
				<port id="2" precision="FP16" names="model_1/model/add/add:0">
					<dim>1</dim>
					<dim>32</dim>
					<dim>96</dim>
					<dim>96</dim>
				</port>
			</output>
		</layer>
		<layer id="20" name="model_1/model/p_re_lu_1/add_model_1/model/p_re_lu_1/Relu_model_1/model/p_re_lu_1/Neg_1_model_1/model/p_re_lu_1/Relu_1_model_1/model/p_re_lu_1/mul_dequantize_prelu/Relu" type="ReLU" version="opset1">
			<input>
				<port id="0" precision="FP16">
					<dim>1</dim>
					<dim>32</dim>
					<dim>96</dim>
					<dim>96</dim>
				</port>
			</input>
			<output>
				<port id="1" precision="FP16" names="model_1/model/p_re_lu_1/add_model_1/model/p_re_lu_1/Relu_model_1/model/p_re_lu_1/Neg_1_model_1/model/p_re_lu_1/Relu_1_model_1/model/p_re_lu_1/mul_dequantize_prelu/Relu:0">
					<dim>1</dim>
					<dim>32</dim>
					<dim>96</dim>
					<dim>96</dim>
				</port>
			</output>
		</layer>
		<layer id="21" name="model_1/model/p_re_lu_1/add_model_1/model/p_re_lu_1/Relu_model_1/model/p_re_lu_1/Neg_1_model_1/model/p_re_lu_1/Relu_1_model_1/model/p_re_lu_1/mul_dequantize_prelu/Neg/mul_" type="Const" version="opset1">
			<data element_type="f16" shape="1, 32, 1, 1" offset="8704" size="64"/>
			<output>
				<port id="0" precision="FP16" names="model_1/model/p_re_lu_1/add_model_1/model/p_re_lu_1/Relu_model_1/model/p_re_lu_1/Neg_1_model_1/model/p_re_lu_1/Relu_1_model_1/model/p_re_lu_1/mul_dequantize_prelu/Neg:0">
					<dim>1</dim>
					<dim>32</dim>
					<dim>1</dim>
					<dim>1</dim>
				</port>
			</output>
		</layer>
		<layer id="22" name="model_1/model/p_re_lu_1/add_model_1/model/p_re_lu_1/Relu_model_1/model/p_re_lu_1/Neg_1_model_1/model/p_re_lu_1/Relu_1_model_1/model/p_re_lu_1/mul_dequantize_prelu/Neg_1/mul_/Negate" type="Negative" version="opset1">
			<input>
				<port id="0" precision="FP16">
					<dim>1</dim>
					<dim>32</dim>
					<dim>96</dim>
					<dim>96</dim>
				</port>
			</input>
			<output>
				<port id="1" precision="FP16" names="model_1/model/p_re_lu_1/add_model_1/model/p_re_lu_1/Relu_model_1/model/p_re_lu_1/Neg_1_model_1/model/p_re_lu_1/Relu_1_model_1/model/p_re_lu_1/mul_dequantize_prelu/Neg_1:0">
					<dim>1</dim>
					<dim>32</dim>
					<dim>96</dim>
					<dim>96</dim>
				</port>
			</output>
		</layer>
		<layer id="23" name="model_1/model/p_re_lu_1/add_model_1/model/p_re_lu_1/Relu_model_1/model/p_re_lu_1/Neg_1_model_1/model/p_re_lu_1/Relu_1_model_1/model/p_re_lu_1/mul_dequantize_prelu/Relu_1" type="ReLU" version="opset1">
			<input>
				<port id="0" precision="FP16">
					<dim>1</dim>
					<dim>32</dim>
					<dim>96</dim>
					<dim>96</dim>
				</port>
			</input>
			<output>
				<port id="1" precision="FP16" names="model_1/model/p_re_lu_1/add_model_1/model/p_re_lu_1/Relu_model_1/model/p_re_lu_1/Neg_1_model_1/model/p_re_lu_1/Relu_1_model_1/model/p_re_lu_1/mul_dequantize_prelu/Relu_1:0">
					<dim>1</dim>
					<dim>32</dim>
					<dim>96</dim>
					<dim>96</dim>
				</port>
			</output>
		</layer>
		<layer id="24" name="model_1/model/p_re_lu_1/add_model_1/model/p_re_lu_1/Relu_model_1/model/p_re_lu_1/Neg_1_model_1/model/p_re_lu_1/Relu_1_model_1/model/p_re_lu_1/mul_dequantize_prelu/mul" type="Multiply" version="opset1">
			<data auto_broadcast="numpy"/>
			<input>
				<port id="0" precision="FP16">
					<dim>1</dim>
					<dim>32</dim>
					<dim>1</dim>
					<dim>1</dim>
				</port>
				<port id="1" precision="FP16">
					<dim>1</dim>
					<dim>32</dim>
					<dim>96</dim>
					<dim>96</dim>
				</port>
			</input>
			<output>
				<port id="2" precision="FP16" names="model_1/model/p_re_lu_1/add_model_1/model/p_re_lu_1/Relu_model_1/model/p_re_lu_1/Neg_1_model_1/model/p_re_lu_1/Relu_1_model_1/model/p_re_lu_1/mul_dequantize_prelu/mul:0">
					<dim>1</dim>
					<dim>32</dim>
					<dim>96</dim>
					<dim>96</dim>
				</port>
			</output>
		</layer>
		<layer id="25" name="model_1/model/p_re_lu_1/add_model_1/model/p_re_lu_1/Relu_model_1/model/p_re_lu_1/Neg_1_model_1/model/p_re_lu_1/Relu_1_model_1/model/p_re_lu_1/mul_dequantize_prelu/add" type="Add" version="opset1">
			<data auto_broadcast="numpy"/>
			<input>
				<port id="0" precision="FP16">
					<dim>1</dim>
					<dim>32</dim>
					<dim>96</dim>
					<dim>96</dim>
				</port>
				<port id="1" precision="FP16">
					<dim>1</dim>
					<dim>32</dim>
					<dim>96</dim>
					<dim>96</dim>
				</port>
			</input>
			<output>
				<port id="2" precision="FP16" names="model_1/model/p_re_lu_1/add_model_1/model/p_re_lu_1/Relu_model_1/model/p_re_lu_1/Neg_1_model_1/model/p_re_lu_1/Relu_1_model_1/model/p_re_lu_1/mul_dequantize:0,model_1/model/p_re_lu_1/add_model_1/model/p_re_lu_1/Relu_model_1/model/p_re_lu_1/Neg_1_model_1/model/p_re_lu_1/Relu_1_model_1/model/p_re_lu_1/mul_dequantize_prelu/add:0">
					<dim>1</dim>
					<dim>32</dim>
					<dim>96</dim>
					<dim>96</dim>
				</port>
			</output>
		</layer>
		<layer id="26" name="depthwise_1/filter_in" type="Const" version="opset1">
			<data element_type="f16" shape="32, 1, 1, 5, 5" offset="8768" size="1600"/>
			<output>
				<port id="0" precision="FP16" names="depthwise_1/filter_in:0">
					<dim>32</dim>
					<dim>1</dim>
					<dim>1</dim>
					<dim>5</dim>
					<dim>5</dim>
				</port>
			</output>
		</layer>
		<layer id="27" name="depthwise_1" type="GroupConvolution" version="opset1">
			<data strides="1, 1" pads_begin="2, 2" pads_end="2, 2" dilations="1, 1" auto_pad="same_upper"/>
			<input>
				<port id="0" precision="FP16">
					<dim>1</dim>
					<dim>32</dim>
					<dim>96</dim>
					<dim>96</dim>
				</port>
				<port id="1" precision="FP16">
					<dim>32</dim>
					<dim>1</dim>
					<dim>1</dim>
					<dim>5</dim>
					<dim>5</dim>
				</port>
			</input>
			<output>
				<port id="2" precision="FP16" names="depthwise_1:0">
					<dim>1</dim>
					<dim>32</dim>
					<dim>96</dim>
					<dim>96</dim>
				</port>
			</output>
		</layer>
		<layer id="28" name="model_1/model/depthwise_conv2d_1/depthwise1/y" type="Const" version="opset1">
			<data element_type="f16" shape="1, 32, 1, 1" offset="6528" size="64"/>
			<output>
				<port id="0" precision="FP16" names="model_1/model/depthwise_conv2d_1/depthwise1/y:0">
					<dim>1</dim>
					<dim>32</dim>
					<dim>1</dim>
					<dim>1</dim>
				</port>
			</output>
		</layer>
		<layer id="29" name="model_1/model/depthwise_conv2d_1/depthwise1" type="Add" version="opset1">
			<data auto_broadcast="numpy"/>
			<input>
				<port id="0" precision="FP16">
					<dim>1</dim>
					<dim>32</dim>
					<dim>96</dim>
					<dim>96</dim>
				</port>
				<port id="1" precision="FP16">
					<dim>1</dim>
					<dim>32</dim>
					<dim>1</dim>
					<dim>1</dim>
				</port>
			</input>
			<output>
				<port id="2" precision="FP16" names="model_1/model/depthwise_conv2d_1/depthwise1:0">
					<dim>1</dim>
					<dim>32</dim>
					<dim>96</dim>
					<dim>96</dim>
				</port>
			</output>
		</layer>
		<layer id="30" name="Conv2D_2/filter" type="Const" version="opset1">
			<data element_type="f16" shape="32, 32, 1, 1" offset="10368" size="2048"/>
			<output>
				<port id="0" precision="FP16" names="Conv2D_2/filter:0">
					<dim>32</dim>
					<dim>32</dim>
					<dim>1</dim>
					<dim>1</dim>
				</port>
			</output>
		</layer>
		<layer id="31" name="Conv2D_2" type="Convolution" version="opset1">
			<data strides="1, 1" dilations="1, 1" pads_begin="0, 0" pads_end="0, 0" auto_pad="valid"/>
			<input>
				<port id="0" precision="FP16">
					<dim>1</dim>
					<dim>32</dim>
					<dim>96</dim>
					<dim>96</dim>
				</port>
				<port id="1" precision="FP16">
					<dim>32</dim>
					<dim>32</dim>
					<dim>1</dim>
					<dim>1</dim>
				</port>
			</input>
			<output>
				<port id="2" precision="FP16" names="Conv2D_2:0">
					<dim>1</dim>
					<dim>32</dim>
					<dim>96</dim>
					<dim>96</dim>
				</port>
			</output>
		</layer>
		<layer id="32" name="model_1/model/batch_normalization_2/FusedBatchNormV3_model_1/model/depthwise_conv2d_4/depthwise_model_1/model/conv2d_2/Conv2D1/y" type="Const" version="opset1">
			<data element_type="f16" shape="1, 32, 1, 1" offset="12416" size="64"/>
			<output>
				<port id="0" precision="FP16" names="model_1/model/batch_normalization_2/FusedBatchNormV3_model_1/model/depthwise_conv2d_4/depthwise_model_1/model/conv2d_2/Conv2D1/y:0">
					<dim>1</dim>
					<dim>32</dim>
					<dim>1</dim>
					<dim>1</dim>
				</port>
			</output>
		</layer>
		<layer id="33" name="model_1/model/batch_normalization_2/FusedBatchNormV3_model_1/model/depthwise_conv2d_4/depthwise_model_1/model/conv2d_2/Conv2D1" type="Add" version="opset1">
			<data auto_broadcast="numpy"/>
			<input>
				<port id="0" precision="FP16">
					<dim>1</dim>
					<dim>32</dim>
					<dim>96</dim>
					<dim>96</dim>
				</port>
				<port id="1" precision="FP16">
					<dim>1</dim>
					<dim>32</dim>
					<dim>1</dim>
					<dim>1</dim>
				</port>
			</input>
			<output>
				<port id="2" precision="FP16" names="model_1/model/batch_normalization_2/FusedBatchNormV3_model_1/model/depthwise_conv2d_4/depthwise_model_1/model/conv2d_2/Conv2D1:0">
					<dim>1</dim>
					<dim>32</dim>
					<dim>96</dim>
					<dim>96</dim>
				</port>
			</output>
		</layer>
		<layer id="34" name="model_1/model/add_1/add" type="Add" version="opset1">
			<data auto_broadcast="numpy"/>
			<input>
				<port id="0" precision="FP16">
					<dim>1</dim>
					<dim>32</dim>
					<dim>96</dim>
					<dim>96</dim>
				</port>
				<port id="1" precision="FP16">
					<dim>1</dim>
					<dim>32</dim>
					<dim>96</dim>
					<dim>96</dim>
				</port>
			</input>
			<output>
				<port id="2" precision="FP16" names="model_1/model/add_1/add:0">
					<dim>1</dim>
					<dim>32</dim>
					<dim>96</dim>
					<dim>96</dim>
				</port>
			</output>
		</layer>
		<layer id="35" name="model_1/model/p_re_lu_2/add_model_1/model/p_re_lu_2/Relu_model_1/model/p_re_lu_2/Neg_1_model_1/model/p_re_lu_2/Relu_1_model_1/model/p_re_lu_2/mul_dequantize_prelu/Relu" type="ReLU" version="opset1">
			<input>
				<port id="0" precision="FP16">
					<dim>1</dim>
					<dim>32</dim>
					<dim>96</dim>
					<dim>96</dim>
				</port>
			</input>
			<output>
				<port id="1" precision="FP16" names="model_1/model/p_re_lu_2/add_model_1/model/p_re_lu_2/Relu_model_1/model/p_re_lu_2/Neg_1_model_1/model/p_re_lu_2/Relu_1_model_1/model/p_re_lu_2/mul_dequantize_prelu/Relu:0">
					<dim>1</dim>
					<dim>32</dim>
					<dim>96</dim>
					<dim>96</dim>
				</port>
			</output>
		</layer>
		<layer id="36" name="model_1/model/p_re_lu_2/add_model_1/model/p_re_lu_2/Relu_model_1/model/p_re_lu_2/Neg_1_model_1/model/p_re_lu_2/Relu_1_model_1/model/p_re_lu_2/mul_dequantize_prelu/Neg/mul_" type="Const" version="opset1">
			<data element_type="f16" shape="1, 32, 1, 1" offset="12480" size="64"/>
			<output>
				<port id="0" precision="FP16" names="model_1/model/p_re_lu_2/add_model_1/model/p_re_lu_2/Relu_model_1/model/p_re_lu_2/Neg_1_model_1/model/p_re_lu_2/Relu_1_model_1/model/p_re_lu_2/mul_dequantize_prelu/Neg:0">
					<dim>1</dim>
					<dim>32</dim>
					<dim>1</dim>
					<dim>1</dim>
				</port>
			</output>
		</layer>
		<layer id="37" name="model_1/model/p_re_lu_2/add_model_1/model/p_re_lu_2/Relu_model_1/model/p_re_lu_2/Neg_1_model_1/model/p_re_lu_2/Relu_1_model_1/model/p_re_lu_2/mul_dequantize_prelu/Neg_1/mul_/Negate" type="Negative" version="opset1">
			<input>
				<port id="0" precision="FP16">
					<dim>1</dim>
					<dim>32</dim>
					<dim>96</dim>
					<dim>96</dim>
				</port>
			</input>
			<output>
				<port id="1" precision="FP16" names="model_1/model/p_re_lu_2/add_model_1/model/p_re_lu_2/Relu_model_1/model/p_re_lu_2/Neg_1_model_1/model/p_re_lu_2/Relu_1_model_1/model/p_re_lu_2/mul_dequantize_prelu/Neg_1:0">
					<dim>1</dim>
					<dim>32</dim>
					<dim>96</dim>
					<dim>96</dim>
				</port>
			</output>
		</layer>
		<layer id="38" name="model_1/model/p_re_lu_2/add_model_1/model/p_re_lu_2/Relu_model_1/model/p_re_lu_2/Neg_1_model_1/model/p_re_lu_2/Relu_1_model_1/model/p_re_lu_2/mul_dequantize_prelu/Relu_1" type="ReLU" version="opset1">
			<input>
				<port id="0" precision="FP16">
					<dim>1</dim>
					<dim>32</dim>
					<dim>96</dim>
					<dim>96</dim>
				</port>
			</input>
			<output>
				<port id="1" precision="FP16" names="model_1/model/p_re_lu_2/add_model_1/model/p_re_lu_2/Relu_model_1/model/p_re_lu_2/Neg_1_model_1/model/p_re_lu_2/Relu_1_model_1/model/p_re_lu_2/mul_dequantize_prelu/Relu_1:0">
					<dim>1</dim>
					<dim>32</dim>
					<dim>96</dim>
					<dim>96</dim>
				</port>
			</output>
		</layer>
		<layer id="39" name="model_1/model/p_re_lu_2/add_model_1/model/p_re_lu_2/Relu_model_1/model/p_re_lu_2/Neg_1_model_1/model/p_re_lu_2/Relu_1_model_1/model/p_re_lu_2/mul_dequantize_prelu/mul" type="Multiply" version="opset1">
			<data auto_broadcast="numpy"/>
			<input>
				<port id="0" precision="FP16">
					<dim>1</dim>
					<dim>32</dim>
					<dim>1</dim>
					<dim>1</dim>
				</port>
				<port id="1" precision="FP16">
					<dim>1</dim>
					<dim>32</dim>
					<dim>96</dim>
					<dim>96</dim>
				</port>
			</input>
			<output>
				<port id="2" precision="FP16" names="model_1/model/p_re_lu_2/add_model_1/model/p_re_lu_2/Relu_model_1/model/p_re_lu_2/Neg_1_model_1/model/p_re_lu_2/Relu_1_model_1/model/p_re_lu_2/mul_dequantize_prelu/mul:0">
					<dim>1</dim>
					<dim>32</dim>
					<dim>96</dim>
					<dim>96</dim>
				</port>
			</output>
		</layer>
		<layer id="40" name="model_1/model/p_re_lu_2/add_model_1/model/p_re_lu_2/Relu_model_1/model/p_re_lu_2/Neg_1_model_1/model/p_re_lu_2/Relu_1_model_1/model/p_re_lu_2/mul_dequantize_prelu/add" type="Add" version="opset1">
			<data auto_broadcast="numpy"/>
			<input>
				<port id="0" precision="FP16">
					<dim>1</dim>
					<dim>32</dim>
					<dim>96</dim>
					<dim>96</dim>
				</port>
				<port id="1" precision="FP16">
					<dim>1</dim>
					<dim>32</dim>
					<dim>96</dim>
					<dim>96</dim>
				</port>
			</input>
			<output>
				<port id="2" precision="FP16" names="model_1/model/p_re_lu_2/add_model_1/model/p_re_lu_2/Relu_model_1/model/p_re_lu_2/Neg_1_model_1/model/p_re_lu_2/Relu_1_model_1/model/p_re_lu_2/mul_dequantize:0,model_1/model/p_re_lu_2/add_model_1/model/p_re_lu_2/Relu_model_1/model/p_re_lu_2/Neg_1_model_1/model/p_re_lu_2/Relu_1_model_1/model/p_re_lu_2/mul_dequantize_prelu/add:0">
					<dim>1</dim>
					<dim>32</dim>
					<dim>96</dim>
					<dim>96</dim>
				</port>
			</output>
		</layer>
		<layer id="41" name="depthwise_2/filter_in" type="Const" version="opset1">
			<data element_type="f16" shape="32, 1, 1, 5, 5" offset="12544" size="1600"/>
			<output>
				<port id="0" precision="FP16" names="depthwise_2/filter_in:0">
					<dim>32</dim>
					<dim>1</dim>
					<dim>1</dim>
					<dim>5</dim>
					<dim>5</dim>
				</port>
			</output>
		</layer>
		<layer id="42" name="depthwise_2" type="GroupConvolution" version="opset1">
			<data strides="1, 1" pads_begin="2, 2" pads_end="2, 2" dilations="1, 1" auto_pad="same_upper"/>
			<input>
				<port id="0" precision="FP16">
					<dim>1</dim>
					<dim>32</dim>
					<dim>96</dim>
					<dim>96</dim>
				</port>
				<port id="1" precision="FP16">
					<dim>32</dim>
					<dim>1</dim>
					<dim>1</dim>
					<dim>5</dim>
					<dim>5</dim>
				</port>
			</input>
			<output>
				<port id="2" precision="FP16" names="depthwise_2:0">
					<dim>1</dim>
					<dim>32</dim>
					<dim>96</dim>
					<dim>96</dim>
				</port>
			</output>
		</layer>
		<layer id="43" name="model_1/model/depthwise_conv2d_2/depthwise1/y" type="Const" version="opset1">
			<data element_type="f16" shape="1, 32, 1, 1" offset="6528" size="64"/>
			<output>
				<port id="0" precision="FP16" names="model_1/model/depthwise_conv2d_2/depthwise1/y:0">
					<dim>1</dim>
					<dim>32</dim>
					<dim>1</dim>
					<dim>1</dim>
				</port>
			</output>
		</layer>
		<layer id="44" name="model_1/model/depthwise_conv2d_2/depthwise1" type="Add" version="opset1">
			<data auto_broadcast="numpy"/>
			<input>
				<port id="0" precision="FP16">
					<dim>1</dim>
					<dim>32</dim>
					<dim>96</dim>
					<dim>96</dim>
				</port>
				<port id="1" precision="FP16">
					<dim>1</dim>
					<dim>32</dim>
					<dim>1</dim>
					<dim>1</dim>
				</port>
			</input>
			<output>
				<port id="2" precision="FP16" names="model_1/model/depthwise_conv2d_2/depthwise1:0">
					<dim>1</dim>
					<dim>32</dim>
					<dim>96</dim>
					<dim>96</dim>
				</port>
			</output>
		</layer>
		<layer id="45" name="Conv2D_3/filter" type="Const" version="opset1">
			<data element_type="f16" shape="32, 32, 1, 1" offset="14144" size="2048"/>
			<output>
				<port id="0" precision="FP16" names="Conv2D_3/filter:0">
					<dim>32</dim>
					<dim>32</dim>
					<dim>1</dim>
					<dim>1</dim>
				</port>
			</output>
		</layer>
		<layer id="46" name="Conv2D_3" type="Convolution" version="opset1">
			<data strides="1, 1" dilations="1, 1" pads_begin="0, 0" pads_end="0, 0" auto_pad="valid"/>
			<input>
				<port id="0" precision="FP16">
					<dim>1</dim>
					<dim>32</dim>
					<dim>96</dim>
					<dim>96</dim>
				</port>
				<port id="1" precision="FP16">
					<dim>32</dim>
					<dim>32</dim>
					<dim>1</dim>
					<dim>1</dim>
				</port>
			</input>
			<output>
				<port id="2" precision="FP16" names="Conv2D_3:0">
					<dim>1</dim>
					<dim>32</dim>
					<dim>96</dim>
					<dim>96</dim>
				</port>
			</output>
		</layer>
		<layer id="47" name="model_1/model/batch_normalization_3/FusedBatchNormV3_model_1/model/depthwise_conv2d_4/depthwise_model_1/model/conv2d_3/Conv2D1/y" type="Const" version="opset1">
			<data element_type="f16" shape="1, 32, 1, 1" offset="16192" size="64"/>
			<output>
				<port id="0" precision="FP16" names="model_1/model/batch_normalization_3/FusedBatchNormV3_model_1/model/depthwise_conv2d_4/depthwise_model_1/model/conv2d_3/Conv2D1/y:0">
					<dim>1</dim>
					<dim>32</dim>
					<dim>1</dim>
					<dim>1</dim>
				</port>
			</output>
		</layer>
		<layer id="48" name="model_1/model/batch_normalization_3/FusedBatchNormV3_model_1/model/depthwise_conv2d_4/depthwise_model_1/model/conv2d_3/Conv2D1" type="Add" version="opset1">
			<data auto_broadcast="numpy"/>
			<input>
				<port id="0" precision="FP16">
					<dim>1</dim>
					<dim>32</dim>
					<dim>96</dim>
					<dim>96</dim>
				</port>
				<port id="1" precision="FP16">
					<dim>1</dim>
					<dim>32</dim>
					<dim>1</dim>
					<dim>1</dim>
				</port>
			</input>
			<output>
				<port id="2" precision="FP16" names="model_1/model/batch_normalization_3/FusedBatchNormV3_model_1/model/depthwise_conv2d_4/depthwise_model_1/model/conv2d_3/Conv2D1:0">
					<dim>1</dim>
					<dim>32</dim>
					<dim>96</dim>
					<dim>96</dim>
				</port>
			</output>
		</layer>
		<layer id="49" name="model_1/model/add_2/add" type="Add" version="opset1">
			<data auto_broadcast="numpy"/>
			<input>
				<port id="0" precision="FP16">
					<dim>1</dim>
					<dim>32</dim>
					<dim>96</dim>
					<dim>96</dim>
				</port>
				<port id="1" precision="FP16">
					<dim>1</dim>
					<dim>32</dim>
					<dim>96</dim>
					<dim>96</dim>
				</port>
			</input>
			<output>
				<port id="2" precision="FP16" names="model_1/model/add_2/add:0">
					<dim>1</dim>
					<dim>32</dim>
					<dim>96</dim>
					<dim>96</dim>
				</port>
			</output>
		</layer>
		<layer id="50" name="model_1/model/p_re_lu_3/add_model_1/model/p_re_lu_3/Relu_model_1/model/p_re_lu_3/Neg_1_model_1/model/p_re_lu_3/Relu_1_model_1/model/p_re_lu_3/mul_dequantize_prelu/Relu" type="ReLU" version="opset1">
			<input>
				<port id="0" precision="FP16">
					<dim>1</dim>
					<dim>32</dim>
					<dim>96</dim>
					<dim>96</dim>
				</port>
			</input>
			<output>
				<port id="1" precision="FP16" names="model_1/model/p_re_lu_3/add_model_1/model/p_re_lu_3/Relu_model_1/model/p_re_lu_3/Neg_1_model_1/model/p_re_lu_3/Relu_1_model_1/model/p_re_lu_3/mul_dequantize_prelu/Relu:0">
					<dim>1</dim>
					<dim>32</dim>
					<dim>96</dim>
					<dim>96</dim>
				</port>
			</output>
		</layer>
		<layer id="51" name="model_1/model/p_re_lu_3/add_model_1/model/p_re_lu_3/Relu_model_1/model/p_re_lu_3/Neg_1_model_1/model/p_re_lu_3/Relu_1_model_1/model/p_re_lu_3/mul_dequantize_prelu/Neg/mul_" type="Const" version="opset1">
			<data element_type="f16" shape="1, 32, 1, 1" offset="16256" size="64"/>
			<output>
				<port id="0" precision="FP16" names="model_1/model/p_re_lu_3/add_model_1/model/p_re_lu_3/Relu_model_1/model/p_re_lu_3/Neg_1_model_1/model/p_re_lu_3/Relu_1_model_1/model/p_re_lu_3/mul_dequantize_prelu/Neg:0">
					<dim>1</dim>
					<dim>32</dim>
					<dim>1</dim>
					<dim>1</dim>
				</port>
			</output>
		</layer>
		<layer id="52" name="model_1/model/p_re_lu_3/add_model_1/model/p_re_lu_3/Relu_model_1/model/p_re_lu_3/Neg_1_model_1/model/p_re_lu_3/Relu_1_model_1/model/p_re_lu_3/mul_dequantize_prelu/Neg_1/mul_/Negate" type="Negative" version="opset1">
			<input>
				<port id="0" precision="FP16">
					<dim>1</dim>
					<dim>32</dim>
					<dim>96</dim>
					<dim>96</dim>
				</port>
			</input>
			<output>
				<port id="1" precision="FP16" names="model_1/model/p_re_lu_3/add_model_1/model/p_re_lu_3/Relu_model_1/model/p_re_lu_3/Neg_1_model_1/model/p_re_lu_3/Relu_1_model_1/model/p_re_lu_3/mul_dequantize_prelu/Neg_1:0">
					<dim>1</dim>
					<dim>32</dim>
					<dim>96</dim>
					<dim>96</dim>
				</port>
			</output>
		</layer>
		<layer id="53" name="model_1/model/p_re_lu_3/add_model_1/model/p_re_lu_3/Relu_model_1/model/p_re_lu_3/Neg_1_model_1/model/p_re_lu_3/Relu_1_model_1/model/p_re_lu_3/mul_dequantize_prelu/Relu_1" type="ReLU" version="opset1">
			<input>
				<port id="0" precision="FP16">
					<dim>1</dim>
					<dim>32</dim>
					<dim>96</dim>
					<dim>96</dim>
				</port>
			</input>
			<output>
				<port id="1" precision="FP16" names="model_1/model/p_re_lu_3/add_model_1/model/p_re_lu_3/Relu_model_1/model/p_re_lu_3/Neg_1_model_1/model/p_re_lu_3/Relu_1_model_1/model/p_re_lu_3/mul_dequantize_prelu/Relu_1:0">
					<dim>1</dim>
					<dim>32</dim>
					<dim>96</dim>
					<dim>96</dim>
				</port>
			</output>
		</layer>
		<layer id="54" name="model_1/model/p_re_lu_3/add_model_1/model/p_re_lu_3/Relu_model_1/model/p_re_lu_3/Neg_1_model_1/model/p_re_lu_3/Relu_1_model_1/model/p_re_lu_3/mul_dequantize_prelu/mul" type="Multiply" version="opset1">
			<data auto_broadcast="numpy"/>
			<input>
				<port id="0" precision="FP16">
					<dim>1</dim>
					<dim>32</dim>
					<dim>1</dim>
					<dim>1</dim>
				</port>
				<port id="1" precision="FP16">
					<dim>1</dim>
					<dim>32</dim>
					<dim>96</dim>
					<dim>96</dim>
				</port>
			</input>
			<output>
				<port id="2" precision="FP16" names="model_1/model/p_re_lu_3/add_model_1/model/p_re_lu_3/Relu_model_1/model/p_re_lu_3/Neg_1_model_1/model/p_re_lu_3/Relu_1_model_1/model/p_re_lu_3/mul_dequantize_prelu/mul:0">
					<dim>1</dim>
					<dim>32</dim>
					<dim>96</dim>
					<dim>96</dim>
				</port>
			</output>
		</layer>
		<layer id="55" name="model_1/model/p_re_lu_3/add_model_1/model/p_re_lu_3/Relu_model_1/model/p_re_lu_3/Neg_1_model_1/model/p_re_lu_3/Relu_1_model_1/model/p_re_lu_3/mul_dequantize_prelu/add" type="Add" version="opset1">
			<data auto_broadcast="numpy"/>
			<input>
				<port id="0" precision="FP16">
					<dim>1</dim>
					<dim>32</dim>
					<dim>96</dim>
					<dim>96</dim>
				</port>
				<port id="1" precision="FP16">
					<dim>1</dim>
					<dim>32</dim>
					<dim>96</dim>
					<dim>96</dim>
				</port>
			</input>
			<output>
				<port id="2" precision="FP16" names="model_1/model/p_re_lu_3/add_model_1/model/p_re_lu_3/Relu_model_1/model/p_re_lu_3/Neg_1_model_1/model/p_re_lu_3/Relu_1_model_1/model/p_re_lu_3/mul_dequantize:0,model_1/model/p_re_lu_3/add_model_1/model/p_re_lu_3/Relu_model_1/model/p_re_lu_3/Neg_1_model_1/model/p_re_lu_3/Relu_1_model_1/model/p_re_lu_3/mul_dequantize_prelu/add:0">
					<dim>1</dim>
					<dim>32</dim>
					<dim>96</dim>
					<dim>96</dim>
				</port>
			</output>
		</layer>
		<layer id="56" name="depthwise_3/filter_in" type="Const" version="opset1">
			<data element_type="f16" shape="32, 1, 1, 5, 5" offset="16320" size="1600"/>
			<output>
				<port id="0" precision="FP16" names="depthwise_3/filter_in:0">
					<dim>32</dim>
					<dim>1</dim>
					<dim>1</dim>
					<dim>5</dim>
					<dim>5</dim>
				</port>
			</output>
		</layer>
		<layer id="57" name="depthwise_3" type="GroupConvolution" version="opset1">
			<data strides="1, 1" pads_begin="2, 2" pads_end="2, 2" dilations="1, 1" auto_pad="same_upper"/>
			<input>
				<port id="0" precision="FP16">
					<dim>1</dim>
					<dim>32</dim>
					<dim>96</dim>
					<dim>96</dim>
				</port>
				<port id="1" precision="FP16">
					<dim>32</dim>
					<dim>1</dim>
					<dim>1</dim>
					<dim>5</dim>
					<dim>5</dim>
				</port>
			</input>
			<output>
				<port id="2" precision="FP16" names="depthwise_3:0">
					<dim>1</dim>
					<dim>32</dim>
					<dim>96</dim>
					<dim>96</dim>
				</port>
			</output>
		</layer>
		<layer id="58" name="model_1/model/depthwise_conv2d_3/depthwise1/y" type="Const" version="opset1">
			<data element_type="f16" shape="1, 32, 1, 1" offset="6528" size="64"/>
			<output>
				<port id="0" precision="FP16" names="model_1/model/depthwise_conv2d_3/depthwise1/y:0">
					<dim>1</dim>
					<dim>32</dim>
					<dim>1</dim>
					<dim>1</dim>
				</port>
			</output>
		</layer>
		<layer id="59" name="model_1/model/depthwise_conv2d_3/depthwise1" type="Add" version="opset1">
			<data auto_broadcast="numpy"/>
			<input>
				<port id="0" precision="FP16">
					<dim>1</dim>
					<dim>32</dim>
					<dim>96</dim>
					<dim>96</dim>
				</port>
				<port id="1" precision="FP16">
					<dim>1</dim>
					<dim>32</dim>
					<dim>1</dim>
					<dim>1</dim>
				</port>
			</input>
			<output>
				<port id="2" precision="FP16" names="model_1/model/depthwise_conv2d_3/depthwise1:0">
					<dim>1</dim>
					<dim>32</dim>
					<dim>96</dim>
					<dim>96</dim>
				</port>
			</output>
		</layer>
		<layer id="60" name="Conv2D_4/filter" type="Const" version="opset1">
			<data element_type="f16" shape="32, 32, 1, 1" offset="17920" size="2048"/>
			<output>
				<port id="0" precision="FP16" names="Conv2D_4/filter:0">
					<dim>32</dim>
					<dim>32</dim>
					<dim>1</dim>
					<dim>1</dim>
				</port>
			</output>
		</layer>
		<layer id="61" name="Conv2D_4" type="Convolution" version="opset1">
			<data strides="1, 1" dilations="1, 1" pads_begin="0, 0" pads_end="0, 0" auto_pad="valid"/>
			<input>
				<port id="0" precision="FP16">
					<dim>1</dim>
					<dim>32</dim>
					<dim>96</dim>
					<dim>96</dim>
				</port>
				<port id="1" precision="FP16">
					<dim>32</dim>
					<dim>32</dim>
					<dim>1</dim>
					<dim>1</dim>
				</port>
			</input>
			<output>
				<port id="2" precision="FP16" names="Conv2D_4:0">
					<dim>1</dim>
					<dim>32</dim>
					<dim>96</dim>
					<dim>96</dim>
				</port>
			</output>
		</layer>
		<layer id="62" name="model_1/model/batch_normalization_4/FusedBatchNormV3_model_1/model/depthwise_conv2d_4/depthwise_model_1/model/conv2d_4/Conv2D1/y" type="Const" version="opset1">
			<data element_type="f16" shape="1, 32, 1, 1" offset="19968" size="64"/>
			<output>
				<port id="0" precision="FP16" names="model_1/model/batch_normalization_4/FusedBatchNormV3_model_1/model/depthwise_conv2d_4/depthwise_model_1/model/conv2d_4/Conv2D1/y:0">
					<dim>1</dim>
					<dim>32</dim>
					<dim>1</dim>
					<dim>1</dim>
				</port>
			</output>
		</layer>
		<layer id="63" name="model_1/model/batch_normalization_4/FusedBatchNormV3_model_1/model/depthwise_conv2d_4/depthwise_model_1/model/conv2d_4/Conv2D1" type="Add" version="opset1">
			<data auto_broadcast="numpy"/>
			<input>
				<port id="0" precision="FP16">
					<dim>1</dim>
					<dim>32</dim>
					<dim>96</dim>
					<dim>96</dim>
				</port>
				<port id="1" precision="FP16">
					<dim>1</dim>
					<dim>32</dim>
					<dim>1</dim>
					<dim>1</dim>
				</port>
			</input>
			<output>
				<port id="2" precision="FP16" names="model_1/model/batch_normalization_4/FusedBatchNormV3_model_1/model/depthwise_conv2d_4/depthwise_model_1/model/conv2d_4/Conv2D1:0">
					<dim>1</dim>
					<dim>32</dim>
					<dim>96</dim>
					<dim>96</dim>
				</port>
			</output>
		</layer>
		<layer id="64" name="model_1/model/add_3/add" type="Add" version="opset1">
			<data auto_broadcast="numpy"/>
			<input>
				<port id="0" precision="FP16">
					<dim>1</dim>
					<dim>32</dim>
					<dim>96</dim>
					<dim>96</dim>
				</port>
				<port id="1" precision="FP16">
					<dim>1</dim>
					<dim>32</dim>
					<dim>96</dim>
					<dim>96</dim>
				</port>
			</input>
			<output>
				<port id="2" precision="FP16" names="model_1/model/add_3/add:0">
					<dim>1</dim>
					<dim>32</dim>
					<dim>96</dim>
					<dim>96</dim>
				</port>
			</output>
		</layer>
		<layer id="65" name="model_1/model/p_re_lu_4/add_model_1/model/p_re_lu_4/Relu_model_1/model/p_re_lu_4/Neg_1_model_1/model/p_re_lu_4/Relu_1_model_1/model/p_re_lu_4/mul_dequantize_prelu/Relu" type="ReLU" version="opset1">
			<input>
				<port id="0" precision="FP16">
					<dim>1</dim>
					<dim>32</dim>
					<dim>96</dim>
					<dim>96</dim>
				</port>
			</input>
			<output>
				<port id="1" precision="FP16" names="model_1/model/p_re_lu_4/add_model_1/model/p_re_lu_4/Relu_model_1/model/p_re_lu_4/Neg_1_model_1/model/p_re_lu_4/Relu_1_model_1/model/p_re_lu_4/mul_dequantize_prelu/Relu:0">
					<dim>1</dim>
					<dim>32</dim>
					<dim>96</dim>
					<dim>96</dim>
				</port>
			</output>
		</layer>
		<layer id="66" name="model_1/model/p_re_lu_4/add_model_1/model/p_re_lu_4/Relu_model_1/model/p_re_lu_4/Neg_1_model_1/model/p_re_lu_4/Relu_1_model_1/model/p_re_lu_4/mul_dequantize_prelu/Neg/mul_" type="Const" version="opset1">
			<data element_type="f16" shape="1, 32, 1, 1" offset="20032" size="64"/>
			<output>
				<port id="0" precision="FP16" names="model_1/model/p_re_lu_4/add_model_1/model/p_re_lu_4/Relu_model_1/model/p_re_lu_4/Neg_1_model_1/model/p_re_lu_4/Relu_1_model_1/model/p_re_lu_4/mul_dequantize_prelu/Neg:0">
					<dim>1</dim>
					<dim>32</dim>
					<dim>1</dim>
					<dim>1</dim>
				</port>
			</output>
		</layer>
		<layer id="67" name="model_1/model/p_re_lu_4/add_model_1/model/p_re_lu_4/Relu_model_1/model/p_re_lu_4/Neg_1_model_1/model/p_re_lu_4/Relu_1_model_1/model/p_re_lu_4/mul_dequantize_prelu/Neg_1/mul_/Negate" type="Negative" version="opset1">
			<input>
				<port id="0" precision="FP16">
					<dim>1</dim>
					<dim>32</dim>
					<dim>96</dim>
					<dim>96</dim>
				</port>
			</input>
			<output>
				<port id="1" precision="FP16" names="model_1/model/p_re_lu_4/add_model_1/model/p_re_lu_4/Relu_model_1/model/p_re_lu_4/Neg_1_model_1/model/p_re_lu_4/Relu_1_model_1/model/p_re_lu_4/mul_dequantize_prelu/Neg_1:0">
					<dim>1</dim>
					<dim>32</dim>
					<dim>96</dim>
					<dim>96</dim>
				</port>
			</output>
		</layer>
		<layer id="68" name="model_1/model/p_re_lu_4/add_model_1/model/p_re_lu_4/Relu_model_1/model/p_re_lu_4/Neg_1_model_1/model/p_re_lu_4/Relu_1_model_1/model/p_re_lu_4/mul_dequantize_prelu/Relu_1" type="ReLU" version="opset1">
			<input>
				<port id="0" precision="FP16">
					<dim>1</dim>
					<dim>32</dim>
					<dim>96</dim>
					<dim>96</dim>
				</port>
			</input>
			<output>
				<port id="1" precision="FP16" names="model_1/model/p_re_lu_4/add_model_1/model/p_re_lu_4/Relu_model_1/model/p_re_lu_4/Neg_1_model_1/model/p_re_lu_4/Relu_1_model_1/model/p_re_lu_4/mul_dequantize_prelu/Relu_1:0">
					<dim>1</dim>
					<dim>32</dim>
					<dim>96</dim>
					<dim>96</dim>
				</port>
			</output>
		</layer>
		<layer id="69" name="model_1/model/p_re_lu_4/add_model_1/model/p_re_lu_4/Relu_model_1/model/p_re_lu_4/Neg_1_model_1/model/p_re_lu_4/Relu_1_model_1/model/p_re_lu_4/mul_dequantize_prelu/mul" type="Multiply" version="opset1">
			<data auto_broadcast="numpy"/>
			<input>
				<port id="0" precision="FP16">
					<dim>1</dim>
					<dim>32</dim>
					<dim>1</dim>
					<dim>1</dim>
				</port>
				<port id="1" precision="FP16">
					<dim>1</dim>
					<dim>32</dim>
					<dim>96</dim>
					<dim>96</dim>
				</port>
			</input>
			<output>
				<port id="2" precision="FP16" names="model_1/model/p_re_lu_4/add_model_1/model/p_re_lu_4/Relu_model_1/model/p_re_lu_4/Neg_1_model_1/model/p_re_lu_4/Relu_1_model_1/model/p_re_lu_4/mul_dequantize_prelu/mul:0">
					<dim>1</dim>
					<dim>32</dim>
					<dim>96</dim>
					<dim>96</dim>
				</port>
			</output>
		</layer>
		<layer id="70" name="model_1/model/p_re_lu_4/add_model_1/model/p_re_lu_4/Relu_model_1/model/p_re_lu_4/Neg_1_model_1/model/p_re_lu_4/Relu_1_model_1/model/p_re_lu_4/mul_dequantize_prelu/add" type="Add" version="opset1">
			<data auto_broadcast="numpy"/>
			<input>
				<port id="0" precision="FP16">
					<dim>1</dim>
					<dim>32</dim>
					<dim>96</dim>
					<dim>96</dim>
				</port>
				<port id="1" precision="FP16">
					<dim>1</dim>
					<dim>32</dim>
					<dim>96</dim>
					<dim>96</dim>
				</port>
			</input>
			<output>
				<port id="2" precision="FP16" names="model_1/model/p_re_lu_4/add_model_1/model/p_re_lu_4/Relu_model_1/model/p_re_lu_4/Neg_1_model_1/model/p_re_lu_4/Relu_1_model_1/model/p_re_lu_4/mul_dequantize:0,model_1/model/p_re_lu_4/add_model_1/model/p_re_lu_4/Relu_model_1/model/p_re_lu_4/Neg_1_model_1/model/p_re_lu_4/Relu_1_model_1/model/p_re_lu_4/mul_dequantize_prelu/add:0">
					<dim>1</dim>
					<dim>32</dim>
					<dim>96</dim>
					<dim>96</dim>
				</port>
			</output>
		</layer>
		<layer id="71" name="model_1/model/max_pooling2d/MaxPool" type="MaxPool" version="opset1">
			<data strides="2, 2" pads_begin="0, 0" pads_end="0, 0" kernel="2, 2" rounding_type="floor" auto_pad="same_upper"/>
			<input>
				<port id="0" precision="FP16">
					<dim>1</dim>
					<dim>32</dim>
					<dim>96</dim>
					<dim>96</dim>
				</port>
			</input>
			<output>
				<port id="1" precision="FP16" names="model_1/model/max_pooling2d/MaxPool:0">
					<dim>1</dim>
					<dim>32</dim>
					<dim>48</dim>
					<dim>48</dim>
				</port>
			</output>
		</layer>
		<layer id="72" name="1105117123" type="Const" version="opset1">
			<data element_type="i64" shape="4" offset="20096" size="32"/>
			<output>
				<port id="0" precision="I64">
					<dim>4</dim>
				</port>
			</output>
		</layer>
		<layer id="73" name="1105717387" type="Const" version="opset1">
			<data element_type="i64" shape="4" offset="20128" size="32"/>
			<output>
				<port id="0" precision="I64">
					<dim>4</dim>
				</port>
			</output>
		</layer>
		<layer id="74" name="model_1/model/channel_padding/Pad/pad_value_convert_input_port_0/value" type="Const" version="opset1">
			<data element_type="f16" shape="" offset="20160" size="2"/>
			<output>
				<port id="0" precision="FP16"/>
			</output>
		</layer>
		<layer id="75" name="model_1/model/channel_padding/Pad/pad_value_convert" type="ConvertLike" version="opset1">
			<input>
				<port id="0" precision="FP16"/>
				<port id="1" precision="FP16">
					<dim>1</dim>
					<dim>32</dim>
					<dim>48</dim>
					<dim>48</dim>
				</port>
			</input>
			<output>
				<port id="2" precision="FP16"/>
			</output>
		</layer>
		<layer id="76" name="model_1/model/channel_padding/Pad" type="Pad" version="opset1">
			<data pad_mode="constant"/>
			<input>
				<port id="0" precision="FP16">
					<dim>1</dim>
					<dim>32</dim>
					<dim>48</dim>
					<dim>48</dim>
				</port>
				<port id="1" precision="I64">
					<dim>4</dim>
				</port>
				<port id="2" precision="I64">
					<dim>4</dim>
				</port>
				<port id="3" precision="FP16"/>
			</input>
			<output>
				<port id="4" precision="FP16" names="model_1/model/channel_padding/Pad:0">
					<dim>1</dim>
					<dim>64</dim>
					<dim>48</dim>
					<dim>48</dim>
				</port>
			</output>
		</layer>
		<layer id="77" name="depthwise_4/filter_in" type="Const" version="opset1">
			<data element_type="f16" shape="32, 1, 1, 5, 5" offset="20162" size="1600"/>
			<output>
				<port id="0" precision="FP16" names="depthwise_4/filter_in:0">
					<dim>32</dim>
					<dim>1</dim>
					<dim>1</dim>
					<dim>5</dim>
					<dim>5</dim>
				</port>
			</output>
		</layer>
		<layer id="78" name="depthwise_4" type="GroupConvolution" version="opset1">
			<data strides="2, 2" pads_begin="1, 1" pads_end="2, 2" dilations="1, 1" auto_pad="same_upper"/>
			<input>
				<port id="0" precision="FP16">
					<dim>1</dim>
					<dim>32</dim>
					<dim>96</dim>
					<dim>96</dim>
				</port>
				<port id="1" precision="FP16">
					<dim>32</dim>
					<dim>1</dim>
					<dim>1</dim>
					<dim>5</dim>
					<dim>5</dim>
				</port>
			</input>
			<output>
				<port id="2" precision="FP16" names="depthwise_4:0">
					<dim>1</dim>
					<dim>32</dim>
					<dim>48</dim>
					<dim>48</dim>
				</port>
			</output>
		</layer>
		<layer id="79" name="model_1/model/depthwise_conv2d_4/depthwise2/y" type="Const" version="opset1">
			<data element_type="f16" shape="1, 32, 1, 1" offset="6528" size="64"/>
			<output>
				<port id="0" precision="FP16" names="model_1/model/depthwise_conv2d_4/depthwise2/y:0">
					<dim>1</dim>
					<dim>32</dim>
					<dim>1</dim>
					<dim>1</dim>
				</port>
			</output>
		</layer>
		<layer id="80" name="model_1/model/depthwise_conv2d_4/depthwise2" type="Add" version="opset1">
			<data auto_broadcast="numpy"/>
			<input>
				<port id="0" precision="FP16">
					<dim>1</dim>
					<dim>32</dim>
					<dim>48</dim>
					<dim>48</dim>
				</port>
				<port id="1" precision="FP16">
					<dim>1</dim>
					<dim>32</dim>
					<dim>1</dim>
					<dim>1</dim>
				</port>
			</input>
			<output>
				<port id="2" precision="FP16" names="model_1/model/depthwise_conv2d_4/depthwise2:0">
					<dim>1</dim>
					<dim>32</dim>
					<dim>48</dim>
					<dim>48</dim>
				</port>
			</output>
		</layer>
		<layer id="81" name="Conv2D_5/filter" type="Const" version="opset1">
			<data element_type="f16" shape="64, 32, 1, 1" offset="21762" size="4096"/>
			<output>
				<port id="0" precision="FP16" names="Conv2D_5/filter:0">
					<dim>64</dim>
					<dim>32</dim>
					<dim>1</dim>
					<dim>1</dim>
				</port>
			</output>
		</layer>
		<layer id="82" name="Conv2D_5" type="Convolution" version="opset1">
			<data strides="1, 1" dilations="1, 1" pads_begin="0, 0" pads_end="0, 0" auto_pad="valid"/>
			<input>
				<port id="0" precision="FP16">
					<dim>1</dim>
					<dim>32</dim>
					<dim>48</dim>
					<dim>48</dim>
				</port>
				<port id="1" precision="FP16">
					<dim>64</dim>
					<dim>32</dim>
					<dim>1</dim>
					<dim>1</dim>
				</port>
			</input>
			<output>
				<port id="2" precision="FP16" names="Conv2D_5:0">
					<dim>1</dim>
					<dim>64</dim>
					<dim>48</dim>
					<dim>48</dim>
				</port>
			</output>
		</layer>
		<layer id="83" name="model_1/model/batch_normalization_5/FusedBatchNormV3_model_1/model/depthwise_conv2d_9/depthwise_model_1/model/conv2d_5/Conv2D1/y" type="Const" version="opset1">
			<data element_type="f16" shape="1, 64, 1, 1" offset="25858" size="128"/>
			<output>
				<port id="0" precision="FP16" names="model_1/model/batch_normalization_5/FusedBatchNormV3_model_1/model/depthwise_conv2d_9/depthwise_model_1/model/conv2d_5/Conv2D1/y:0">
					<dim>1</dim>
					<dim>64</dim>
					<dim>1</dim>
					<dim>1</dim>
				</port>
			</output>
		</layer>
		<layer id="84" name="model_1/model/batch_normalization_5/FusedBatchNormV3_model_1/model/depthwise_conv2d_9/depthwise_model_1/model/conv2d_5/Conv2D1" type="Add" version="opset1">
			<data auto_broadcast="numpy"/>
			<input>
				<port id="0" precision="FP16">
					<dim>1</dim>
					<dim>64</dim>
					<dim>48</dim>
					<dim>48</dim>
				</port>
				<port id="1" precision="FP16">
					<dim>1</dim>
					<dim>64</dim>
					<dim>1</dim>
					<dim>1</dim>
				</port>
			</input>
			<output>
				<port id="2" precision="FP16" names="model_1/model/batch_normalization_5/FusedBatchNormV3_model_1/model/depthwise_conv2d_9/depthwise_model_1/model/conv2d_5/Conv2D1:0">
					<dim>1</dim>
					<dim>64</dim>
					<dim>48</dim>
					<dim>48</dim>
				</port>
			</output>
		</layer>
		<layer id="85" name="model_1/model/add_4/add" type="Add" version="opset1">
			<data auto_broadcast="numpy"/>
			<input>
				<port id="0" precision="FP16">
					<dim>1</dim>
					<dim>64</dim>
					<dim>48</dim>
					<dim>48</dim>
				</port>
				<port id="1" precision="FP16">
					<dim>1</dim>
					<dim>64</dim>
					<dim>48</dim>
					<dim>48</dim>
				</port>
			</input>
			<output>
				<port id="2" precision="FP16" names="model_1/model/add_4/add:0">
					<dim>1</dim>
					<dim>64</dim>
					<dim>48</dim>
					<dim>48</dim>
				</port>
			</output>
		</layer>
		<layer id="86" name="model_1/model/p_re_lu_5/add_model_1/model/p_re_lu_5/Relu_model_1/model/p_re_lu_5/Neg_1_model_1/model/p_re_lu_5/Relu_1_model_1/model/p_re_lu_5/mul_dequantize_prelu/Relu" type="ReLU" version="opset1">
			<input>
				<port id="0" precision="FP16">
					<dim>1</dim>
					<dim>64</dim>
					<dim>48</dim>
					<dim>48</dim>
				</port>
			</input>
			<output>
				<port id="1" precision="FP16" names="model_1/model/p_re_lu_5/add_model_1/model/p_re_lu_5/Relu_model_1/model/p_re_lu_5/Neg_1_model_1/model/p_re_lu_5/Relu_1_model_1/model/p_re_lu_5/mul_dequantize_prelu/Relu:0">
					<dim>1</dim>
					<dim>64</dim>
					<dim>48</dim>
					<dim>48</dim>
				</port>
			</output>
		</layer>
		<layer id="87" name="model_1/model/p_re_lu_5/add_model_1/model/p_re_lu_5/Relu_model_1/model/p_re_lu_5/Neg_1_model_1/model/p_re_lu_5/Relu_1_model_1/model/p_re_lu_5/mul_dequantize_prelu/Neg/mul_" type="Const" version="opset1">
			<data element_type="f16" shape="1, 64, 1, 1" offset="25986" size="128"/>
			<output>
				<port id="0" precision="FP16" names="model_1/model/p_re_lu_5/add_model_1/model/p_re_lu_5/Relu_model_1/model/p_re_lu_5/Neg_1_model_1/model/p_re_lu_5/Relu_1_model_1/model/p_re_lu_5/mul_dequantize_prelu/Neg:0">
					<dim>1</dim>
					<dim>64</dim>
					<dim>1</dim>
					<dim>1</dim>
				</port>
			</output>
		</layer>
		<layer id="88" name="model_1/model/p_re_lu_5/add_model_1/model/p_re_lu_5/Relu_model_1/model/p_re_lu_5/Neg_1_model_1/model/p_re_lu_5/Relu_1_model_1/model/p_re_lu_5/mul_dequantize_prelu/Neg_1/mul_/Negate" type="Negative" version="opset1">
			<input>
				<port id="0" precision="FP16">
					<dim>1</dim>
					<dim>64</dim>
					<dim>48</dim>
					<dim>48</dim>
				</port>
			</input>
			<output>
				<port id="1" precision="FP16" names="model_1/model/p_re_lu_5/add_model_1/model/p_re_lu_5/Relu_model_1/model/p_re_lu_5/Neg_1_model_1/model/p_re_lu_5/Relu_1_model_1/model/p_re_lu_5/mul_dequantize_prelu/Neg_1:0">
					<dim>1</dim>
					<dim>64</dim>
					<dim>48</dim>
					<dim>48</dim>
				</port>
			</output>
		</layer>
		<layer id="89" name="model_1/model/p_re_lu_5/add_model_1/model/p_re_lu_5/Relu_model_1/model/p_re_lu_5/Neg_1_model_1/model/p_re_lu_5/Relu_1_model_1/model/p_re_lu_5/mul_dequantize_prelu/Relu_1" type="ReLU" version="opset1">
			<input>
				<port id="0" precision="FP16">
					<dim>1</dim>
					<dim>64</dim>
					<dim>48</dim>
					<dim>48</dim>
				</port>
			</input>
			<output>
				<port id="1" precision="FP16" names="model_1/model/p_re_lu_5/add_model_1/model/p_re_lu_5/Relu_model_1/model/p_re_lu_5/Neg_1_model_1/model/p_re_lu_5/Relu_1_model_1/model/p_re_lu_5/mul_dequantize_prelu/Relu_1:0">
					<dim>1</dim>
					<dim>64</dim>
					<dim>48</dim>
					<dim>48</dim>
				</port>
			</output>
		</layer>
		<layer id="90" name="model_1/model/p_re_lu_5/add_model_1/model/p_re_lu_5/Relu_model_1/model/p_re_lu_5/Neg_1_model_1/model/p_re_lu_5/Relu_1_model_1/model/p_re_lu_5/mul_dequantize_prelu/mul" type="Multiply" version="opset1">
			<data auto_broadcast="numpy"/>
			<input>
				<port id="0" precision="FP16">
					<dim>1</dim>
					<dim>64</dim>
					<dim>1</dim>
					<dim>1</dim>
				</port>
				<port id="1" precision="FP16">
					<dim>1</dim>
					<dim>64</dim>
					<dim>48</dim>
					<dim>48</dim>
				</port>
			</input>
			<output>
				<port id="2" precision="FP16" names="model_1/model/p_re_lu_5/add_model_1/model/p_re_lu_5/Relu_model_1/model/p_re_lu_5/Neg_1_model_1/model/p_re_lu_5/Relu_1_model_1/model/p_re_lu_5/mul_dequantize_prelu/mul:0">
					<dim>1</dim>
					<dim>64</dim>
					<dim>48</dim>
					<dim>48</dim>
				</port>
			</output>
		</layer>
		<layer id="91" name="model_1/model/p_re_lu_5/add_model_1/model/p_re_lu_5/Relu_model_1/model/p_re_lu_5/Neg_1_model_1/model/p_re_lu_5/Relu_1_model_1/model/p_re_lu_5/mul_dequantize_prelu/add" type="Add" version="opset1">
			<data auto_broadcast="numpy"/>
			<input>
				<port id="0" precision="FP16">
					<dim>1</dim>
					<dim>64</dim>
					<dim>48</dim>
					<dim>48</dim>
				</port>
				<port id="1" precision="FP16">
					<dim>1</dim>
					<dim>64</dim>
					<dim>48</dim>
					<dim>48</dim>
				</port>
			</input>
			<output>
				<port id="2" precision="FP16" names="model_1/model/p_re_lu_5/add_model_1/model/p_re_lu_5/Relu_model_1/model/p_re_lu_5/Neg_1_model_1/model/p_re_lu_5/Relu_1_model_1/model/p_re_lu_5/mul_dequantize:0,model_1/model/p_re_lu_5/add_model_1/model/p_re_lu_5/Relu_model_1/model/p_re_lu_5/Neg_1_model_1/model/p_re_lu_5/Relu_1_model_1/model/p_re_lu_5/mul_dequantize_prelu/add:0">
					<dim>1</dim>
					<dim>64</dim>
					<dim>48</dim>
					<dim>48</dim>
				</port>
			</output>
		</layer>
		<layer id="92" name="depthwise_5/filter_in" type="Const" version="opset1">
			<data element_type="f16" shape="64, 1, 1, 5, 5" offset="26114" size="3200"/>
			<output>
				<port id="0" precision="FP16" names="depthwise_5/filter_in:0">
					<dim>64</dim>
					<dim>1</dim>
					<dim>1</dim>
					<dim>5</dim>
					<dim>5</dim>
				</port>
			</output>
		</layer>
		<layer id="93" name="depthwise_5" type="GroupConvolution" version="opset1">
			<data strides="1, 1" pads_begin="2, 2" pads_end="2, 2" dilations="1, 1" auto_pad="same_upper"/>
			<input>
				<port id="0" precision="FP16">
					<dim>1</dim>
					<dim>64</dim>
					<dim>48</dim>
					<dim>48</dim>
				</port>
				<port id="1" precision="FP16">
					<dim>64</dim>
					<dim>1</dim>
					<dim>1</dim>
					<dim>5</dim>
					<dim>5</dim>
				</port>
			</input>
			<output>
				<port id="2" precision="FP16" names="depthwise_5:0">
					<dim>1</dim>
					<dim>64</dim>
					<dim>48</dim>
					<dim>48</dim>
				</port>
			</output>
		</layer>
		<layer id="94" name="model_1/model/depthwise_conv2d_5/depthwise1/y" type="Const" version="opset1">
			<data element_type="f16" shape="1, 64, 1, 1" offset="29314" size="128"/>
			<output>
				<port id="0" precision="FP16" names="model_1/model/depthwise_conv2d_5/depthwise1/y:0">
					<dim>1</dim>
					<dim>64</dim>
					<dim>1</dim>
					<dim>1</dim>
				</port>
			</output>
		</layer>
		<layer id="95" name="model_1/model/depthwise_conv2d_5/depthwise1" type="Add" version="opset1">
			<data auto_broadcast="numpy"/>
			<input>
				<port id="0" precision="FP16">
					<dim>1</dim>
					<dim>64</dim>
					<dim>48</dim>
					<dim>48</dim>
				</port>
				<port id="1" precision="FP16">
					<dim>1</dim>
					<dim>64</dim>
					<dim>1</dim>
					<dim>1</dim>
				</port>
			</input>
			<output>
				<port id="2" precision="FP16" names="model_1/model/depthwise_conv2d_5/depthwise1:0">
					<dim>1</dim>
					<dim>64</dim>
					<dim>48</dim>
					<dim>48</dim>
				</port>
			</output>
		</layer>
		<layer id="96" name="Conv2D_6/filter" type="Const" version="opset1">
			<data element_type="f16" shape="64, 64, 1, 1" offset="29442" size="8192"/>
			<output>
				<port id="0" precision="FP16" names="Conv2D_6/filter:0">
					<dim>64</dim>
					<dim>64</dim>
					<dim>1</dim>
					<dim>1</dim>
				</port>
			</output>
		</layer>
		<layer id="97" name="Conv2D_6" type="Convolution" version="opset1">
			<data strides="1, 1" dilations="1, 1" pads_begin="0, 0" pads_end="0, 0" auto_pad="valid"/>
			<input>
				<port id="0" precision="FP16">
					<dim>1</dim>
					<dim>64</dim>
					<dim>48</dim>
					<dim>48</dim>
				</port>
				<port id="1" precision="FP16">
					<dim>64</dim>
					<dim>64</dim>
					<dim>1</dim>
					<dim>1</dim>
				</port>
			</input>
			<output>
				<port id="2" precision="FP16" names="Conv2D_6:0">
					<dim>1</dim>
					<dim>64</dim>
					<dim>48</dim>
					<dim>48</dim>
				</port>
			</output>
		</layer>
		<layer id="98" name="model_1/model/batch_normalization_6/FusedBatchNormV3_model_1/model/depthwise_conv2d_9/depthwise_model_1/model/conv2d_6/Conv2D1/y" type="Const" version="opset1">
			<data element_type="f16" shape="1, 64, 1, 1" offset="37634" size="128"/>
			<output>
				<port id="0" precision="FP16" names="model_1/model/batch_normalization_6/FusedBatchNormV3_model_1/model/depthwise_conv2d_9/depthwise_model_1/model/conv2d_6/Conv2D1/y:0">
					<dim>1</dim>
					<dim>64</dim>
					<dim>1</dim>
					<dim>1</dim>
				</port>
			</output>
		</layer>
		<layer id="99" name="model_1/model/batch_normalization_6/FusedBatchNormV3_model_1/model/depthwise_conv2d_9/depthwise_model_1/model/conv2d_6/Conv2D1" type="Add" version="opset1">
			<data auto_broadcast="numpy"/>
			<input>
				<port id="0" precision="FP16">
					<dim>1</dim>
					<dim>64</dim>
					<dim>48</dim>
					<dim>48</dim>
				</port>
				<port id="1" precision="FP16">
					<dim>1</dim>
					<dim>64</dim>
					<dim>1</dim>
					<dim>1</dim>
				</port>
			</input>
			<output>
				<port id="2" precision="FP16" names="model_1/model/batch_normalization_6/FusedBatchNormV3_model_1/model/depthwise_conv2d_9/depthwise_model_1/model/conv2d_6/Conv2D1:0">
					<dim>1</dim>
					<dim>64</dim>
					<dim>48</dim>
					<dim>48</dim>
				</port>
			</output>
		</layer>
		<layer id="100" name="model_1/model/add_5/add" type="Add" version="opset1">
			<data auto_broadcast="numpy"/>
			<input>
				<port id="0" precision="FP16">
					<dim>1</dim>
					<dim>64</dim>
					<dim>48</dim>
					<dim>48</dim>
				</port>
				<port id="1" precision="FP16">
					<dim>1</dim>
					<dim>64</dim>
					<dim>48</dim>
					<dim>48</dim>
				</port>
			</input>
			<output>
				<port id="2" precision="FP16" names="model_1/model/add_5/add:0">
					<dim>1</dim>
					<dim>64</dim>
					<dim>48</dim>
					<dim>48</dim>
				</port>
			</output>
		</layer>
		<layer id="101" name="model_1/model/p_re_lu_6/add_model_1/model/p_re_lu_6/Relu_model_1/model/p_re_lu_6/Neg_1_model_1/model/p_re_lu_6/Relu_1_model_1/model/p_re_lu_6/mul_dequantize_prelu/Relu" type="ReLU" version="opset1">
			<input>
				<port id="0" precision="FP16">
					<dim>1</dim>
					<dim>64</dim>
					<dim>48</dim>
					<dim>48</dim>
				</port>
			</input>
			<output>
				<port id="1" precision="FP16" names="model_1/model/p_re_lu_6/add_model_1/model/p_re_lu_6/Relu_model_1/model/p_re_lu_6/Neg_1_model_1/model/p_re_lu_6/Relu_1_model_1/model/p_re_lu_6/mul_dequantize_prelu/Relu:0">
					<dim>1</dim>
					<dim>64</dim>
					<dim>48</dim>
					<dim>48</dim>
				</port>
			</output>
		</layer>
		<layer id="102" name="model_1/model/p_re_lu_6/add_model_1/model/p_re_lu_6/Relu_model_1/model/p_re_lu_6/Neg_1_model_1/model/p_re_lu_6/Relu_1_model_1/model/p_re_lu_6/mul_dequantize_prelu/Neg/mul_" type="Const" version="opset1">
			<data element_type="f16" shape="1, 64, 1, 1" offset="37762" size="128"/>
			<output>
				<port id="0" precision="FP16" names="model_1/model/p_re_lu_6/add_model_1/model/p_re_lu_6/Relu_model_1/model/p_re_lu_6/Neg_1_model_1/model/p_re_lu_6/Relu_1_model_1/model/p_re_lu_6/mul_dequantize_prelu/Neg:0">
					<dim>1</dim>
					<dim>64</dim>
					<dim>1</dim>
					<dim>1</dim>
				</port>
			</output>
		</layer>
		<layer id="103" name="model_1/model/p_re_lu_6/add_model_1/model/p_re_lu_6/Relu_model_1/model/p_re_lu_6/Neg_1_model_1/model/p_re_lu_6/Relu_1_model_1/model/p_re_lu_6/mul_dequantize_prelu/Neg_1/mul_/Negate" type="Negative" version="opset1">
			<input>
				<port id="0" precision="FP16">
					<dim>1</dim>
					<dim>64</dim>
					<dim>48</dim>
					<dim>48</dim>
				</port>
			</input>
			<output>
				<port id="1" precision="FP16" names="model_1/model/p_re_lu_6/add_model_1/model/p_re_lu_6/Relu_model_1/model/p_re_lu_6/Neg_1_model_1/model/p_re_lu_6/Relu_1_model_1/model/p_re_lu_6/mul_dequantize_prelu/Neg_1:0">
					<dim>1</dim>
					<dim>64</dim>
					<dim>48</dim>
					<dim>48</dim>
				</port>
			</output>
		</layer>
		<layer id="104" name="model_1/model/p_re_lu_6/add_model_1/model/p_re_lu_6/Relu_model_1/model/p_re_lu_6/Neg_1_model_1/model/p_re_lu_6/Relu_1_model_1/model/p_re_lu_6/mul_dequantize_prelu/Relu_1" type="ReLU" version="opset1">
			<input>
				<port id="0" precision="FP16">
					<dim>1</dim>
					<dim>64</dim>
					<dim>48</dim>
					<dim>48</dim>
				</port>
			</input>
			<output>
				<port id="1" precision="FP16" names="model_1/model/p_re_lu_6/add_model_1/model/p_re_lu_6/Relu_model_1/model/p_re_lu_6/Neg_1_model_1/model/p_re_lu_6/Relu_1_model_1/model/p_re_lu_6/mul_dequantize_prelu/Relu_1:0">
					<dim>1</dim>
					<dim>64</dim>
					<dim>48</dim>
					<dim>48</dim>
				</port>
			</output>
		</layer>
		<layer id="105" name="model_1/model/p_re_lu_6/add_model_1/model/p_re_lu_6/Relu_model_1/model/p_re_lu_6/Neg_1_model_1/model/p_re_lu_6/Relu_1_model_1/model/p_re_lu_6/mul_dequantize_prelu/mul" type="Multiply" version="opset1">
			<data auto_broadcast="numpy"/>
			<input>
				<port id="0" precision="FP16">
					<dim>1</dim>
					<dim>64</dim>
					<dim>1</dim>
					<dim>1</dim>
				</port>
				<port id="1" precision="FP16">
					<dim>1</dim>
					<dim>64</dim>
					<dim>48</dim>
					<dim>48</dim>
				</port>
			</input>
			<output>
				<port id="2" precision="FP16" names="model_1/model/p_re_lu_6/add_model_1/model/p_re_lu_6/Relu_model_1/model/p_re_lu_6/Neg_1_model_1/model/p_re_lu_6/Relu_1_model_1/model/p_re_lu_6/mul_dequantize_prelu/mul:0">
					<dim>1</dim>
					<dim>64</dim>
					<dim>48</dim>
					<dim>48</dim>
				</port>
			</output>
		</layer>
		<layer id="106" name="model_1/model/p_re_lu_6/add_model_1/model/p_re_lu_6/Relu_model_1/model/p_re_lu_6/Neg_1_model_1/model/p_re_lu_6/Relu_1_model_1/model/p_re_lu_6/mul_dequantize_prelu/add" type="Add" version="opset1">
			<data auto_broadcast="numpy"/>
			<input>
				<port id="0" precision="FP16">
					<dim>1</dim>
					<dim>64</dim>
					<dim>48</dim>
					<dim>48</dim>
				</port>
				<port id="1" precision="FP16">
					<dim>1</dim>
					<dim>64</dim>
					<dim>48</dim>
					<dim>48</dim>
				</port>
			</input>
			<output>
				<port id="2" precision="FP16" names="model_1/model/p_re_lu_6/add_model_1/model/p_re_lu_6/Relu_model_1/model/p_re_lu_6/Neg_1_model_1/model/p_re_lu_6/Relu_1_model_1/model/p_re_lu_6/mul_dequantize:0,model_1/model/p_re_lu_6/add_model_1/model/p_re_lu_6/Relu_model_1/model/p_re_lu_6/Neg_1_model_1/model/p_re_lu_6/Relu_1_model_1/model/p_re_lu_6/mul_dequantize_prelu/add:0">
					<dim>1</dim>
					<dim>64</dim>
					<dim>48</dim>
					<dim>48</dim>
				</port>
			</output>
		</layer>
		<layer id="107" name="depthwise_6/filter_in" type="Const" version="opset1">
			<data element_type="f16" shape="64, 1, 1, 5, 5" offset="37890" size="3200"/>
			<output>
				<port id="0" precision="FP16" names="depthwise_6/filter_in:0">
					<dim>64</dim>
					<dim>1</dim>
					<dim>1</dim>
					<dim>5</dim>
					<dim>5</dim>
				</port>
			</output>
		</layer>
		<layer id="108" name="depthwise_6" type="GroupConvolution" version="opset1">
			<data strides="1, 1" pads_begin="2, 2" pads_end="2, 2" dilations="1, 1" auto_pad="same_upper"/>
			<input>
				<port id="0" precision="FP16">
					<dim>1</dim>
					<dim>64</dim>
					<dim>48</dim>
					<dim>48</dim>
				</port>
				<port id="1" precision="FP16">
					<dim>64</dim>
					<dim>1</dim>
					<dim>1</dim>
					<dim>5</dim>
					<dim>5</dim>
				</port>
			</input>
			<output>
				<port id="2" precision="FP16" names="depthwise_6:0">
					<dim>1</dim>
					<dim>64</dim>
					<dim>48</dim>
					<dim>48</dim>
				</port>
			</output>
		</layer>
		<layer id="109" name="model_1/model/depthwise_conv2d_6/depthwise1/y" type="Const" version="opset1">
			<data element_type="f16" shape="1, 64, 1, 1" offset="29314" size="128"/>
			<output>
				<port id="0" precision="FP16" names="model_1/model/depthwise_conv2d_6/depthwise1/y:0">
					<dim>1</dim>
					<dim>64</dim>
					<dim>1</dim>
					<dim>1</dim>
				</port>
			</output>
		</layer>
		<layer id="110" name="model_1/model/depthwise_conv2d_6/depthwise1" type="Add" version="opset1">
			<data auto_broadcast="numpy"/>
			<input>
				<port id="0" precision="FP16">
					<dim>1</dim>
					<dim>64</dim>
					<dim>48</dim>
					<dim>48</dim>
				</port>
				<port id="1" precision="FP16">
					<dim>1</dim>
					<dim>64</dim>
					<dim>1</dim>
					<dim>1</dim>
				</port>
			</input>
			<output>
				<port id="2" precision="FP16" names="model_1/model/depthwise_conv2d_6/depthwise1:0">
					<dim>1</dim>
					<dim>64</dim>
					<dim>48</dim>
					<dim>48</dim>
				</port>
			</output>
		</layer>
		<layer id="111" name="Conv2D_7/filter" type="Const" version="opset1">
			<data element_type="f16" shape="64, 64, 1, 1" offset="41090" size="8192"/>
			<output>
				<port id="0" precision="FP16" names="Conv2D_7/filter:0">
					<dim>64</dim>
					<dim>64</dim>
					<dim>1</dim>
					<dim>1</dim>
				</port>
			</output>
		</layer>
		<layer id="112" name="Conv2D_7" type="Convolution" version="opset1">
			<data strides="1, 1" dilations="1, 1" pads_begin="0, 0" pads_end="0, 0" auto_pad="valid"/>
			<input>
				<port id="0" precision="FP16">
					<dim>1</dim>
					<dim>64</dim>
					<dim>48</dim>
					<dim>48</dim>
				</port>
				<port id="1" precision="FP16">
					<dim>64</dim>
					<dim>64</dim>
					<dim>1</dim>
					<dim>1</dim>
				</port>
			</input>
			<output>
				<port id="2" precision="FP16" names="Conv2D_7:0">
					<dim>1</dim>
					<dim>64</dim>
					<dim>48</dim>
					<dim>48</dim>
				</port>
			</output>
		</layer>
		<layer id="113" name="model_1/model/batch_normalization_7/FusedBatchNormV3_model_1/model/depthwise_conv2d_9/depthwise_model_1/model/conv2d_7/Conv2D1/y" type="Const" version="opset1">
			<data element_type="f16" shape="1, 64, 1, 1" offset="49282" size="128"/>
			<output>
				<port id="0" precision="FP16" names="model_1/model/batch_normalization_7/FusedBatchNormV3_model_1/model/depthwise_conv2d_9/depthwise_model_1/model/conv2d_7/Conv2D1/y:0">
					<dim>1</dim>
					<dim>64</dim>
					<dim>1</dim>
					<dim>1</dim>
				</port>
			</output>
		</layer>
		<layer id="114" name="model_1/model/batch_normalization_7/FusedBatchNormV3_model_1/model/depthwise_conv2d_9/depthwise_model_1/model/conv2d_7/Conv2D1" type="Add" version="opset1">
			<data auto_broadcast="numpy"/>
			<input>
				<port id="0" precision="FP16">
					<dim>1</dim>
					<dim>64</dim>
					<dim>48</dim>
					<dim>48</dim>
				</port>
				<port id="1" precision="FP16">
					<dim>1</dim>
					<dim>64</dim>
					<dim>1</dim>
					<dim>1</dim>
				</port>
			</input>
			<output>
				<port id="2" precision="FP16" names="model_1/model/batch_normalization_7/FusedBatchNormV3_model_1/model/depthwise_conv2d_9/depthwise_model_1/model/conv2d_7/Conv2D1:0">
					<dim>1</dim>
					<dim>64</dim>
					<dim>48</dim>
					<dim>48</dim>
				</port>
			</output>
		</layer>
		<layer id="115" name="model_1/model/add_6/add" type="Add" version="opset1">
			<data auto_broadcast="numpy"/>
			<input>
				<port id="0" precision="FP16">
					<dim>1</dim>
					<dim>64</dim>
					<dim>48</dim>
					<dim>48</dim>
				</port>
				<port id="1" precision="FP16">
					<dim>1</dim>
					<dim>64</dim>
					<dim>48</dim>
					<dim>48</dim>
				</port>
			</input>
			<output>
				<port id="2" precision="FP16" names="model_1/model/add_6/add:0">
					<dim>1</dim>
					<dim>64</dim>
					<dim>48</dim>
					<dim>48</dim>
				</port>
			</output>
		</layer>
		<layer id="116" name="model_1/model/p_re_lu_7/add_model_1/model/p_re_lu_7/Relu_model_1/model/p_re_lu_7/Neg_1_model_1/model/p_re_lu_7/Relu_1_model_1/model/p_re_lu_7/mul_dequantize_prelu/Relu" type="ReLU" version="opset1">
			<input>
				<port id="0" precision="FP16">
					<dim>1</dim>
					<dim>64</dim>
					<dim>48</dim>
					<dim>48</dim>
				</port>
			</input>
			<output>
				<port id="1" precision="FP16" names="model_1/model/p_re_lu_7/add_model_1/model/p_re_lu_7/Relu_model_1/model/p_re_lu_7/Neg_1_model_1/model/p_re_lu_7/Relu_1_model_1/model/p_re_lu_7/mul_dequantize_prelu/Relu:0">
					<dim>1</dim>
					<dim>64</dim>
					<dim>48</dim>
					<dim>48</dim>
				</port>
			</output>
		</layer>
		<layer id="117" name="model_1/model/p_re_lu_7/add_model_1/model/p_re_lu_7/Relu_model_1/model/p_re_lu_7/Neg_1_model_1/model/p_re_lu_7/Relu_1_model_1/model/p_re_lu_7/mul_dequantize_prelu/Neg/mul_" type="Const" version="opset1">
			<data element_type="f16" shape="1, 64, 1, 1" offset="49410" size="128"/>
			<output>
				<port id="0" precision="FP16" names="model_1/model/p_re_lu_7/add_model_1/model/p_re_lu_7/Relu_model_1/model/p_re_lu_7/Neg_1_model_1/model/p_re_lu_7/Relu_1_model_1/model/p_re_lu_7/mul_dequantize_prelu/Neg:0">
					<dim>1</dim>
					<dim>64</dim>
					<dim>1</dim>
					<dim>1</dim>
				</port>
			</output>
		</layer>
		<layer id="118" name="model_1/model/p_re_lu_7/add_model_1/model/p_re_lu_7/Relu_model_1/model/p_re_lu_7/Neg_1_model_1/model/p_re_lu_7/Relu_1_model_1/model/p_re_lu_7/mul_dequantize_prelu/Neg_1/mul_/Negate" type="Negative" version="opset1">
			<input>
				<port id="0" precision="FP16">
					<dim>1</dim>
					<dim>64</dim>
					<dim>48</dim>
					<dim>48</dim>
				</port>
			</input>
			<output>
				<port id="1" precision="FP16" names="model_1/model/p_re_lu_7/add_model_1/model/p_re_lu_7/Relu_model_1/model/p_re_lu_7/Neg_1_model_1/model/p_re_lu_7/Relu_1_model_1/model/p_re_lu_7/mul_dequantize_prelu/Neg_1:0">
					<dim>1</dim>
					<dim>64</dim>
					<dim>48</dim>
					<dim>48</dim>
				</port>
			</output>
		</layer>
		<layer id="119" name="model_1/model/p_re_lu_7/add_model_1/model/p_re_lu_7/Relu_model_1/model/p_re_lu_7/Neg_1_model_1/model/p_re_lu_7/Relu_1_model_1/model/p_re_lu_7/mul_dequantize_prelu/Relu_1" type="ReLU" version="opset1">
			<input>
				<port id="0" precision="FP16">
					<dim>1</dim>
					<dim>64</dim>
					<dim>48</dim>
					<dim>48</dim>
				</port>
			</input>
			<output>
				<port id="1" precision="FP16" names="model_1/model/p_re_lu_7/add_model_1/model/p_re_lu_7/Relu_model_1/model/p_re_lu_7/Neg_1_model_1/model/p_re_lu_7/Relu_1_model_1/model/p_re_lu_7/mul_dequantize_prelu/Relu_1:0">
					<dim>1</dim>
					<dim>64</dim>
					<dim>48</dim>
					<dim>48</dim>
				</port>
			</output>
		</layer>
		<layer id="120" name="model_1/model/p_re_lu_7/add_model_1/model/p_re_lu_7/Relu_model_1/model/p_re_lu_7/Neg_1_model_1/model/p_re_lu_7/Relu_1_model_1/model/p_re_lu_7/mul_dequantize_prelu/mul" type="Multiply" version="opset1">
			<data auto_broadcast="numpy"/>
			<input>
				<port id="0" precision="FP16">
					<dim>1</dim>
					<dim>64</dim>
					<dim>1</dim>
					<dim>1</dim>
				</port>
				<port id="1" precision="FP16">
					<dim>1</dim>
					<dim>64</dim>
					<dim>48</dim>
					<dim>48</dim>
				</port>
			</input>
			<output>
				<port id="2" precision="FP16" names="model_1/model/p_re_lu_7/add_model_1/model/p_re_lu_7/Relu_model_1/model/p_re_lu_7/Neg_1_model_1/model/p_re_lu_7/Relu_1_model_1/model/p_re_lu_7/mul_dequantize_prelu/mul:0">
					<dim>1</dim>
					<dim>64</dim>
					<dim>48</dim>
					<dim>48</dim>
				</port>
			</output>
		</layer>
		<layer id="121" name="model_1/model/p_re_lu_7/add_model_1/model/p_re_lu_7/Relu_model_1/model/p_re_lu_7/Neg_1_model_1/model/p_re_lu_7/Relu_1_model_1/model/p_re_lu_7/mul_dequantize_prelu/add" type="Add" version="opset1">
			<data auto_broadcast="numpy"/>
			<input>
				<port id="0" precision="FP16">
					<dim>1</dim>
					<dim>64</dim>
					<dim>48</dim>
					<dim>48</dim>
				</port>
				<port id="1" precision="FP16">
					<dim>1</dim>
					<dim>64</dim>
					<dim>48</dim>
					<dim>48</dim>
				</port>
			</input>
			<output>
				<port id="2" precision="FP16" names="model_1/model/p_re_lu_7/add_model_1/model/p_re_lu_7/Relu_model_1/model/p_re_lu_7/Neg_1_model_1/model/p_re_lu_7/Relu_1_model_1/model/p_re_lu_7/mul_dequantize:0,model_1/model/p_re_lu_7/add_model_1/model/p_re_lu_7/Relu_model_1/model/p_re_lu_7/Neg_1_model_1/model/p_re_lu_7/Relu_1_model_1/model/p_re_lu_7/mul_dequantize_prelu/add:0">
					<dim>1</dim>
					<dim>64</dim>
					<dim>48</dim>
					<dim>48</dim>
				</port>
			</output>
		</layer>
		<layer id="122" name="depthwise_7/filter_in" type="Const" version="opset1">
			<data element_type="f16" shape="64, 1, 1, 5, 5" offset="49538" size="3200"/>
			<output>
				<port id="0" precision="FP16" names="depthwise_7/filter_in:0">
					<dim>64</dim>
					<dim>1</dim>
					<dim>1</dim>
					<dim>5</dim>
					<dim>5</dim>
				</port>
			</output>
		</layer>
		<layer id="123" name="depthwise_7" type="GroupConvolution" version="opset1">
			<data strides="1, 1" pads_begin="2, 2" pads_end="2, 2" dilations="1, 1" auto_pad="same_upper"/>
			<input>
				<port id="0" precision="FP16">
					<dim>1</dim>
					<dim>64</dim>
					<dim>48</dim>
					<dim>48</dim>
				</port>
				<port id="1" precision="FP16">
					<dim>64</dim>
					<dim>1</dim>
					<dim>1</dim>
					<dim>5</dim>
					<dim>5</dim>
				</port>
			</input>
			<output>
				<port id="2" precision="FP16" names="depthwise_7:0">
					<dim>1</dim>
					<dim>64</dim>
					<dim>48</dim>
					<dim>48</dim>
				</port>
			</output>
		</layer>
		<layer id="124" name="model_1/model/depthwise_conv2d_7/depthwise1/y" type="Const" version="opset1">
			<data element_type="f16" shape="1, 64, 1, 1" offset="29314" size="128"/>
			<output>
				<port id="0" precision="FP16" names="model_1/model/depthwise_conv2d_7/depthwise1/y:0">
					<dim>1</dim>
					<dim>64</dim>
					<dim>1</dim>
					<dim>1</dim>
				</port>
			</output>
		</layer>
		<layer id="125" name="model_1/model/depthwise_conv2d_7/depthwise1" type="Add" version="opset1">
			<data auto_broadcast="numpy"/>
			<input>
				<port id="0" precision="FP16">
					<dim>1</dim>
					<dim>64</dim>
					<dim>48</dim>
					<dim>48</dim>
				</port>
				<port id="1" precision="FP16">
					<dim>1</dim>
					<dim>64</dim>
					<dim>1</dim>
					<dim>1</dim>
				</port>
			</input>
			<output>
				<port id="2" precision="FP16" names="model_1/model/depthwise_conv2d_7/depthwise1:0">
					<dim>1</dim>
					<dim>64</dim>
					<dim>48</dim>
					<dim>48</dim>
				</port>
			</output>
		</layer>
		<layer id="126" name="Conv2D_8/filter" type="Const" version="opset1">
			<data element_type="f16" shape="64, 64, 1, 1" offset="52738" size="8192"/>
			<output>
				<port id="0" precision="FP16" names="Conv2D_8/filter:0">
					<dim>64</dim>
					<dim>64</dim>
					<dim>1</dim>
					<dim>1</dim>
				</port>
			</output>
		</layer>
		<layer id="127" name="Conv2D_8" type="Convolution" version="opset1">
			<data strides="1, 1" dilations="1, 1" pads_begin="0, 0" pads_end="0, 0" auto_pad="valid"/>
			<input>
				<port id="0" precision="FP16">
					<dim>1</dim>
					<dim>64</dim>
					<dim>48</dim>
					<dim>48</dim>
				</port>
				<port id="1" precision="FP16">
					<dim>64</dim>
					<dim>64</dim>
					<dim>1</dim>
					<dim>1</dim>
				</port>
			</input>
			<output>
				<port id="2" precision="FP16" names="Conv2D_8:0">
					<dim>1</dim>
					<dim>64</dim>
					<dim>48</dim>
					<dim>48</dim>
				</port>
			</output>
		</layer>
		<layer id="128" name="model_1/model/batch_normalization_8/FusedBatchNormV3_model_1/model/depthwise_conv2d_9/depthwise_model_1/model/conv2d_8/Conv2D1/y" type="Const" version="opset1">
			<data element_type="f16" shape="1, 64, 1, 1" offset="60930" size="128"/>
			<output>
				<port id="0" precision="FP16" names="model_1/model/batch_normalization_8/FusedBatchNormV3_model_1/model/depthwise_conv2d_9/depthwise_model_1/model/conv2d_8/Conv2D1/y:0">
					<dim>1</dim>
					<dim>64</dim>
					<dim>1</dim>
					<dim>1</dim>
				</port>
			</output>
		</layer>
		<layer id="129" name="model_1/model/batch_normalization_8/FusedBatchNormV3_model_1/model/depthwise_conv2d_9/depthwise_model_1/model/conv2d_8/Conv2D1" type="Add" version="opset1">
			<data auto_broadcast="numpy"/>
			<input>
				<port id="0" precision="FP16">
					<dim>1</dim>
					<dim>64</dim>
					<dim>48</dim>
					<dim>48</dim>
				</port>
				<port id="1" precision="FP16">
					<dim>1</dim>
					<dim>64</dim>
					<dim>1</dim>
					<dim>1</dim>
				</port>
			</input>
			<output>
				<port id="2" precision="FP16" names="model_1/model/batch_normalization_8/FusedBatchNormV3_model_1/model/depthwise_conv2d_9/depthwise_model_1/model/conv2d_8/Conv2D1:0">
					<dim>1</dim>
					<dim>64</dim>
					<dim>48</dim>
					<dim>48</dim>
				</port>
			</output>
		</layer>
		<layer id="130" name="model_1/model/add_7/add" type="Add" version="opset1">
			<data auto_broadcast="numpy"/>
			<input>
				<port id="0" precision="FP16">
					<dim>1</dim>
					<dim>64</dim>
					<dim>48</dim>
					<dim>48</dim>
				</port>
				<port id="1" precision="FP16">
					<dim>1</dim>
					<dim>64</dim>
					<dim>48</dim>
					<dim>48</dim>
				</port>
			</input>
			<output>
				<port id="2" precision="FP16" names="model_1/model/add_7/add:0">
					<dim>1</dim>
					<dim>64</dim>
					<dim>48</dim>
					<dim>48</dim>
				</port>
			</output>
		</layer>
		<layer id="131" name="model_1/model/p_re_lu_8/add_model_1/model/p_re_lu_8/Relu_model_1/model/p_re_lu_8/Neg_1_model_1/model/p_re_lu_8/Relu_1_model_1/model/p_re_lu_8/mul_dequantize_prelu/Relu" type="ReLU" version="opset1">
			<input>
				<port id="0" precision="FP16">
					<dim>1</dim>
					<dim>64</dim>
					<dim>48</dim>
					<dim>48</dim>
				</port>
			</input>
			<output>
				<port id="1" precision="FP16" names="model_1/model/p_re_lu_8/add_model_1/model/p_re_lu_8/Relu_model_1/model/p_re_lu_8/Neg_1_model_1/model/p_re_lu_8/Relu_1_model_1/model/p_re_lu_8/mul_dequantize_prelu/Relu:0">
					<dim>1</dim>
					<dim>64</dim>
					<dim>48</dim>
					<dim>48</dim>
				</port>
			</output>
		</layer>
		<layer id="132" name="model_1/model/p_re_lu_8/add_model_1/model/p_re_lu_8/Relu_model_1/model/p_re_lu_8/Neg_1_model_1/model/p_re_lu_8/Relu_1_model_1/model/p_re_lu_8/mul_dequantize_prelu/Neg/mul_" type="Const" version="opset1">
			<data element_type="f16" shape="1, 64, 1, 1" offset="61058" size="128"/>
			<output>
				<port id="0" precision="FP16" names="model_1/model/p_re_lu_8/add_model_1/model/p_re_lu_8/Relu_model_1/model/p_re_lu_8/Neg_1_model_1/model/p_re_lu_8/Relu_1_model_1/model/p_re_lu_8/mul_dequantize_prelu/Neg:0">
					<dim>1</dim>
					<dim>64</dim>
					<dim>1</dim>
					<dim>1</dim>
				</port>
			</output>
		</layer>
		<layer id="133" name="model_1/model/p_re_lu_8/add_model_1/model/p_re_lu_8/Relu_model_1/model/p_re_lu_8/Neg_1_model_1/model/p_re_lu_8/Relu_1_model_1/model/p_re_lu_8/mul_dequantize_prelu/Neg_1/mul_/Negate" type="Negative" version="opset1">
			<input>
				<port id="0" precision="FP16">
					<dim>1</dim>
					<dim>64</dim>
					<dim>48</dim>
					<dim>48</dim>
				</port>
			</input>
			<output>
				<port id="1" precision="FP16" names="model_1/model/p_re_lu_8/add_model_1/model/p_re_lu_8/Relu_model_1/model/p_re_lu_8/Neg_1_model_1/model/p_re_lu_8/Relu_1_model_1/model/p_re_lu_8/mul_dequantize_prelu/Neg_1:0">
					<dim>1</dim>
					<dim>64</dim>
					<dim>48</dim>
					<dim>48</dim>
				</port>
			</output>
		</layer>
		<layer id="134" name="model_1/model/p_re_lu_8/add_model_1/model/p_re_lu_8/Relu_model_1/model/p_re_lu_8/Neg_1_model_1/model/p_re_lu_8/Relu_1_model_1/model/p_re_lu_8/mul_dequantize_prelu/Relu_1" type="ReLU" version="opset1">
			<input>
				<port id="0" precision="FP16">
					<dim>1</dim>
					<dim>64</dim>
					<dim>48</dim>
					<dim>48</dim>
				</port>
			</input>
			<output>
				<port id="1" precision="FP16" names="model_1/model/p_re_lu_8/add_model_1/model/p_re_lu_8/Relu_model_1/model/p_re_lu_8/Neg_1_model_1/model/p_re_lu_8/Relu_1_model_1/model/p_re_lu_8/mul_dequantize_prelu/Relu_1:0">
					<dim>1</dim>
					<dim>64</dim>
					<dim>48</dim>
					<dim>48</dim>
				</port>
			</output>
		</layer>
		<layer id="135" name="model_1/model/p_re_lu_8/add_model_1/model/p_re_lu_8/Relu_model_1/model/p_re_lu_8/Neg_1_model_1/model/p_re_lu_8/Relu_1_model_1/model/p_re_lu_8/mul_dequantize_prelu/mul" type="Multiply" version="opset1">
			<data auto_broadcast="numpy"/>
			<input>
				<port id="0" precision="FP16">
					<dim>1</dim>
					<dim>64</dim>
					<dim>1</dim>
					<dim>1</dim>
				</port>
				<port id="1" precision="FP16">
					<dim>1</dim>
					<dim>64</dim>
					<dim>48</dim>
					<dim>48</dim>
				</port>
			</input>
			<output>
				<port id="2" precision="FP16" names="model_1/model/p_re_lu_8/add_model_1/model/p_re_lu_8/Relu_model_1/model/p_re_lu_8/Neg_1_model_1/model/p_re_lu_8/Relu_1_model_1/model/p_re_lu_8/mul_dequantize_prelu/mul:0">
					<dim>1</dim>
					<dim>64</dim>
					<dim>48</dim>
					<dim>48</dim>
				</port>
			</output>
		</layer>
		<layer id="136" name="model_1/model/p_re_lu_8/add_model_1/model/p_re_lu_8/Relu_model_1/model/p_re_lu_8/Neg_1_model_1/model/p_re_lu_8/Relu_1_model_1/model/p_re_lu_8/mul_dequantize_prelu/add" type="Add" version="opset1">
			<data auto_broadcast="numpy"/>
			<input>
				<port id="0" precision="FP16">
					<dim>1</dim>
					<dim>64</dim>
					<dim>48</dim>
					<dim>48</dim>
				</port>
				<port id="1" precision="FP16">
					<dim>1</dim>
					<dim>64</dim>
					<dim>48</dim>
					<dim>48</dim>
				</port>
			</input>
			<output>
				<port id="2" precision="FP16" names="model_1/model/p_re_lu_8/add_model_1/model/p_re_lu_8/Relu_model_1/model/p_re_lu_8/Neg_1_model_1/model/p_re_lu_8/Relu_1_model_1/model/p_re_lu_8/mul_dequantize:0,model_1/model/p_re_lu_8/add_model_1/model/p_re_lu_8/Relu_model_1/model/p_re_lu_8/Neg_1_model_1/model/p_re_lu_8/Relu_1_model_1/model/p_re_lu_8/mul_dequantize_prelu/add:0">
					<dim>1</dim>
					<dim>64</dim>
					<dim>48</dim>
					<dim>48</dim>
				</port>
			</output>
		</layer>
		<layer id="137" name="depthwise_8/filter_in" type="Const" version="opset1">
			<data element_type="f16" shape="64, 1, 1, 5, 5" offset="61186" size="3200"/>
			<output>
				<port id="0" precision="FP16" names="depthwise_8/filter_in:0">
					<dim>64</dim>
					<dim>1</dim>
					<dim>1</dim>
					<dim>5</dim>
					<dim>5</dim>
				</port>
			</output>
		</layer>
		<layer id="138" name="depthwise_8" type="GroupConvolution" version="opset1">
			<data strides="1, 1" pads_begin="2, 2" pads_end="2, 2" dilations="1, 1" auto_pad="same_upper"/>
			<input>
				<port id="0" precision="FP16">
					<dim>1</dim>
					<dim>64</dim>
					<dim>48</dim>
					<dim>48</dim>
				</port>
				<port id="1" precision="FP16">
					<dim>64</dim>
					<dim>1</dim>
					<dim>1</dim>
					<dim>5</dim>
					<dim>5</dim>
				</port>
			</input>
			<output>
				<port id="2" precision="FP16" names="depthwise_8:0">
					<dim>1</dim>
					<dim>64</dim>
					<dim>48</dim>
					<dim>48</dim>
				</port>
			</output>
		</layer>
		<layer id="139" name="model_1/model/depthwise_conv2d_8/depthwise1/y" type="Const" version="opset1">
			<data element_type="f16" shape="1, 64, 1, 1" offset="29314" size="128"/>
			<output>
				<port id="0" precision="FP16" names="model_1/model/depthwise_conv2d_8/depthwise1/y:0">
					<dim>1</dim>
					<dim>64</dim>
					<dim>1</dim>
					<dim>1</dim>
				</port>
			</output>
		</layer>
		<layer id="140" name="model_1/model/depthwise_conv2d_8/depthwise1" type="Add" version="opset1">
			<data auto_broadcast="numpy"/>
			<input>
				<port id="0" precision="FP16">
					<dim>1</dim>
					<dim>64</dim>
					<dim>48</dim>
					<dim>48</dim>
				</port>
				<port id="1" precision="FP16">
					<dim>1</dim>
					<dim>64</dim>
					<dim>1</dim>
					<dim>1</dim>
				</port>
			</input>
			<output>
				<port id="2" precision="FP16" names="model_1/model/depthwise_conv2d_8/depthwise1:0">
					<dim>1</dim>
					<dim>64</dim>
					<dim>48</dim>
					<dim>48</dim>
				</port>
			</output>
		</layer>
		<layer id="141" name="Conv2D_9/filter" type="Const" version="opset1">
			<data element_type="f16" shape="64, 64, 1, 1" offset="64386" size="8192"/>
			<output>
				<port id="0" precision="FP16" names="Conv2D_9/filter:0">
					<dim>64</dim>
					<dim>64</dim>
					<dim>1</dim>
					<dim>1</dim>
				</port>
			</output>
		</layer>
		<layer id="142" name="Conv2D_9" type="Convolution" version="opset1">
			<data strides="1, 1" dilations="1, 1" pads_begin="0, 0" pads_end="0, 0" auto_pad="valid"/>
			<input>
				<port id="0" precision="FP16">
					<dim>1</dim>
					<dim>64</dim>
					<dim>48</dim>
					<dim>48</dim>
				</port>
				<port id="1" precision="FP16">
					<dim>64</dim>
					<dim>64</dim>
					<dim>1</dim>
					<dim>1</dim>
				</port>
			</input>
			<output>
				<port id="2" precision="FP16" names="Conv2D_9:0">
					<dim>1</dim>
					<dim>64</dim>
					<dim>48</dim>
					<dim>48</dim>
				</port>
			</output>
		</layer>
		<layer id="143" name="model_1/model/batch_normalization_9/FusedBatchNormV3_model_1/model/depthwise_conv2d_9/depthwise_model_1/model/conv2d_9/Conv2D1/y" type="Const" version="opset1">
			<data element_type="f16" shape="1, 64, 1, 1" offset="72578" size="128"/>
			<output>
				<port id="0" precision="FP16" names="model_1/model/batch_normalization_9/FusedBatchNormV3_model_1/model/depthwise_conv2d_9/depthwise_model_1/model/conv2d_9/Conv2D1/y:0">
					<dim>1</dim>
					<dim>64</dim>
					<dim>1</dim>
					<dim>1</dim>
				</port>
			</output>
		</layer>
		<layer id="144" name="model_1/model/batch_normalization_9/FusedBatchNormV3_model_1/model/depthwise_conv2d_9/depthwise_model_1/model/conv2d_9/Conv2D1" type="Add" version="opset1">
			<data auto_broadcast="numpy"/>
			<input>
				<port id="0" precision="FP16">
					<dim>1</dim>
					<dim>64</dim>
					<dim>48</dim>
					<dim>48</dim>
				</port>
				<port id="1" precision="FP16">
					<dim>1</dim>
					<dim>64</dim>
					<dim>1</dim>
					<dim>1</dim>
				</port>
			</input>
			<output>
				<port id="2" precision="FP16" names="model_1/model/batch_normalization_9/FusedBatchNormV3_model_1/model/depthwise_conv2d_9/depthwise_model_1/model/conv2d_9/Conv2D1:0">
					<dim>1</dim>
					<dim>64</dim>
					<dim>48</dim>
					<dim>48</dim>
				</port>
			</output>
		</layer>
		<layer id="145" name="model_1/model/add_8/add" type="Add" version="opset1">
			<data auto_broadcast="numpy"/>
			<input>
				<port id="0" precision="FP16">
					<dim>1</dim>
					<dim>64</dim>
					<dim>48</dim>
					<dim>48</dim>
				</port>
				<port id="1" precision="FP16">
					<dim>1</dim>
					<dim>64</dim>
					<dim>48</dim>
					<dim>48</dim>
				</port>
			</input>
			<output>
				<port id="2" precision="FP16" names="model_1/model/add_8/add:0">
					<dim>1</dim>
					<dim>64</dim>
					<dim>48</dim>
					<dim>48</dim>
				</port>
			</output>
		</layer>
		<layer id="146" name="model_1/model/p_re_lu_9/add_model_1/model/p_re_lu_9/Relu_model_1/model/p_re_lu_9/Neg_1_model_1/model/p_re_lu_9/Relu_1_model_1/model/p_re_lu_9/mul_dequantize_prelu/Relu" type="ReLU" version="opset1">
			<input>
				<port id="0" precision="FP16">
					<dim>1</dim>
					<dim>64</dim>
					<dim>48</dim>
					<dim>48</dim>
				</port>
			</input>
			<output>
				<port id="1" precision="FP16" names="model_1/model/p_re_lu_9/add_model_1/model/p_re_lu_9/Relu_model_1/model/p_re_lu_9/Neg_1_model_1/model/p_re_lu_9/Relu_1_model_1/model/p_re_lu_9/mul_dequantize_prelu/Relu:0">
					<dim>1</dim>
					<dim>64</dim>
					<dim>48</dim>
					<dim>48</dim>
				</port>
			</output>
		</layer>
		<layer id="147" name="model_1/model/p_re_lu_9/add_model_1/model/p_re_lu_9/Relu_model_1/model/p_re_lu_9/Neg_1_model_1/model/p_re_lu_9/Relu_1_model_1/model/p_re_lu_9/mul_dequantize_prelu/Neg/mul_" type="Const" version="opset1">
			<data element_type="f16" shape="1, 64, 1, 1" offset="72706" size="128"/>
			<output>
				<port id="0" precision="FP16" names="model_1/model/p_re_lu_9/add_model_1/model/p_re_lu_9/Relu_model_1/model/p_re_lu_9/Neg_1_model_1/model/p_re_lu_9/Relu_1_model_1/model/p_re_lu_9/mul_dequantize_prelu/Neg:0">
					<dim>1</dim>
					<dim>64</dim>
					<dim>1</dim>
					<dim>1</dim>
				</port>
			</output>
		</layer>
		<layer id="148" name="model_1/model/p_re_lu_9/add_model_1/model/p_re_lu_9/Relu_model_1/model/p_re_lu_9/Neg_1_model_1/model/p_re_lu_9/Relu_1_model_1/model/p_re_lu_9/mul_dequantize_prelu/Neg_1/mul_/Negate" type="Negative" version="opset1">
			<input>
				<port id="0" precision="FP16">
					<dim>1</dim>
					<dim>64</dim>
					<dim>48</dim>
					<dim>48</dim>
				</port>
			</input>
			<output>
				<port id="1" precision="FP16" names="model_1/model/p_re_lu_9/add_model_1/model/p_re_lu_9/Relu_model_1/model/p_re_lu_9/Neg_1_model_1/model/p_re_lu_9/Relu_1_model_1/model/p_re_lu_9/mul_dequantize_prelu/Neg_1:0">
					<dim>1</dim>
					<dim>64</dim>
					<dim>48</dim>
					<dim>48</dim>
				</port>
			</output>
		</layer>
		<layer id="149" name="model_1/model/p_re_lu_9/add_model_1/model/p_re_lu_9/Relu_model_1/model/p_re_lu_9/Neg_1_model_1/model/p_re_lu_9/Relu_1_model_1/model/p_re_lu_9/mul_dequantize_prelu/Relu_1" type="ReLU" version="opset1">
			<input>
				<port id="0" precision="FP16">
					<dim>1</dim>
					<dim>64</dim>
					<dim>48</dim>
					<dim>48</dim>
				</port>
			</input>
			<output>
				<port id="1" precision="FP16" names="model_1/model/p_re_lu_9/add_model_1/model/p_re_lu_9/Relu_model_1/model/p_re_lu_9/Neg_1_model_1/model/p_re_lu_9/Relu_1_model_1/model/p_re_lu_9/mul_dequantize_prelu/Relu_1:0">
					<dim>1</dim>
					<dim>64</dim>
					<dim>48</dim>
					<dim>48</dim>
				</port>
			</output>
		</layer>
		<layer id="150" name="model_1/model/p_re_lu_9/add_model_1/model/p_re_lu_9/Relu_model_1/model/p_re_lu_9/Neg_1_model_1/model/p_re_lu_9/Relu_1_model_1/model/p_re_lu_9/mul_dequantize_prelu/mul" type="Multiply" version="opset1">
			<data auto_broadcast="numpy"/>
			<input>
				<port id="0" precision="FP16">
					<dim>1</dim>
					<dim>64</dim>
					<dim>1</dim>
					<dim>1</dim>
				</port>
				<port id="1" precision="FP16">
					<dim>1</dim>
					<dim>64</dim>
					<dim>48</dim>
					<dim>48</dim>
				</port>
			</input>
			<output>
				<port id="2" precision="FP16" names="model_1/model/p_re_lu_9/add_model_1/model/p_re_lu_9/Relu_model_1/model/p_re_lu_9/Neg_1_model_1/model/p_re_lu_9/Relu_1_model_1/model/p_re_lu_9/mul_dequantize_prelu/mul:0">
					<dim>1</dim>
					<dim>64</dim>
					<dim>48</dim>
					<dim>48</dim>
				</port>
			</output>
		</layer>
		<layer id="151" name="model_1/model/p_re_lu_9/add_model_1/model/p_re_lu_9/Relu_model_1/model/p_re_lu_9/Neg_1_model_1/model/p_re_lu_9/Relu_1_model_1/model/p_re_lu_9/mul_dequantize_prelu/add" type="Add" version="opset1">
			<data auto_broadcast="numpy"/>
			<input>
				<port id="0" precision="FP16">
					<dim>1</dim>
					<dim>64</dim>
					<dim>48</dim>
					<dim>48</dim>
				</port>
				<port id="1" precision="FP16">
					<dim>1</dim>
					<dim>64</dim>
					<dim>48</dim>
					<dim>48</dim>
				</port>
			</input>
			<output>
				<port id="2" precision="FP16" names="model_1/model/p_re_lu_9/add_model_1/model/p_re_lu_9/Relu_model_1/model/p_re_lu_9/Neg_1_model_1/model/p_re_lu_9/Relu_1_model_1/model/p_re_lu_9/mul_dequantize:0,model_1/model/p_re_lu_9/add_model_1/model/p_re_lu_9/Relu_model_1/model/p_re_lu_9/Neg_1_model_1/model/p_re_lu_9/Relu_1_model_1/model/p_re_lu_9/mul_dequantize_prelu/add:0">
					<dim>1</dim>
					<dim>64</dim>
					<dim>48</dim>
					<dim>48</dim>
				</port>
			</output>
		</layer>
		<layer id="152" name="model_1/model/max_pooling2d_1/MaxPool" type="MaxPool" version="opset1">
			<data strides="2, 2" pads_begin="0, 0" pads_end="0, 0" kernel="2, 2" rounding_type="floor" auto_pad="same_upper"/>
			<input>
				<port id="0" precision="FP16">
					<dim>1</dim>
					<dim>64</dim>
					<dim>48</dim>
					<dim>48</dim>
				</port>
			</input>
			<output>
				<port id="1" precision="FP16" names="model_1/model/max_pooling2d_1/MaxPool:0">
					<dim>1</dim>
					<dim>64</dim>
					<dim>24</dim>
					<dim>24</dim>
				</port>
			</output>
		</layer>
		<layer id="153" name="1106317210" type="Const" version="opset1">
			<data element_type="i64" shape="4" offset="20096" size="32"/>
			<output>
				<port id="0" precision="I64">
					<dim>4</dim>
				</port>
			</output>
		</layer>
		<layer id="154" name="1106916988" type="Const" version="opset1">
			<data element_type="i64" shape="4" offset="72834" size="32"/>
			<output>
				<port id="0" precision="I64">
					<dim>4</dim>
				</port>
			</output>
		</layer>
		<layer id="155" name="model_1/model/channel_padding_1/Pad/pad_value_convert_input_port_0/value" type="Const" version="opset1">
			<data element_type="f16" shape="" offset="20160" size="2"/>
			<output>
				<port id="0" precision="FP16"/>
			</output>
		</layer>
		<layer id="156" name="model_1/model/channel_padding_1/Pad/pad_value_convert" type="ConvertLike" version="opset1">
			<input>
				<port id="0" precision="FP16"/>
				<port id="1" precision="FP16">
					<dim>1</dim>
					<dim>64</dim>
					<dim>24</dim>
					<dim>24</dim>
				</port>
			</input>
			<output>
				<port id="2" precision="FP16"/>
			</output>
		</layer>
		<layer id="157" name="model_1/model/channel_padding_1/Pad" type="Pad" version="opset1">
			<data pad_mode="constant"/>
			<input>
				<port id="0" precision="FP16">
					<dim>1</dim>
					<dim>64</dim>
					<dim>24</dim>
					<dim>24</dim>
				</port>
				<port id="1" precision="I64">
					<dim>4</dim>
				</port>
				<port id="2" precision="I64">
					<dim>4</dim>
				</port>
				<port id="3" precision="FP16"/>
			</input>
			<output>
				<port id="4" precision="FP16" names="model_1/model/channel_padding_1/Pad:0">
					<dim>1</dim>
					<dim>128</dim>
					<dim>24</dim>
					<dim>24</dim>
				</port>
			</output>
		</layer>
		<layer id="158" name="depthwise_9/filter_in" type="Const" version="opset1">
			<data element_type="f16" shape="64, 1, 1, 5, 5" offset="72866" size="3200"/>
			<output>
				<port id="0" precision="FP16" names="depthwise_9/filter_in:0">
					<dim>64</dim>
					<dim>1</dim>
					<dim>1</dim>
					<dim>5</dim>
					<dim>5</dim>
				</port>
			</output>
		</layer>
		<layer id="159" name="depthwise_9" type="GroupConvolution" version="opset1">
			<data strides="2, 2" pads_begin="1, 1" pads_end="2, 2" dilations="1, 1" auto_pad="same_upper"/>
			<input>
				<port id="0" precision="FP16">
					<dim>1</dim>
					<dim>64</dim>
					<dim>48</dim>
					<dim>48</dim>
				</port>
				<port id="1" precision="FP16">
					<dim>64</dim>
					<dim>1</dim>
					<dim>1</dim>
					<dim>5</dim>
					<dim>5</dim>
				</port>
			</input>
			<output>
				<port id="2" precision="FP16" names="depthwise_9:0">
					<dim>1</dim>
					<dim>64</dim>
					<dim>24</dim>
					<dim>24</dim>
				</port>
			</output>
		</layer>
		<layer id="160" name="model_1/model/depthwise_conv2d_9/depthwise2/y" type="Const" version="opset1">
			<data element_type="f16" shape="1, 64, 1, 1" offset="29314" size="128"/>
			<output>
				<port id="0" precision="FP16" names="model_1/model/depthwise_conv2d_9/depthwise2/y:0">
					<dim>1</dim>
					<dim>64</dim>
					<dim>1</dim>
					<dim>1</dim>
				</port>
			</output>
		</layer>
		<layer id="161" name="model_1/model/depthwise_conv2d_9/depthwise2" type="Add" version="opset1">
			<data auto_broadcast="numpy"/>
			<input>
				<port id="0" precision="FP16">
					<dim>1</dim>
					<dim>64</dim>
					<dim>24</dim>
					<dim>24</dim>
				</port>
				<port id="1" precision="FP16">
					<dim>1</dim>
					<dim>64</dim>
					<dim>1</dim>
					<dim>1</dim>
				</port>
			</input>
			<output>
				<port id="2" precision="FP16" names="model_1/model/depthwise_conv2d_9/depthwise2:0">
					<dim>1</dim>
					<dim>64</dim>
					<dim>24</dim>
					<dim>24</dim>
				</port>
			</output>
		</layer>
		<layer id="162" name="Conv2D_10/filter" type="Const" version="opset1">
			<data element_type="f16" shape="128, 64, 1, 1" offset="76066" size="16384"/>
			<output>
				<port id="0" precision="FP16" names="Conv2D_10/filter:0">
					<dim>128</dim>
					<dim>64</dim>
					<dim>1</dim>
					<dim>1</dim>
				</port>
			</output>
		</layer>
		<layer id="163" name="Conv2D_10" type="Convolution" version="opset1">
			<data strides="1, 1" dilations="1, 1" pads_begin="0, 0" pads_end="0, 0" auto_pad="valid"/>
			<input>
				<port id="0" precision="FP16">
					<dim>1</dim>
					<dim>64</dim>
					<dim>24</dim>
					<dim>24</dim>
				</port>
				<port id="1" precision="FP16">
					<dim>128</dim>
					<dim>64</dim>
					<dim>1</dim>
					<dim>1</dim>
				</port>
			</input>
			<output>
				<port id="2" precision="FP16" names="Conv2D_10:0">
					<dim>1</dim>
					<dim>128</dim>
					<dim>24</dim>
					<dim>24</dim>
				</port>
			</output>
		</layer>
		<layer id="164" name="model_1/model/batch_normalization_10/FusedBatchNormV3_model_1/model/conv2d_30/Conv2D_model_1/model/conv2d_10/Conv2D1/y" type="Const" version="opset1">
			<data element_type="f16" shape="1, 128, 1, 1" offset="92450" size="256"/>
			<output>
				<port id="0" precision="FP16" names="model_1/model/batch_normalization_10/FusedBatchNormV3_model_1/model/conv2d_30/Conv2D_model_1/model/conv2d_10/Conv2D1/y:0">
					<dim>1</dim>
					<dim>128</dim>
					<dim>1</dim>
					<dim>1</dim>
				</port>
			</output>
		</layer>
		<layer id="165" name="model_1/model/batch_normalization_10/FusedBatchNormV3_model_1/model/conv2d_30/Conv2D_model_1/model/conv2d_10/Conv2D1" type="Add" version="opset1">
			<data auto_broadcast="numpy"/>
			<input>
				<port id="0" precision="FP16">
					<dim>1</dim>
					<dim>128</dim>
					<dim>24</dim>
					<dim>24</dim>
				</port>
				<port id="1" precision="FP16">
					<dim>1</dim>
					<dim>128</dim>
					<dim>1</dim>
					<dim>1</dim>
				</port>
			</input>
			<output>
				<port id="2" precision="FP16" names="model_1/model/batch_normalization_10/FusedBatchNormV3_model_1/model/conv2d_30/Conv2D_model_1/model/conv2d_10/Conv2D1:0">
					<dim>1</dim>
					<dim>128</dim>
					<dim>24</dim>
					<dim>24</dim>
				</port>
			</output>
		</layer>
		<layer id="166" name="model_1/model/add_9/add" type="Add" version="opset1">
			<data auto_broadcast="numpy"/>
			<input>
				<port id="0" precision="FP16">
					<dim>1</dim>
					<dim>128</dim>
					<dim>24</dim>
					<dim>24</dim>
				</port>
				<port id="1" precision="FP16">
					<dim>1</dim>
					<dim>128</dim>
					<dim>24</dim>
					<dim>24</dim>
				</port>
			</input>
			<output>
				<port id="2" precision="FP16" names="model_1/model/add_9/add:0">
					<dim>1</dim>
					<dim>128</dim>
					<dim>24</dim>
					<dim>24</dim>
				</port>
			</output>
		</layer>
		<layer id="167" name="model_1/model/p_re_lu_10/add_model_1/model/p_re_lu_10/Relu_model_1/model/p_re_lu_10/Neg_1_model_1/model/p_re_lu_10/Relu_1_model_1/model/p_re_lu_10/mul_dequantize_prelu/Relu" type="ReLU" version="opset1">
			<input>
				<port id="0" precision="FP16">
					<dim>1</dim>
					<dim>128</dim>
					<dim>24</dim>
					<dim>24</dim>
				</port>
			</input>
			<output>
				<port id="1" precision="FP16" names="model_1/model/p_re_lu_10/add_model_1/model/p_re_lu_10/Relu_model_1/model/p_re_lu_10/Neg_1_model_1/model/p_re_lu_10/Relu_1_model_1/model/p_re_lu_10/mul_dequantize_prelu/Relu:0">
					<dim>1</dim>
					<dim>128</dim>
					<dim>24</dim>
					<dim>24</dim>
				</port>
			</output>
		</layer>
		<layer id="168" name="model_1/model/p_re_lu_10/add_model_1/model/p_re_lu_10/Relu_model_1/model/p_re_lu_10/Neg_1_model_1/model/p_re_lu_10/Relu_1_model_1/model/p_re_lu_10/mul_dequantize_prelu/Neg/mul_" type="Const" version="opset1">
			<data element_type="f16" shape="1, 128, 1, 1" offset="92706" size="256"/>
			<output>
				<port id="0" precision="FP16" names="model_1/model/p_re_lu_10/add_model_1/model/p_re_lu_10/Relu_model_1/model/p_re_lu_10/Neg_1_model_1/model/p_re_lu_10/Relu_1_model_1/model/p_re_lu_10/mul_dequantize_prelu/Neg:0">
					<dim>1</dim>
					<dim>128</dim>
					<dim>1</dim>
					<dim>1</dim>
				</port>
			</output>
		</layer>
		<layer id="169" name="model_1/model/p_re_lu_10/add_model_1/model/p_re_lu_10/Relu_model_1/model/p_re_lu_10/Neg_1_model_1/model/p_re_lu_10/Relu_1_model_1/model/p_re_lu_10/mul_dequantize_prelu/Neg_1/mul_/Negate" type="Negative" version="opset1">
			<input>
				<port id="0" precision="FP16">
					<dim>1</dim>
					<dim>128</dim>
					<dim>24</dim>
					<dim>24</dim>
				</port>
			</input>
			<output>
				<port id="1" precision="FP16" names="model_1/model/p_re_lu_10/add_model_1/model/p_re_lu_10/Relu_model_1/model/p_re_lu_10/Neg_1_model_1/model/p_re_lu_10/Relu_1_model_1/model/p_re_lu_10/mul_dequantize_prelu/Neg_1:0">
					<dim>1</dim>
					<dim>128</dim>
					<dim>24</dim>
					<dim>24</dim>
				</port>
			</output>
		</layer>
		<layer id="170" name="model_1/model/p_re_lu_10/add_model_1/model/p_re_lu_10/Relu_model_1/model/p_re_lu_10/Neg_1_model_1/model/p_re_lu_10/Relu_1_model_1/model/p_re_lu_10/mul_dequantize_prelu/Relu_1" type="ReLU" version="opset1">
			<input>
				<port id="0" precision="FP16">
					<dim>1</dim>
					<dim>128</dim>
					<dim>24</dim>
					<dim>24</dim>
				</port>
			</input>
			<output>
				<port id="1" precision="FP16" names="model_1/model/p_re_lu_10/add_model_1/model/p_re_lu_10/Relu_model_1/model/p_re_lu_10/Neg_1_model_1/model/p_re_lu_10/Relu_1_model_1/model/p_re_lu_10/mul_dequantize_prelu/Relu_1:0">
					<dim>1</dim>
					<dim>128</dim>
					<dim>24</dim>
					<dim>24</dim>
				</port>
			</output>
		</layer>
		<layer id="171" name="model_1/model/p_re_lu_10/add_model_1/model/p_re_lu_10/Relu_model_1/model/p_re_lu_10/Neg_1_model_1/model/p_re_lu_10/Relu_1_model_1/model/p_re_lu_10/mul_dequantize_prelu/mul" type="Multiply" version="opset1">
			<data auto_broadcast="numpy"/>
			<input>
				<port id="0" precision="FP16">
					<dim>1</dim>
					<dim>128</dim>
					<dim>1</dim>
					<dim>1</dim>
				</port>
				<port id="1" precision="FP16">
					<dim>1</dim>
					<dim>128</dim>
					<dim>24</dim>
					<dim>24</dim>
				</port>
			</input>
			<output>
				<port id="2" precision="FP16" names="model_1/model/p_re_lu_10/add_model_1/model/p_re_lu_10/Relu_model_1/model/p_re_lu_10/Neg_1_model_1/model/p_re_lu_10/Relu_1_model_1/model/p_re_lu_10/mul_dequantize_prelu/mul:0">
					<dim>1</dim>
					<dim>128</dim>
					<dim>24</dim>
					<dim>24</dim>
				</port>
			</output>
		</layer>
		<layer id="172" name="model_1/model/p_re_lu_10/add_model_1/model/p_re_lu_10/Relu_model_1/model/p_re_lu_10/Neg_1_model_1/model/p_re_lu_10/Relu_1_model_1/model/p_re_lu_10/mul_dequantize_prelu/add" type="Add" version="opset1">
			<data auto_broadcast="numpy"/>
			<input>
				<port id="0" precision="FP16">
					<dim>1</dim>
					<dim>128</dim>
					<dim>24</dim>
					<dim>24</dim>
				</port>
				<port id="1" precision="FP16">
					<dim>1</dim>
					<dim>128</dim>
					<dim>24</dim>
					<dim>24</dim>
				</port>
			</input>
			<output>
				<port id="2" precision="FP16" names="model_1/model/p_re_lu_10/add_model_1/model/p_re_lu_10/Relu_model_1/model/p_re_lu_10/Neg_1_model_1/model/p_re_lu_10/Relu_1_model_1/model/p_re_lu_10/mul_dequantize:0,model_1/model/p_re_lu_10/add_model_1/model/p_re_lu_10/Relu_model_1/model/p_re_lu_10/Neg_1_model_1/model/p_re_lu_10/Relu_1_model_1/model/p_re_lu_10/mul_dequantize_prelu/add:0">
					<dim>1</dim>
					<dim>128</dim>
					<dim>24</dim>
					<dim>24</dim>
				</port>
			</output>
		</layer>
		<layer id="173" name="depthwise_10/filter_in" type="Const" version="opset1">
			<data element_type="f16" shape="128, 1, 1, 5, 5" offset="92962" size="6400"/>
			<output>
				<port id="0" precision="FP16" names="depthwise_10/filter_in:0">
					<dim>128</dim>
					<dim>1</dim>
					<dim>1</dim>
					<dim>5</dim>
					<dim>5</dim>
				</port>
			</output>
		</layer>
		<layer id="174" name="depthwise_10" type="GroupConvolution" version="opset1">
			<data strides="1, 1" pads_begin="2, 2" pads_end="2, 2" dilations="1, 1" auto_pad="same_upper"/>
			<input>
				<port id="0" precision="FP16">
					<dim>1</dim>
					<dim>128</dim>
					<dim>24</dim>
					<dim>24</dim>
				</port>
				<port id="1" precision="FP16">
					<dim>128</dim>
					<dim>1</dim>
					<dim>1</dim>
					<dim>5</dim>
					<dim>5</dim>
				</port>
			</input>
			<output>
				<port id="2" precision="FP16" names="depthwise_10:0">
					<dim>1</dim>
					<dim>128</dim>
					<dim>24</dim>
					<dim>24</dim>
				</port>
			</output>
		</layer>
		<layer id="175" name="model_1/model/depthwise_conv2d_10/depthwise1/y" type="Const" version="opset1">
			<data element_type="f16" shape="1, 128, 1, 1" offset="99362" size="256"/>
			<output>
				<port id="0" precision="FP16" names="model_1/model/depthwise_conv2d_10/depthwise1/y:0">
					<dim>1</dim>
					<dim>128</dim>
					<dim>1</dim>
					<dim>1</dim>
				</port>
			</output>
		</layer>
		<layer id="176" name="model_1/model/depthwise_conv2d_10/depthwise1" type="Add" version="opset1">
			<data auto_broadcast="numpy"/>
			<input>
				<port id="0" precision="FP16">
					<dim>1</dim>
					<dim>128</dim>
					<dim>24</dim>
					<dim>24</dim>
				</port>
				<port id="1" precision="FP16">
					<dim>1</dim>
					<dim>128</dim>
					<dim>1</dim>
					<dim>1</dim>
				</port>
			</input>
			<output>
				<port id="2" precision="FP16" names="model_1/model/depthwise_conv2d_10/depthwise1:0">
					<dim>1</dim>
					<dim>128</dim>
					<dim>24</dim>
					<dim>24</dim>
				</port>
			</output>
		</layer>
		<layer id="177" name="Conv2D_11/filter" type="Const" version="opset1">
			<data element_type="f16" shape="128, 128, 1, 1" offset="99618" size="32768"/>
			<output>
				<port id="0" precision="FP16" names="Conv2D_11/filter:0">
					<dim>128</dim>
					<dim>128</dim>
					<dim>1</dim>
					<dim>1</dim>
				</port>
			</output>
		</layer>
		<layer id="178" name="Conv2D_11" type="Convolution" version="opset1">
			<data strides="1, 1" dilations="1, 1" pads_begin="0, 0" pads_end="0, 0" auto_pad="valid"/>
			<input>
				<port id="0" precision="FP16">
					<dim>1</dim>
					<dim>128</dim>
					<dim>24</dim>
					<dim>24</dim>
				</port>
				<port id="1" precision="FP16">
					<dim>128</dim>
					<dim>128</dim>
					<dim>1</dim>
					<dim>1</dim>
				</port>
			</input>
			<output>
				<port id="2" precision="FP16" names="Conv2D_11:0">
					<dim>1</dim>
					<dim>128</dim>
					<dim>24</dim>
					<dim>24</dim>
				</port>
			</output>
		</layer>
		<layer id="179" name="model_1/model/batch_normalization_11/FusedBatchNormV3_model_1/model/conv2d_30/Conv2D_model_1/model/conv2d_11/Conv2D1/y" type="Const" version="opset1">
			<data element_type="f16" shape="1, 128, 1, 1" offset="132386" size="256"/>
			<output>
				<port id="0" precision="FP16" names="model_1/model/batch_normalization_11/FusedBatchNormV3_model_1/model/conv2d_30/Conv2D_model_1/model/conv2d_11/Conv2D1/y:0">
					<dim>1</dim>
					<dim>128</dim>
					<dim>1</dim>
					<dim>1</dim>
				</port>
			</output>
		</layer>
		<layer id="180" name="model_1/model/batch_normalization_11/FusedBatchNormV3_model_1/model/conv2d_30/Conv2D_model_1/model/conv2d_11/Conv2D1" type="Add" version="opset1">
			<data auto_broadcast="numpy"/>
			<input>
				<port id="0" precision="FP16">
					<dim>1</dim>
					<dim>128</dim>
					<dim>24</dim>
					<dim>24</dim>
				</port>
				<port id="1" precision="FP16">
					<dim>1</dim>
					<dim>128</dim>
					<dim>1</dim>
					<dim>1</dim>
				</port>
			</input>
			<output>
				<port id="2" precision="FP16" names="model_1/model/batch_normalization_11/FusedBatchNormV3_model_1/model/conv2d_30/Conv2D_model_1/model/conv2d_11/Conv2D1:0">
					<dim>1</dim>
					<dim>128</dim>
					<dim>24</dim>
					<dim>24</dim>
				</port>
			</output>
		</layer>
		<layer id="181" name="model_1/model/add_10/add" type="Add" version="opset1">
			<data auto_broadcast="numpy"/>
			<input>
				<port id="0" precision="FP16">
					<dim>1</dim>
					<dim>128</dim>
					<dim>24</dim>
					<dim>24</dim>
				</port>
				<port id="1" precision="FP16">
					<dim>1</dim>
					<dim>128</dim>
					<dim>24</dim>
					<dim>24</dim>
				</port>
			</input>
			<output>
				<port id="2" precision="FP16" names="model_1/model/add_10/add:0">
					<dim>1</dim>
					<dim>128</dim>
					<dim>24</dim>
					<dim>24</dim>
				</port>
			</output>
		</layer>
		<layer id="182" name="model_1/model/p_re_lu_11/add_model_1/model/p_re_lu_11/Relu_model_1/model/p_re_lu_11/Neg_1_model_1/model/p_re_lu_11/Relu_1_model_1/model/p_re_lu_11/mul_dequantize_prelu/Relu" type="ReLU" version="opset1">
			<input>
				<port id="0" precision="FP16">
					<dim>1</dim>
					<dim>128</dim>
					<dim>24</dim>
					<dim>24</dim>
				</port>
			</input>
			<output>
				<port id="1" precision="FP16" names="model_1/model/p_re_lu_11/add_model_1/model/p_re_lu_11/Relu_model_1/model/p_re_lu_11/Neg_1_model_1/model/p_re_lu_11/Relu_1_model_1/model/p_re_lu_11/mul_dequantize_prelu/Relu:0">
					<dim>1</dim>
					<dim>128</dim>
					<dim>24</dim>
					<dim>24</dim>
				</port>
			</output>
		</layer>
		<layer id="183" name="model_1/model/p_re_lu_11/add_model_1/model/p_re_lu_11/Relu_model_1/model/p_re_lu_11/Neg_1_model_1/model/p_re_lu_11/Relu_1_model_1/model/p_re_lu_11/mul_dequantize_prelu/Neg/mul_" type="Const" version="opset1">
			<data element_type="f16" shape="1, 128, 1, 1" offset="132642" size="256"/>
			<output>
				<port id="0" precision="FP16" names="model_1/model/p_re_lu_11/add_model_1/model/p_re_lu_11/Relu_model_1/model/p_re_lu_11/Neg_1_model_1/model/p_re_lu_11/Relu_1_model_1/model/p_re_lu_11/mul_dequantize_prelu/Neg:0">
					<dim>1</dim>
					<dim>128</dim>
					<dim>1</dim>
					<dim>1</dim>
				</port>
			</output>
		</layer>
		<layer id="184" name="model_1/model/p_re_lu_11/add_model_1/model/p_re_lu_11/Relu_model_1/model/p_re_lu_11/Neg_1_model_1/model/p_re_lu_11/Relu_1_model_1/model/p_re_lu_11/mul_dequantize_prelu/Neg_1/mul_/Negate" type="Negative" version="opset1">
			<input>
				<port id="0" precision="FP16">
					<dim>1</dim>
					<dim>128</dim>
					<dim>24</dim>
					<dim>24</dim>
				</port>
			</input>
			<output>
				<port id="1" precision="FP16" names="model_1/model/p_re_lu_11/add_model_1/model/p_re_lu_11/Relu_model_1/model/p_re_lu_11/Neg_1_model_1/model/p_re_lu_11/Relu_1_model_1/model/p_re_lu_11/mul_dequantize_prelu/Neg_1:0">
					<dim>1</dim>
					<dim>128</dim>
					<dim>24</dim>
					<dim>24</dim>
				</port>
			</output>
		</layer>
		<layer id="185" name="model_1/model/p_re_lu_11/add_model_1/model/p_re_lu_11/Relu_model_1/model/p_re_lu_11/Neg_1_model_1/model/p_re_lu_11/Relu_1_model_1/model/p_re_lu_11/mul_dequantize_prelu/Relu_1" type="ReLU" version="opset1">
			<input>
				<port id="0" precision="FP16">
					<dim>1</dim>
					<dim>128</dim>
					<dim>24</dim>
					<dim>24</dim>
				</port>
			</input>
			<output>
				<port id="1" precision="FP16" names="model_1/model/p_re_lu_11/add_model_1/model/p_re_lu_11/Relu_model_1/model/p_re_lu_11/Neg_1_model_1/model/p_re_lu_11/Relu_1_model_1/model/p_re_lu_11/mul_dequantize_prelu/Relu_1:0">
					<dim>1</dim>
					<dim>128</dim>
					<dim>24</dim>
					<dim>24</dim>
				</port>
			</output>
		</layer>
		<layer id="186" name="model_1/model/p_re_lu_11/add_model_1/model/p_re_lu_11/Relu_model_1/model/p_re_lu_11/Neg_1_model_1/model/p_re_lu_11/Relu_1_model_1/model/p_re_lu_11/mul_dequantize_prelu/mul" type="Multiply" version="opset1">
			<data auto_broadcast="numpy"/>
			<input>
				<port id="0" precision="FP16">
					<dim>1</dim>
					<dim>128</dim>
					<dim>1</dim>
					<dim>1</dim>
				</port>
				<port id="1" precision="FP16">
					<dim>1</dim>
					<dim>128</dim>
					<dim>24</dim>
					<dim>24</dim>
				</port>
			</input>
			<output>
				<port id="2" precision="FP16" names="model_1/model/p_re_lu_11/add_model_1/model/p_re_lu_11/Relu_model_1/model/p_re_lu_11/Neg_1_model_1/model/p_re_lu_11/Relu_1_model_1/model/p_re_lu_11/mul_dequantize_prelu/mul:0">
					<dim>1</dim>
					<dim>128</dim>
					<dim>24</dim>
					<dim>24</dim>
				</port>
			</output>
		</layer>
		<layer id="187" name="model_1/model/p_re_lu_11/add_model_1/model/p_re_lu_11/Relu_model_1/model/p_re_lu_11/Neg_1_model_1/model/p_re_lu_11/Relu_1_model_1/model/p_re_lu_11/mul_dequantize_prelu/add" type="Add" version="opset1">
			<data auto_broadcast="numpy"/>
			<input>
				<port id="0" precision="FP16">
					<dim>1</dim>
					<dim>128</dim>
					<dim>24</dim>
					<dim>24</dim>
				</port>
				<port id="1" precision="FP16">
					<dim>1</dim>
					<dim>128</dim>
					<dim>24</dim>
					<dim>24</dim>
				</port>
			</input>
			<output>
				<port id="2" precision="FP16" names="model_1/model/p_re_lu_11/add_model_1/model/p_re_lu_11/Relu_model_1/model/p_re_lu_11/Neg_1_model_1/model/p_re_lu_11/Relu_1_model_1/model/p_re_lu_11/mul_dequantize:0,model_1/model/p_re_lu_11/add_model_1/model/p_re_lu_11/Relu_model_1/model/p_re_lu_11/Neg_1_model_1/model/p_re_lu_11/Relu_1_model_1/model/p_re_lu_11/mul_dequantize_prelu/add:0">
					<dim>1</dim>
					<dim>128</dim>
					<dim>24</dim>
					<dim>24</dim>
				</port>
			</output>
		</layer>
		<layer id="188" name="depthwise_11/filter_in" type="Const" version="opset1">
			<data element_type="f16" shape="128, 1, 1, 5, 5" offset="132898" size="6400"/>
			<output>
				<port id="0" precision="FP16" names="depthwise_11/filter_in:0">
					<dim>128</dim>
					<dim>1</dim>
					<dim>1</dim>
					<dim>5</dim>
					<dim>5</dim>
				</port>
			</output>
		</layer>
		<layer id="189" name="depthwise_11" type="GroupConvolution" version="opset1">
			<data strides="1, 1" pads_begin="2, 2" pads_end="2, 2" dilations="1, 1" auto_pad="same_upper"/>
			<input>
				<port id="0" precision="FP16">
					<dim>1</dim>
					<dim>128</dim>
					<dim>24</dim>
					<dim>24</dim>
				</port>
				<port id="1" precision="FP16">
					<dim>128</dim>
					<dim>1</dim>
					<dim>1</dim>
					<dim>5</dim>
					<dim>5</dim>
				</port>
			</input>
			<output>
				<port id="2" precision="FP16" names="depthwise_11:0">
					<dim>1</dim>
					<dim>128</dim>
					<dim>24</dim>
					<dim>24</dim>
				</port>
			</output>
		</layer>
		<layer id="190" name="model_1/model/depthwise_conv2d_11/depthwise1/y" type="Const" version="opset1">
			<data element_type="f16" shape="1, 128, 1, 1" offset="99362" size="256"/>
			<output>
				<port id="0" precision="FP16" names="model_1/model/depthwise_conv2d_11/depthwise1/y:0">
					<dim>1</dim>
					<dim>128</dim>
					<dim>1</dim>
					<dim>1</dim>
				</port>
			</output>
		</layer>
		<layer id="191" name="model_1/model/depthwise_conv2d_11/depthwise1" type="Add" version="opset1">
			<data auto_broadcast="numpy"/>
			<input>
				<port id="0" precision="FP16">
					<dim>1</dim>
					<dim>128</dim>
					<dim>24</dim>
					<dim>24</dim>
				</port>
				<port id="1" precision="FP16">
					<dim>1</dim>
					<dim>128</dim>
					<dim>1</dim>
					<dim>1</dim>
				</port>
			</input>
			<output>
				<port id="2" precision="FP16" names="model_1/model/depthwise_conv2d_11/depthwise1:0">
					<dim>1</dim>
					<dim>128</dim>
					<dim>24</dim>
					<dim>24</dim>
				</port>
			</output>
		</layer>
		<layer id="192" name="Conv2D_12/filter" type="Const" version="opset1">
			<data element_type="f16" shape="128, 128, 1, 1" offset="139298" size="32768"/>
			<output>
				<port id="0" precision="FP16" names="Conv2D_12/filter:0">
					<dim>128</dim>
					<dim>128</dim>
					<dim>1</dim>
					<dim>1</dim>
				</port>
			</output>
		</layer>
		<layer id="193" name="Conv2D_12" type="Convolution" version="opset1">
			<data strides="1, 1" dilations="1, 1" pads_begin="0, 0" pads_end="0, 0" auto_pad="valid"/>
			<input>
				<port id="0" precision="FP16">
					<dim>1</dim>
					<dim>128</dim>
					<dim>24</dim>
					<dim>24</dim>
				</port>
				<port id="1" precision="FP16">
					<dim>128</dim>
					<dim>128</dim>
					<dim>1</dim>
					<dim>1</dim>
				</port>
			</input>
			<output>
				<port id="2" precision="FP16" names="Conv2D_12:0">
					<dim>1</dim>
					<dim>128</dim>
					<dim>24</dim>
					<dim>24</dim>
				</port>
			</output>
		</layer>
		<layer id="194" name="model_1/model/batch_normalization_12/FusedBatchNormV3_model_1/model/conv2d_30/Conv2D_model_1/model/conv2d_12/Conv2D1/y" type="Const" version="opset1">
			<data element_type="f16" shape="1, 128, 1, 1" offset="172066" size="256"/>
			<output>
				<port id="0" precision="FP16" names="model_1/model/batch_normalization_12/FusedBatchNormV3_model_1/model/conv2d_30/Conv2D_model_1/model/conv2d_12/Conv2D1/y:0">
					<dim>1</dim>
					<dim>128</dim>
					<dim>1</dim>
					<dim>1</dim>
				</port>
			</output>
		</layer>
		<layer id="195" name="model_1/model/batch_normalization_12/FusedBatchNormV3_model_1/model/conv2d_30/Conv2D_model_1/model/conv2d_12/Conv2D1" type="Add" version="opset1">
			<data auto_broadcast="numpy"/>
			<input>
				<port id="0" precision="FP16">
					<dim>1</dim>
					<dim>128</dim>
					<dim>24</dim>
					<dim>24</dim>
				</port>
				<port id="1" precision="FP16">
					<dim>1</dim>
					<dim>128</dim>
					<dim>1</dim>
					<dim>1</dim>
				</port>
			</input>
			<output>
				<port id="2" precision="FP16" names="model_1/model/batch_normalization_12/FusedBatchNormV3_model_1/model/conv2d_30/Conv2D_model_1/model/conv2d_12/Conv2D1:0">
					<dim>1</dim>
					<dim>128</dim>
					<dim>24</dim>
					<dim>24</dim>
				</port>
			</output>
		</layer>
		<layer id="196" name="model_1/model/add_11/add" type="Add" version="opset1">
			<data auto_broadcast="numpy"/>
			<input>
				<port id="0" precision="FP16">
					<dim>1</dim>
					<dim>128</dim>
					<dim>24</dim>
					<dim>24</dim>
				</port>
				<port id="1" precision="FP16">
					<dim>1</dim>
					<dim>128</dim>
					<dim>24</dim>
					<dim>24</dim>
				</port>
			</input>
			<output>
				<port id="2" precision="FP16" names="model_1/model/add_11/add:0">
					<dim>1</dim>
					<dim>128</dim>
					<dim>24</dim>
					<dim>24</dim>
				</port>
			</output>
		</layer>
		<layer id="197" name="model_1/model/p_re_lu_12/add_model_1/model/p_re_lu_12/Relu_model_1/model/p_re_lu_12/Neg_1_model_1/model/p_re_lu_12/Relu_1_model_1/model/p_re_lu_12/mul_dequantize_prelu/Relu" type="ReLU" version="opset1">
			<input>
				<port id="0" precision="FP16">
					<dim>1</dim>
					<dim>128</dim>
					<dim>24</dim>
					<dim>24</dim>
				</port>
			</input>
			<output>
				<port id="1" precision="FP16" names="model_1/model/p_re_lu_12/add_model_1/model/p_re_lu_12/Relu_model_1/model/p_re_lu_12/Neg_1_model_1/model/p_re_lu_12/Relu_1_model_1/model/p_re_lu_12/mul_dequantize_prelu/Relu:0">
					<dim>1</dim>
					<dim>128</dim>
					<dim>24</dim>
					<dim>24</dim>
				</port>
			</output>
		</layer>
		<layer id="198" name="model_1/model/p_re_lu_12/add_model_1/model/p_re_lu_12/Relu_model_1/model/p_re_lu_12/Neg_1_model_1/model/p_re_lu_12/Relu_1_model_1/model/p_re_lu_12/mul_dequantize_prelu/Neg/mul_" type="Const" version="opset1">
			<data element_type="f16" shape="1, 128, 1, 1" offset="172322" size="256"/>
			<output>
				<port id="0" precision="FP16" names="model_1/model/p_re_lu_12/add_model_1/model/p_re_lu_12/Relu_model_1/model/p_re_lu_12/Neg_1_model_1/model/p_re_lu_12/Relu_1_model_1/model/p_re_lu_12/mul_dequantize_prelu/Neg:0">
					<dim>1</dim>
					<dim>128</dim>
					<dim>1</dim>
					<dim>1</dim>
				</port>
			</output>
		</layer>
		<layer id="199" name="model_1/model/p_re_lu_12/add_model_1/model/p_re_lu_12/Relu_model_1/model/p_re_lu_12/Neg_1_model_1/model/p_re_lu_12/Relu_1_model_1/model/p_re_lu_12/mul_dequantize_prelu/Neg_1/mul_/Negate" type="Negative" version="opset1">
			<input>
				<port id="0" precision="FP16">
					<dim>1</dim>
					<dim>128</dim>
					<dim>24</dim>
					<dim>24</dim>
				</port>
			</input>
			<output>
				<port id="1" precision="FP16" names="model_1/model/p_re_lu_12/add_model_1/model/p_re_lu_12/Relu_model_1/model/p_re_lu_12/Neg_1_model_1/model/p_re_lu_12/Relu_1_model_1/model/p_re_lu_12/mul_dequantize_prelu/Neg_1:0">
					<dim>1</dim>
					<dim>128</dim>
					<dim>24</dim>
					<dim>24</dim>
				</port>
			</output>
		</layer>
		<layer id="200" name="model_1/model/p_re_lu_12/add_model_1/model/p_re_lu_12/Relu_model_1/model/p_re_lu_12/Neg_1_model_1/model/p_re_lu_12/Relu_1_model_1/model/p_re_lu_12/mul_dequantize_prelu/Relu_1" type="ReLU" version="opset1">
			<input>
				<port id="0" precision="FP16">
					<dim>1</dim>
					<dim>128</dim>
					<dim>24</dim>
					<dim>24</dim>
				</port>
			</input>
			<output>
				<port id="1" precision="FP16" names="model_1/model/p_re_lu_12/add_model_1/model/p_re_lu_12/Relu_model_1/model/p_re_lu_12/Neg_1_model_1/model/p_re_lu_12/Relu_1_model_1/model/p_re_lu_12/mul_dequantize_prelu/Relu_1:0">
					<dim>1</dim>
					<dim>128</dim>
					<dim>24</dim>
					<dim>24</dim>
				</port>
			</output>
		</layer>
		<layer id="201" name="model_1/model/p_re_lu_12/add_model_1/model/p_re_lu_12/Relu_model_1/model/p_re_lu_12/Neg_1_model_1/model/p_re_lu_12/Relu_1_model_1/model/p_re_lu_12/mul_dequantize_prelu/mul" type="Multiply" version="opset1">
			<data auto_broadcast="numpy"/>
			<input>
				<port id="0" precision="FP16">
					<dim>1</dim>
					<dim>128</dim>
					<dim>1</dim>
					<dim>1</dim>
				</port>
				<port id="1" precision="FP16">
					<dim>1</dim>
					<dim>128</dim>
					<dim>24</dim>
					<dim>24</dim>
				</port>
			</input>
			<output>
				<port id="2" precision="FP16" names="model_1/model/p_re_lu_12/add_model_1/model/p_re_lu_12/Relu_model_1/model/p_re_lu_12/Neg_1_model_1/model/p_re_lu_12/Relu_1_model_1/model/p_re_lu_12/mul_dequantize_prelu/mul:0">
					<dim>1</dim>
					<dim>128</dim>
					<dim>24</dim>
					<dim>24</dim>
				</port>
			</output>
		</layer>
		<layer id="202" name="model_1/model/p_re_lu_12/add_model_1/model/p_re_lu_12/Relu_model_1/model/p_re_lu_12/Neg_1_model_1/model/p_re_lu_12/Relu_1_model_1/model/p_re_lu_12/mul_dequantize_prelu/add" type="Add" version="opset1">
			<data auto_broadcast="numpy"/>
			<input>
				<port id="0" precision="FP16">
					<dim>1</dim>
					<dim>128</dim>
					<dim>24</dim>
					<dim>24</dim>
				</port>
				<port id="1" precision="FP16">
					<dim>1</dim>
					<dim>128</dim>
					<dim>24</dim>
					<dim>24</dim>
				</port>
			</input>
			<output>
				<port id="2" precision="FP16" names="model_1/model/p_re_lu_12/add_model_1/model/p_re_lu_12/Relu_model_1/model/p_re_lu_12/Neg_1_model_1/model/p_re_lu_12/Relu_1_model_1/model/p_re_lu_12/mul_dequantize:0,model_1/model/p_re_lu_12/add_model_1/model/p_re_lu_12/Relu_model_1/model/p_re_lu_12/Neg_1_model_1/model/p_re_lu_12/Relu_1_model_1/model/p_re_lu_12/mul_dequantize_prelu/add:0">
					<dim>1</dim>
					<dim>128</dim>
					<dim>24</dim>
					<dim>24</dim>
				</port>
			</output>
		</layer>
		<layer id="203" name="depthwise_12/filter_in" type="Const" version="opset1">
			<data element_type="f16" shape="128, 1, 1, 5, 5" offset="172578" size="6400"/>
			<output>
				<port id="0" precision="FP16" names="depthwise_12/filter_in:0">
					<dim>128</dim>
					<dim>1</dim>
					<dim>1</dim>
					<dim>5</dim>
					<dim>5</dim>
				</port>
			</output>
		</layer>
		<layer id="204" name="depthwise_12" type="GroupConvolution" version="opset1">
			<data strides="1, 1" pads_begin="2, 2" pads_end="2, 2" dilations="1, 1" auto_pad="same_upper"/>
			<input>
				<port id="0" precision="FP16">
					<dim>1</dim>
					<dim>128</dim>
					<dim>24</dim>
					<dim>24</dim>
				</port>
				<port id="1" precision="FP16">
					<dim>128</dim>
					<dim>1</dim>
					<dim>1</dim>
					<dim>5</dim>
					<dim>5</dim>
				</port>
			</input>
			<output>
				<port id="2" precision="FP16" names="depthwise_12:0">
					<dim>1</dim>
					<dim>128</dim>
					<dim>24</dim>
					<dim>24</dim>
				</port>
			</output>
		</layer>
		<layer id="205" name="model_1/model/depthwise_conv2d_12/depthwise1/y" type="Const" version="opset1">
			<data element_type="f16" shape="1, 128, 1, 1" offset="99362" size="256"/>
			<output>
				<port id="0" precision="FP16" names="model_1/model/depthwise_conv2d_12/depthwise1/y:0">
					<dim>1</dim>
					<dim>128</dim>
					<dim>1</dim>
					<dim>1</dim>
				</port>
			</output>
		</layer>
		<layer id="206" name="model_1/model/depthwise_conv2d_12/depthwise1" type="Add" version="opset1">
			<data auto_broadcast="numpy"/>
			<input>
				<port id="0" precision="FP16">
					<dim>1</dim>
					<dim>128</dim>
					<dim>24</dim>
					<dim>24</dim>
				</port>
				<port id="1" precision="FP16">
					<dim>1</dim>
					<dim>128</dim>
					<dim>1</dim>
					<dim>1</dim>
				</port>
			</input>
			<output>
				<port id="2" precision="FP16" names="model_1/model/depthwise_conv2d_12/depthwise1:0">
					<dim>1</dim>
					<dim>128</dim>
					<dim>24</dim>
					<dim>24</dim>
				</port>
			</output>
		</layer>
		<layer id="207" name="Conv2D_13/filter" type="Const" version="opset1">
			<data element_type="f16" shape="128, 128, 1, 1" offset="178978" size="32768"/>
			<output>
				<port id="0" precision="FP16" names="Conv2D_13/filter:0">
					<dim>128</dim>
					<dim>128</dim>
					<dim>1</dim>
					<dim>1</dim>
				</port>
			</output>
		</layer>
		<layer id="208" name="Conv2D_13" type="Convolution" version="opset1">
			<data strides="1, 1" dilations="1, 1" pads_begin="0, 0" pads_end="0, 0" auto_pad="valid"/>
			<input>
				<port id="0" precision="FP16">
					<dim>1</dim>
					<dim>128</dim>
					<dim>24</dim>
					<dim>24</dim>
				</port>
				<port id="1" precision="FP16">
					<dim>128</dim>
					<dim>128</dim>
					<dim>1</dim>
					<dim>1</dim>
				</port>
			</input>
			<output>
				<port id="2" precision="FP16" names="Conv2D_13:0">
					<dim>1</dim>
					<dim>128</dim>
					<dim>24</dim>
					<dim>24</dim>
				</port>
			</output>
		</layer>
		<layer id="209" name="model_1/model/batch_normalization_13/FusedBatchNormV3_model_1/model/conv2d_30/Conv2D_model_1/model/conv2d_13/Conv2D1/y" type="Const" version="opset1">
			<data element_type="f16" shape="1, 128, 1, 1" offset="211746" size="256"/>
			<output>
				<port id="0" precision="FP16" names="model_1/model/batch_normalization_13/FusedBatchNormV3_model_1/model/conv2d_30/Conv2D_model_1/model/conv2d_13/Conv2D1/y:0">
					<dim>1</dim>
					<dim>128</dim>
					<dim>1</dim>
					<dim>1</dim>
				</port>
			</output>
		</layer>
		<layer id="210" name="model_1/model/batch_normalization_13/FusedBatchNormV3_model_1/model/conv2d_30/Conv2D_model_1/model/conv2d_13/Conv2D1" type="Add" version="opset1">
			<data auto_broadcast="numpy"/>
			<input>
				<port id="0" precision="FP16">
					<dim>1</dim>
					<dim>128</dim>
					<dim>24</dim>
					<dim>24</dim>
				</port>
				<port id="1" precision="FP16">
					<dim>1</dim>
					<dim>128</dim>
					<dim>1</dim>
					<dim>1</dim>
				</port>
			</input>
			<output>
				<port id="2" precision="FP16" names="model_1/model/batch_normalization_13/FusedBatchNormV3_model_1/model/conv2d_30/Conv2D_model_1/model/conv2d_13/Conv2D1:0">
					<dim>1</dim>
					<dim>128</dim>
					<dim>24</dim>
					<dim>24</dim>
				</port>
			</output>
		</layer>
		<layer id="211" name="model_1/model/add_12/add" type="Add" version="opset1">
			<data auto_broadcast="numpy"/>
			<input>
				<port id="0" precision="FP16">
					<dim>1</dim>
					<dim>128</dim>
					<dim>24</dim>
					<dim>24</dim>
				</port>
				<port id="1" precision="FP16">
					<dim>1</dim>
					<dim>128</dim>
					<dim>24</dim>
					<dim>24</dim>
				</port>
			</input>
			<output>
				<port id="2" precision="FP16" names="model_1/model/add_12/add:0">
					<dim>1</dim>
					<dim>128</dim>
					<dim>24</dim>
					<dim>24</dim>
				</port>
			</output>
		</layer>
		<layer id="212" name="model_1/model/p_re_lu_13/add_model_1/model/p_re_lu_13/Relu_model_1/model/p_re_lu_13/Neg_1_model_1/model/p_re_lu_13/Relu_1_model_1/model/p_re_lu_13/mul_dequantize_prelu/Relu" type="ReLU" version="opset1">
			<input>
				<port id="0" precision="FP16">
					<dim>1</dim>
					<dim>128</dim>
					<dim>24</dim>
					<dim>24</dim>
				</port>
			</input>
			<output>
				<port id="1" precision="FP16" names="model_1/model/p_re_lu_13/add_model_1/model/p_re_lu_13/Relu_model_1/model/p_re_lu_13/Neg_1_model_1/model/p_re_lu_13/Relu_1_model_1/model/p_re_lu_13/mul_dequantize_prelu/Relu:0">
					<dim>1</dim>
					<dim>128</dim>
					<dim>24</dim>
					<dim>24</dim>
				</port>
			</output>
		</layer>
		<layer id="213" name="model_1/model/p_re_lu_13/add_model_1/model/p_re_lu_13/Relu_model_1/model/p_re_lu_13/Neg_1_model_1/model/p_re_lu_13/Relu_1_model_1/model/p_re_lu_13/mul_dequantize_prelu/Neg/mul_" type="Const" version="opset1">
			<data element_type="f16" shape="1, 128, 1, 1" offset="212002" size="256"/>
			<output>
				<port id="0" precision="FP16" names="model_1/model/p_re_lu_13/add_model_1/model/p_re_lu_13/Relu_model_1/model/p_re_lu_13/Neg_1_model_1/model/p_re_lu_13/Relu_1_model_1/model/p_re_lu_13/mul_dequantize_prelu/Neg:0">
					<dim>1</dim>
					<dim>128</dim>
					<dim>1</dim>
					<dim>1</dim>
				</port>
			</output>
		</layer>
		<layer id="214" name="model_1/model/p_re_lu_13/add_model_1/model/p_re_lu_13/Relu_model_1/model/p_re_lu_13/Neg_1_model_1/model/p_re_lu_13/Relu_1_model_1/model/p_re_lu_13/mul_dequantize_prelu/Neg_1/mul_/Negate" type="Negative" version="opset1">
			<input>
				<port id="0" precision="FP16">
					<dim>1</dim>
					<dim>128</dim>
					<dim>24</dim>
					<dim>24</dim>
				</port>
			</input>
			<output>
				<port id="1" precision="FP16" names="model_1/model/p_re_lu_13/add_model_1/model/p_re_lu_13/Relu_model_1/model/p_re_lu_13/Neg_1_model_1/model/p_re_lu_13/Relu_1_model_1/model/p_re_lu_13/mul_dequantize_prelu/Neg_1:0">
					<dim>1</dim>
					<dim>128</dim>
					<dim>24</dim>
					<dim>24</dim>
				</port>
			</output>
		</layer>
		<layer id="215" name="model_1/model/p_re_lu_13/add_model_1/model/p_re_lu_13/Relu_model_1/model/p_re_lu_13/Neg_1_model_1/model/p_re_lu_13/Relu_1_model_1/model/p_re_lu_13/mul_dequantize_prelu/Relu_1" type="ReLU" version="opset1">
			<input>
				<port id="0" precision="FP16">
					<dim>1</dim>
					<dim>128</dim>
					<dim>24</dim>
					<dim>24</dim>
				</port>
			</input>
			<output>
				<port id="1" precision="FP16" names="model_1/model/p_re_lu_13/add_model_1/model/p_re_lu_13/Relu_model_1/model/p_re_lu_13/Neg_1_model_1/model/p_re_lu_13/Relu_1_model_1/model/p_re_lu_13/mul_dequantize_prelu/Relu_1:0">
					<dim>1</dim>
					<dim>128</dim>
					<dim>24</dim>
					<dim>24</dim>
				</port>
			</output>
		</layer>
		<layer id="216" name="model_1/model/p_re_lu_13/add_model_1/model/p_re_lu_13/Relu_model_1/model/p_re_lu_13/Neg_1_model_1/model/p_re_lu_13/Relu_1_model_1/model/p_re_lu_13/mul_dequantize_prelu/mul" type="Multiply" version="opset1">
			<data auto_broadcast="numpy"/>
			<input>
				<port id="0" precision="FP16">
					<dim>1</dim>
					<dim>128</dim>
					<dim>1</dim>
					<dim>1</dim>
				</port>
				<port id="1" precision="FP16">
					<dim>1</dim>
					<dim>128</dim>
					<dim>24</dim>
					<dim>24</dim>
				</port>
			</input>
			<output>
				<port id="2" precision="FP16" names="model_1/model/p_re_lu_13/add_model_1/model/p_re_lu_13/Relu_model_1/model/p_re_lu_13/Neg_1_model_1/model/p_re_lu_13/Relu_1_model_1/model/p_re_lu_13/mul_dequantize_prelu/mul:0">
					<dim>1</dim>
					<dim>128</dim>
					<dim>24</dim>
					<dim>24</dim>
				</port>
			</output>
		</layer>
		<layer id="217" name="model_1/model/p_re_lu_13/add_model_1/model/p_re_lu_13/Relu_model_1/model/p_re_lu_13/Neg_1_model_1/model/p_re_lu_13/Relu_1_model_1/model/p_re_lu_13/mul_dequantize_prelu/add" type="Add" version="opset1">
			<data auto_broadcast="numpy"/>
			<input>
				<port id="0" precision="FP16">
					<dim>1</dim>
					<dim>128</dim>
					<dim>24</dim>
					<dim>24</dim>
				</port>
				<port id="1" precision="FP16">
					<dim>1</dim>
					<dim>128</dim>
					<dim>24</dim>
					<dim>24</dim>
				</port>
			</input>
			<output>
				<port id="2" precision="FP16" names="model_1/model/p_re_lu_13/add_model_1/model/p_re_lu_13/Relu_model_1/model/p_re_lu_13/Neg_1_model_1/model/p_re_lu_13/Relu_1_model_1/model/p_re_lu_13/mul_dequantize:0,model_1/model/p_re_lu_13/add_model_1/model/p_re_lu_13/Relu_model_1/model/p_re_lu_13/Neg_1_model_1/model/p_re_lu_13/Relu_1_model_1/model/p_re_lu_13/mul_dequantize_prelu/add:0">
					<dim>1</dim>
					<dim>128</dim>
					<dim>24</dim>
					<dim>24</dim>
				</port>
			</output>
		</layer>
		<layer id="218" name="depthwise_13/filter_in" type="Const" version="opset1">
			<data element_type="f16" shape="128, 1, 1, 5, 5" offset="212258" size="6400"/>
			<output>
				<port id="0" precision="FP16" names="depthwise_13/filter_in:0">
					<dim>128</dim>
					<dim>1</dim>
					<dim>1</dim>
					<dim>5</dim>
					<dim>5</dim>
				</port>
			</output>
		</layer>
		<layer id="219" name="depthwise_13" type="GroupConvolution" version="opset1">
			<data strides="1, 1" pads_begin="2, 2" pads_end="2, 2" dilations="1, 1" auto_pad="same_upper"/>
			<input>
				<port id="0" precision="FP16">
					<dim>1</dim>
					<dim>128</dim>
					<dim>24</dim>
					<dim>24</dim>
				</port>
				<port id="1" precision="FP16">
					<dim>128</dim>
					<dim>1</dim>
					<dim>1</dim>
					<dim>5</dim>
					<dim>5</dim>
				</port>
			</input>
			<output>
				<port id="2" precision="FP16" names="depthwise_13:0">
					<dim>1</dim>
					<dim>128</dim>
					<dim>24</dim>
					<dim>24</dim>
				</port>
			</output>
		</layer>
		<layer id="220" name="model_1/model/depthwise_conv2d_13/depthwise1/y" type="Const" version="opset1">
			<data element_type="f16" shape="1, 128, 1, 1" offset="99362" size="256"/>
			<output>
				<port id="0" precision="FP16" names="model_1/model/depthwise_conv2d_13/depthwise1/y:0">
					<dim>1</dim>
					<dim>128</dim>
					<dim>1</dim>
					<dim>1</dim>
				</port>
			</output>
		</layer>
		<layer id="221" name="model_1/model/depthwise_conv2d_13/depthwise1" type="Add" version="opset1">
			<data auto_broadcast="numpy"/>
			<input>
				<port id="0" precision="FP16">
					<dim>1</dim>
					<dim>128</dim>
					<dim>24</dim>
					<dim>24</dim>
				</port>
				<port id="1" precision="FP16">
					<dim>1</dim>
					<dim>128</dim>
					<dim>1</dim>
					<dim>1</dim>
				</port>
			</input>
			<output>
				<port id="2" precision="FP16" names="model_1/model/depthwise_conv2d_13/depthwise1:0">
					<dim>1</dim>
					<dim>128</dim>
					<dim>24</dim>
					<dim>24</dim>
				</port>
			</output>
		</layer>
		<layer id="222" name="Conv2D_14/filter" type="Const" version="opset1">
			<data element_type="f16" shape="128, 128, 1, 1" offset="218658" size="32768"/>
			<output>
				<port id="0" precision="FP16" names="Conv2D_14/filter:0">
					<dim>128</dim>
					<dim>128</dim>
					<dim>1</dim>
					<dim>1</dim>
				</port>
			</output>
		</layer>
		<layer id="223" name="Conv2D_14" type="Convolution" version="opset1">
			<data strides="1, 1" dilations="1, 1" pads_begin="0, 0" pads_end="0, 0" auto_pad="valid"/>
			<input>
				<port id="0" precision="FP16">
					<dim>1</dim>
					<dim>128</dim>
					<dim>24</dim>
					<dim>24</dim>
				</port>
				<port id="1" precision="FP16">
					<dim>128</dim>
					<dim>128</dim>
					<dim>1</dim>
					<dim>1</dim>
				</port>
			</input>
			<output>
				<port id="2" precision="FP16" names="Conv2D_14:0">
					<dim>1</dim>
					<dim>128</dim>
					<dim>24</dim>
					<dim>24</dim>
				</port>
			</output>
		</layer>
		<layer id="224" name="model_1/model/batch_normalization_14/FusedBatchNormV3_model_1/model/conv2d_30/Conv2D_model_1/model/conv2d_14/Conv2D1/y" type="Const" version="opset1">
			<data element_type="f16" shape="1, 128, 1, 1" offset="251426" size="256"/>
			<output>
				<port id="0" precision="FP16" names="model_1/model/batch_normalization_14/FusedBatchNormV3_model_1/model/conv2d_30/Conv2D_model_1/model/conv2d_14/Conv2D1/y:0">
					<dim>1</dim>
					<dim>128</dim>
					<dim>1</dim>
					<dim>1</dim>
				</port>
			</output>
		</layer>
		<layer id="225" name="model_1/model/batch_normalization_14/FusedBatchNormV3_model_1/model/conv2d_30/Conv2D_model_1/model/conv2d_14/Conv2D1" type="Add" version="opset1">
			<data auto_broadcast="numpy"/>
			<input>
				<port id="0" precision="FP16">
					<dim>1</dim>
					<dim>128</dim>
					<dim>24</dim>
					<dim>24</dim>
				</port>
				<port id="1" precision="FP16">
					<dim>1</dim>
					<dim>128</dim>
					<dim>1</dim>
					<dim>1</dim>
				</port>
			</input>
			<output>
				<port id="2" precision="FP16" names="model_1/model/batch_normalization_14/FusedBatchNormV3_model_1/model/conv2d_30/Conv2D_model_1/model/conv2d_14/Conv2D1:0">
					<dim>1</dim>
					<dim>128</dim>
					<dim>24</dim>
					<dim>24</dim>
				</port>
			</output>
		</layer>
		<layer id="226" name="model_1/model/add_13/add" type="Add" version="opset1">
			<data auto_broadcast="numpy"/>
			<input>
				<port id="0" precision="FP16">
					<dim>1</dim>
					<dim>128</dim>
					<dim>24</dim>
					<dim>24</dim>
				</port>
				<port id="1" precision="FP16">
					<dim>1</dim>
					<dim>128</dim>
					<dim>24</dim>
					<dim>24</dim>
				</port>
			</input>
			<output>
				<port id="2" precision="FP16" names="model_1/model/add_13/add:0">
					<dim>1</dim>
					<dim>128</dim>
					<dim>24</dim>
					<dim>24</dim>
				</port>
			</output>
		</layer>
		<layer id="227" name="model_1/model/p_re_lu_14/add_model_1/model/p_re_lu_14/Relu_model_1/model/p_re_lu_14/Neg_1_model_1/model/p_re_lu_14/Relu_1_model_1/model/p_re_lu_14/mul_dequantize_prelu/Relu" type="ReLU" version="opset1">
			<input>
				<port id="0" precision="FP16">
					<dim>1</dim>
					<dim>128</dim>
					<dim>24</dim>
					<dim>24</dim>
				</port>
			</input>
			<output>
				<port id="1" precision="FP16" names="model_1/model/p_re_lu_14/add_model_1/model/p_re_lu_14/Relu_model_1/model/p_re_lu_14/Neg_1_model_1/model/p_re_lu_14/Relu_1_model_1/model/p_re_lu_14/mul_dequantize_prelu/Relu:0">
					<dim>1</dim>
					<dim>128</dim>
					<dim>24</dim>
					<dim>24</dim>
				</port>
			</output>
		</layer>
		<layer id="228" name="model_1/model/p_re_lu_14/add_model_1/model/p_re_lu_14/Relu_model_1/model/p_re_lu_14/Neg_1_model_1/model/p_re_lu_14/Relu_1_model_1/model/p_re_lu_14/mul_dequantize_prelu/Neg/mul_" type="Const" version="opset1">
			<data element_type="f16" shape="1, 128, 1, 1" offset="251682" size="256"/>
			<output>
				<port id="0" precision="FP16" names="model_1/model/p_re_lu_14/add_model_1/model/p_re_lu_14/Relu_model_1/model/p_re_lu_14/Neg_1_model_1/model/p_re_lu_14/Relu_1_model_1/model/p_re_lu_14/mul_dequantize_prelu/Neg:0">
					<dim>1</dim>
					<dim>128</dim>
					<dim>1</dim>
					<dim>1</dim>
				</port>
			</output>
		</layer>
		<layer id="229" name="model_1/model/p_re_lu_14/add_model_1/model/p_re_lu_14/Relu_model_1/model/p_re_lu_14/Neg_1_model_1/model/p_re_lu_14/Relu_1_model_1/model/p_re_lu_14/mul_dequantize_prelu/Neg_1/mul_/Negate" type="Negative" version="opset1">
			<input>
				<port id="0" precision="FP16">
					<dim>1</dim>
					<dim>128</dim>
					<dim>24</dim>
					<dim>24</dim>
				</port>
			</input>
			<output>
				<port id="1" precision="FP16" names="model_1/model/p_re_lu_14/add_model_1/model/p_re_lu_14/Relu_model_1/model/p_re_lu_14/Neg_1_model_1/model/p_re_lu_14/Relu_1_model_1/model/p_re_lu_14/mul_dequantize_prelu/Neg_1:0">
					<dim>1</dim>
					<dim>128</dim>
					<dim>24</dim>
					<dim>24</dim>
				</port>
			</output>
		</layer>
		<layer id="230" name="model_1/model/p_re_lu_14/add_model_1/model/p_re_lu_14/Relu_model_1/model/p_re_lu_14/Neg_1_model_1/model/p_re_lu_14/Relu_1_model_1/model/p_re_lu_14/mul_dequantize_prelu/Relu_1" type="ReLU" version="opset1">
			<input>
				<port id="0" precision="FP16">
					<dim>1</dim>
					<dim>128</dim>
					<dim>24</dim>
					<dim>24</dim>
				</port>
			</input>
			<output>
				<port id="1" precision="FP16" names="model_1/model/p_re_lu_14/add_model_1/model/p_re_lu_14/Relu_model_1/model/p_re_lu_14/Neg_1_model_1/model/p_re_lu_14/Relu_1_model_1/model/p_re_lu_14/mul_dequantize_prelu/Relu_1:0">
					<dim>1</dim>
					<dim>128</dim>
					<dim>24</dim>
					<dim>24</dim>
				</port>
			</output>
		</layer>
		<layer id="231" name="model_1/model/p_re_lu_14/add_model_1/model/p_re_lu_14/Relu_model_1/model/p_re_lu_14/Neg_1_model_1/model/p_re_lu_14/Relu_1_model_1/model/p_re_lu_14/mul_dequantize_prelu/mul" type="Multiply" version="opset1">
			<data auto_broadcast="numpy"/>
			<input>
				<port id="0" precision="FP16">
					<dim>1</dim>
					<dim>128</dim>
					<dim>1</dim>
					<dim>1</dim>
				</port>
				<port id="1" precision="FP16">
					<dim>1</dim>
					<dim>128</dim>
					<dim>24</dim>
					<dim>24</dim>
				</port>
			</input>
			<output>
				<port id="2" precision="FP16" names="model_1/model/p_re_lu_14/add_model_1/model/p_re_lu_14/Relu_model_1/model/p_re_lu_14/Neg_1_model_1/model/p_re_lu_14/Relu_1_model_1/model/p_re_lu_14/mul_dequantize_prelu/mul:0">
					<dim>1</dim>
					<dim>128</dim>
					<dim>24</dim>
					<dim>24</dim>
				</port>
			</output>
		</layer>
		<layer id="232" name="model_1/model/p_re_lu_14/add_model_1/model/p_re_lu_14/Relu_model_1/model/p_re_lu_14/Neg_1_model_1/model/p_re_lu_14/Relu_1_model_1/model/p_re_lu_14/mul_dequantize_prelu/add" type="Add" version="opset1">
			<data auto_broadcast="numpy"/>
			<input>
				<port id="0" precision="FP16">
					<dim>1</dim>
					<dim>128</dim>
					<dim>24</dim>
					<dim>24</dim>
				</port>
				<port id="1" precision="FP16">
					<dim>1</dim>
					<dim>128</dim>
					<dim>24</dim>
					<dim>24</dim>
				</port>
			</input>
			<output>
				<port id="2" precision="FP16" names="model_1/model/p_re_lu_14/add_model_1/model/p_re_lu_14/Relu_model_1/model/p_re_lu_14/Neg_1_model_1/model/p_re_lu_14/Relu_1_model_1/model/p_re_lu_14/mul_dequantize:0,model_1/model/p_re_lu_14/add_model_1/model/p_re_lu_14/Relu_model_1/model/p_re_lu_14/Neg_1_model_1/model/p_re_lu_14/Relu_1_model_1/model/p_re_lu_14/mul_dequantize_prelu/add:0">
					<dim>1</dim>
					<dim>128</dim>
					<dim>24</dim>
					<dim>24</dim>
				</port>
			</output>
		</layer>
		<layer id="233" name="model_1/model/max_pooling2d_2/MaxPool" type="MaxPool" version="opset1">
			<data strides="2, 2" pads_begin="0, 0" pads_end="0, 0" kernel="2, 2" rounding_type="floor" auto_pad="same_upper"/>
			<input>
				<port id="0" precision="FP16">
					<dim>1</dim>
					<dim>128</dim>
					<dim>24</dim>
					<dim>24</dim>
				</port>
			</input>
			<output>
				<port id="1" precision="FP16" names="model_1/model/max_pooling2d_2/MaxPool:0">
					<dim>1</dim>
					<dim>128</dim>
					<dim>12</dim>
					<dim>12</dim>
				</port>
			</output>
		</layer>
		<layer id="234" name="1107517042" type="Const" version="opset1">
			<data element_type="i64" shape="4" offset="20096" size="32"/>
			<output>
				<port id="0" precision="I64">
					<dim>4</dim>
				</port>
			</output>
		</layer>
		<layer id="235" name="1108117216" type="Const" version="opset1">
			<data element_type="i64" shape="4" offset="251938" size="32"/>
			<output>
				<port id="0" precision="I64">
					<dim>4</dim>
				</port>
			</output>
		</layer>
		<layer id="236" name="model_1/model/channel_padding_2/Pad/pad_value_convert_input_port_0/value" type="Const" version="opset1">
			<data element_type="f16" shape="" offset="20160" size="2"/>
			<output>
				<port id="0" precision="FP16"/>
			</output>
		</layer>
		<layer id="237" name="model_1/model/channel_padding_2/Pad/pad_value_convert" type="ConvertLike" version="opset1">
			<input>
				<port id="0" precision="FP16"/>
				<port id="1" precision="FP16">
					<dim>1</dim>
					<dim>128</dim>
					<dim>12</dim>
					<dim>12</dim>
				</port>
			</input>
			<output>
				<port id="2" precision="FP16"/>
			</output>
		</layer>
		<layer id="238" name="model_1/model/channel_padding_2/Pad" type="Pad" version="opset1">
			<data pad_mode="constant"/>
			<input>
				<port id="0" precision="FP16">
					<dim>1</dim>
					<dim>128</dim>
					<dim>12</dim>
					<dim>12</dim>
				</port>
				<port id="1" precision="I64">
					<dim>4</dim>
				</port>
				<port id="2" precision="I64">
					<dim>4</dim>
				</port>
				<port id="3" precision="FP16"/>
			</input>
			<output>
				<port id="4" precision="FP16" names="model_1/model/channel_padding_2/Pad:0">
					<dim>1</dim>
					<dim>256</dim>
					<dim>12</dim>
					<dim>12</dim>
				</port>
			</output>
		</layer>
		<layer id="239" name="depthwise_14/filter_in" type="Const" version="opset1">
			<data element_type="f16" shape="128, 1, 1, 5, 5" offset="251970" size="6400"/>
			<output>
				<port id="0" precision="FP16" names="depthwise_14/filter_in:0">
					<dim>128</dim>
					<dim>1</dim>
					<dim>1</dim>
					<dim>5</dim>
					<dim>5</dim>
				</port>
			</output>
		</layer>
		<layer id="240" name="depthwise_14" type="GroupConvolution" version="opset1">
			<data strides="2, 2" pads_begin="1, 1" pads_end="2, 2" dilations="1, 1" auto_pad="same_upper"/>
			<input>
				<port id="0" precision="FP16">
					<dim>1</dim>
					<dim>128</dim>
					<dim>24</dim>
					<dim>24</dim>
				</port>
				<port id="1" precision="FP16">
					<dim>128</dim>
					<dim>1</dim>
					<dim>1</dim>
					<dim>5</dim>
					<dim>5</dim>
				</port>
			</input>
			<output>
				<port id="2" precision="FP16" names="depthwise_14:0">
					<dim>1</dim>
					<dim>128</dim>
					<dim>12</dim>
					<dim>12</dim>
				</port>
			</output>
		</layer>
		<layer id="241" name="model_1/model/depthwise_conv2d_14/depthwise1/y" type="Const" version="opset1">
			<data element_type="f16" shape="1, 128, 1, 1" offset="99362" size="256"/>
			<output>
				<port id="0" precision="FP16" names="model_1/model/depthwise_conv2d_14/depthwise1/y:0">
					<dim>1</dim>
					<dim>128</dim>
					<dim>1</dim>
					<dim>1</dim>
				</port>
			</output>
		</layer>
		<layer id="242" name="model_1/model/depthwise_conv2d_14/depthwise1" type="Add" version="opset1">
			<data auto_broadcast="numpy"/>
			<input>
				<port id="0" precision="FP16">
					<dim>1</dim>
					<dim>128</dim>
					<dim>12</dim>
					<dim>12</dim>
				</port>
				<port id="1" precision="FP16">
					<dim>1</dim>
					<dim>128</dim>
					<dim>1</dim>
					<dim>1</dim>
				</port>
			</input>
			<output>
				<port id="2" precision="FP16" names="model_1/model/depthwise_conv2d_14/depthwise1:0">
					<dim>1</dim>
					<dim>128</dim>
					<dim>12</dim>
					<dim>12</dim>
				</port>
			</output>
		</layer>
		<layer id="243" name="Conv2D_15/filter" type="Const" version="opset1">
			<data element_type="f16" shape="256, 128, 1, 1" offset="258370" size="65536"/>
			<output>
				<port id="0" precision="FP16" names="Conv2D_15/filter:0">
					<dim>256</dim>
					<dim>128</dim>
					<dim>1</dim>
					<dim>1</dim>
				</port>
			</output>
		</layer>
		<layer id="244" name="Conv2D_15" type="Convolution" version="opset1">
			<data strides="1, 1" dilations="1, 1" pads_begin="0, 0" pads_end="0, 0" auto_pad="valid"/>
			<input>
				<port id="0" precision="FP16">
					<dim>1</dim>
					<dim>128</dim>
					<dim>12</dim>
					<dim>12</dim>
				</port>
				<port id="1" precision="FP16">
					<dim>256</dim>
					<dim>128</dim>
					<dim>1</dim>
					<dim>1</dim>
				</port>
			</input>
			<output>
…
					<dim>1</dim>
					<dim>2</dim>
					<dim>24</dim>
					<dim>24</dim>
				</port>
				<port id="1" precision="FP16">
					<dim>1</dim>
					<dim>2</dim>
					<dim>1</dim>
					<dim>1</dim>
				</port>
			</input>
			<output>
				<port id="2" precision="FP16">
					<dim>1</dim>
					<dim>2</dim>
					<dim>24</dim>
					<dim>24</dim>
				</port>
			</output>
		</layer>
		<layer id="522" name="model_1/model/classifier_palm_8_NO_PRUNING/BiasAdd_model_1/model/classifier_palm_8_NO_PRUNING/Conv2D_model_1/model/classifier_palm_8_NO_PRUNING/BiasAdd/ReadVariableOp/resource1/Transpose/value1032617306" type="Const" version="opset1">
			<data element_type="i64" shape="4" offset="2206194" size="32"/>
			<output>
				<port id="0" precision="I64">
					<dim>4</dim>
				</port>
			</output>
		</layer>
		<layer id="523" name="model_1/model/classifier_palm_8_NO_PRUNING/BiasAdd_model_1/model/classifier_palm_8_NO_PRUNING/Conv2D_model_1/model/classifier_palm_8_NO_PRUNING/BiasAdd/ReadVariableOp/resource1/Transpose" type="Transpose" version="opset1">
			<input>
				<port id="0" precision="FP16">
					<dim>1</dim>
					<dim>2</dim>
					<dim>24</dim>
					<dim>24</dim>
				</port>
				<port id="1" precision="I64">
					<dim>4</dim>
				</port>
			</input>
			<output>
				<port id="2" precision="FP16" names="model_1/model/classifier_palm_8_NO_PRUNING/BiasAdd_model_1/model/classifier_palm_8_NO_PRUNING/Conv2D_model_1/model/classifier_palm_8_NO_PRUNING/BiasAdd/ReadVariableOp/resource1:0">
					<dim>1</dim>
					<dim>24</dim>
					<dim>24</dim>
					<dim>2</dim>
				</port>
			</output>
		</layer>
		<layer id="524" name="model_1/model/reshaped_classifier_palm_8/Reshape/shape" type="Const" version="opset1">
			<data element_type="i64" shape="3" offset="2262278" size="24"/>
			<output>
				<port id="0" precision="I64" names="model_1/model/reshaped_classifier_palm_8/Reshape/shape:0">
					<dim>3</dim>
				</port>
			</output>
		</layer>
		<layer id="525" name="model_1/model/reshaped_classifier_palm_8/Reshape" type="Reshape" version="opset1">
			<data special_zero="false"/>
			<input>
				<port id="0" precision="FP16">
					<dim>1</dim>
					<dim>24</dim>
					<dim>24</dim>
					<dim>2</dim>
				</port>
				<port id="1" precision="I64">
					<dim>3</dim>
				</port>
			</input>
			<output>
				<port id="2" precision="FP16" names="model_1/model/reshaped_classifier_palm_8/Reshape:0">
					<dim>1</dim>
					<dim>1152</dim>
					<dim>1</dim>
				</port>
			</output>
		</layer>
		<layer id="526" name="Conv2D_28/filter" type="Const" version="opset1">
			<data element_type="f16" shape="6, 256, 1, 1" offset="2262302" size="3072"/>
			<output>
				<port id="0" precision="FP16" names="Conv2D_28/filter:0">
					<dim>6</dim>
					<dim>256</dim>
					<dim>1</dim>
					<dim>1</dim>
				</port>
			</output>
		</layer>
		<layer id="527" name="Conv2D_28" type="Convolution" version="opset1">
			<data strides="1, 1" dilations="1, 1" pads_begin="0, 0" pads_end="0, 0" auto_pad="same_upper"/>
			<input>
				<port id="0" precision="FP16">
					<dim>1</dim>
					<dim>256</dim>
					<dim>12</dim>
					<dim>12</dim>
				</port>
				<port id="1" precision="FP16">
					<dim>6</dim>
					<dim>256</dim>
					<dim>1</dim>
					<dim>1</dim>
				</port>
			</input>
			<output>
				<port id="2" precision="FP16" names="Conv2D_28:0">
					<dim>1</dim>
					<dim>6</dim>
					<dim>12</dim>
					<dim>12</dim>
				</port>
			</output>
		</layer>
		<layer id="528" name="model_1/model/classifier_palm_16_NO_PRUNING/BiasAdd_model_1/model/classifier_palm_16_NO_PRUNING/Conv2D_model_1/model/classifier_palm_16_NO_PRUNING/BiasAdd/ReadVariableOp/resource1/y" type="Const" version="opset1">
			<data element_type="f16" shape="1, 6, 1, 1" offset="2265374" size="12"/>
			<output>
				<port id="0" precision="FP16" names="model_1/model/classifier_palm_16_NO_PRUNING/BiasAdd_model_1/model/classifier_palm_16_NO_PRUNING/Conv2D_model_1/model/classifier_palm_16_NO_PRUNING/BiasAdd/ReadVariableOp/resource1/y:0">
					<dim>1</dim>
					<dim>6</dim>
					<dim>1</dim>
					<dim>1</dim>
				</port>
			</output>
		</layer>
		<layer id="529" name="model_1/model/classifier_palm_16_NO_PRUNING/BiasAdd_model_1/model/classifier_palm_16_NO_PRUNING/Conv2D_model_1/model/classifier_palm_16_NO_PRUNING/BiasAdd/ReadVariableOp/resource1" type="Add" version="opset1">
			<data auto_broadcast="numpy"/>
			<input>
				<port id="0" precision="FP16">
					<dim>1</dim>
					<dim>6</dim>
					<dim>12</dim>
					<dim>12</dim>
				</port>
				<port id="1" precision="FP16">
					<dim>1</dim>
					<dim>6</dim>
					<dim>1</dim>
					<dim>1</dim>
				</port>
			</input>
			<output>
				<port id="2" precision="FP16">
					<dim>1</dim>
					<dim>6</dim>
					<dim>12</dim>
					<dim>12</dim>
				</port>
			</output>
		</layer>
		<layer id="530" name="model_1/model/classifier_palm_16_NO_PRUNING/BiasAdd_model_1/model/classifier_palm_16_NO_PRUNING/Conv2D_model_1/model/classifier_palm_16_NO_PRUNING/BiasAdd/ReadVariableOp/resource1/Transpose/value1031817438" type="Const" version="opset1">
			<data element_type="i64" shape="4" offset="2206194" size="32"/>
			<output>
				<port id="0" precision="I64">
					<dim>4</dim>
				</port>
			</output>
		</layer>
		<layer id="531" name="model_1/model/classifier_palm_16_NO_PRUNING/BiasAdd_model_1/model/classifier_palm_16_NO_PRUNING/Conv2D_model_1/model/classifier_palm_16_NO_PRUNING/BiasAdd/ReadVariableOp/resource1/Transpose" type="Transpose" version="opset1">
			<input>
				<port id="0" precision="FP16">
					<dim>1</dim>
					<dim>6</dim>
					<dim>12</dim>
					<dim>12</dim>
				</port>
				<port id="1" precision="I64">
					<dim>4</dim>
				</port>
			</input>
			<output>
				<port id="2" precision="FP16" names="model_1/model/classifier_palm_16_NO_PRUNING/BiasAdd_model_1/model/classifier_palm_16_NO_PRUNING/Conv2D_model_1/model/classifier_palm_16_NO_PRUNING/BiasAdd/ReadVariableOp/resource1:0">
					<dim>1</dim>
					<dim>12</dim>
					<dim>12</dim>
					<dim>6</dim>
				</port>
			</output>
		</layer>
		<layer id="532" name="model_1/model/reshaped_classifier_palm_16/Reshape/shape" type="Const" version="opset1">
			<data element_type="i64" shape="3" offset="2262278" size="24"/>
			<output>
				<port id="0" precision="I64" names="model_1/model/reshaped_classifier_palm_16/Reshape/shape:0">
					<dim>3</dim>
				</port>
			</output>
		</layer>
		<layer id="533" name="model_1/model/reshaped_classifier_palm_16/Reshape" type="Reshape" version="opset1">
			<data special_zero="false"/>
			<input>
				<port id="0" precision="FP16">
					<dim>1</dim>
					<dim>12</dim>
					<dim>12</dim>
					<dim>6</dim>
				</port>
				<port id="1" precision="I64">
					<dim>3</dim>
				</port>
			</input>
			<output>
				<port id="2" precision="FP16" names="model_1/model/reshaped_classifier_palm_16/Reshape:0">
					<dim>1</dim>
					<dim>864</dim>
					<dim>1</dim>
				</port>
			</output>
		</layer>
		<layer id="534" name="Identity_1" type="Concat" version="opset1">
			<data axis="1"/>
			<input>
				<port id="0" precision="FP16">
					<dim>1</dim>
					<dim>1152</dim>
					<dim>1</dim>
				</port>
				<port id="1" precision="FP16">
					<dim>1</dim>
					<dim>864</dim>
					<dim>1</dim>
				</port>
			</input>
			<output>
				<port id="2" precision="FP16" names="Identity_1:0">
					<dim>1</dim>
					<dim>2016</dim>
					<dim>1</dim>
				</port>
			</output>
		</layer>
		<layer id="535" name="Identity_1:0" type="Result" version="opset1">
			<input>
				<port id="0" precision="FP16">
					<dim>1</dim>
					<dim>2016</dim>
					<dim>1</dim>
				</port>
			</input>
		</layer>
	</layers>
	<edges>
		<edge from-layer="0" from-port="0" to-layer="2" to-port="0"/>
		<edge from-layer="1" from-port="0" to-layer="2" to-port="1"/>
		<edge from-layer="2" from-port="2" to-layer="4" to-port="0"/>
		<edge from-layer="3" from-port="0" to-layer="4" to-port="1"/>
		<edge from-layer="4" from-port="2" to-layer="7" to-port="0"/>
		<edge from-layer="4" from-port="2" to-layer="5" to-port="0"/>
		<edge from-layer="5" from-port="1" to-layer="10" to-port="0"/>
		<edge from-layer="6" from-port="0" to-layer="9" to-port="0"/>
		<edge from-layer="7" from-port="1" to-layer="8" to-port="0"/>
		<edge from-layer="8" from-port="1" to-layer="9" to-port="1"/>
		<edge from-layer="9" from-port="2" to-layer="10" to-port="1"/>
		<edge from-layer="10" from-port="2" to-layer="12" to-port="0"/>
		<edge from-layer="10" from-port="2" to-layer="19" to-port="0"/>
		<edge from-layer="11" from-port="0" to-layer="12" to-port="1"/>
		<edge from-layer="12" from-port="2" to-layer="14" to-port="0"/>
		<edge from-layer="13" from-port="0" to-layer="14" to-port="1"/>
		<edge from-layer="14" from-port="2" to-layer="16" to-port="0"/>
		<edge from-layer="15" from-port="0" to-layer="16" to-port="1"/>
		<edge from-layer="16" from-port="2" to-layer="18" to-port="0"/>
		<edge from-layer="17" from-port="0" to-layer="18" to-port="1"/>
		<edge from-layer="18" from-port="2" to-layer="19" to-port="1"/>
		<edge from-layer="19" from-port="2" to-layer="22" to-port="0"/>
		<edge from-layer="19" from-port="2" to-layer="20" to-port="0"/>
		<edge from-layer="20" from-port="1" to-layer="25" to-port="0"/>
		<edge from-layer="21" from-port="0" to-layer="24" to-port="0"/>
		<edge from-layer="22" from-port="1" to-layer="23" to-port="0"/>
		<edge from-layer="23" from-port="1" to-layer="24" to-port="1"/>
		<edge from-layer="24" from-port="2" to-layer="25" to-port="1"/>
		<edge from-layer="25" from-port="2" to-layer="27" to-port="0"/>
		<edge from-layer="25" from-port="2" to-layer="34" to-port="0"/>
		<edge from-layer="26" from-port="0" to-layer="27" to-port="1"/>
		<edge from-layer="27" from-port="2" to-layer="29" to-port="0"/>
		<edge from-layer="28" from-port="0" to-layer="29" to-port="1"/>
		<edge from-layer="29" from-port="2" to-layer="31" to-port="0"/>
		<edge from-layer="30" from-port="0" to-layer="31" to-port="1"/>
		<edge from-layer="31" from-port="2" to-layer="33" to-port="0"/>
		<edge from-layer="32" from-port="0" to-layer="33" to-port="1"/>
		<edge from-layer="33" from-port="2" to-layer="34" to-port="1"/>
		<edge from-layer="34" from-port="2" to-layer="35" to-port="0"/>
		<edge from-layer="34" from-port="2" to-layer="37" to-port="0"/>
		<edge from-layer="35" from-port="1" to-layer="40" to-port="0"/>
		<edge from-layer="36" from-port="0" to-layer="39" to-port="0"/>
		<edge from-layer="37" from-port="1" to-layer="38" to-port="0"/>
		<edge from-layer="38" from-port="1" to-layer="39" to-port="1"/>
		<edge from-layer="39" from-port="2" to-layer="40" to-port="1"/>
		<edge from-layer="40" from-port="2" to-layer="42" to-port="0"/>
		<edge from-layer="40" from-port="2" to-layer="49" to-port="0"/>
		<edge from-layer="41" from-port="0" to-layer="42" to-port="1"/>
		<edge from-layer="42" from-port="2" to-layer="44" to-port="0"/>
		<edge from-layer="43" from-port="0" to-layer="44" to-port="1"/>
		<edge from-layer="44" from-port="2" to-layer="46" to-port="0"/>
		<edge from-layer="45" from-port="0" to-layer="46" to-port="1"/>
		<edge from-layer="46" from-port="2" to-layer="48" to-port="0"/>
		<edge from-layer="47" from-port="0" to-layer="48" to-port="1"/>
		<edge from-layer="48" from-port="2" to-layer="49" to-port="1"/>
		<edge from-layer="49" from-port="2" to-layer="50" to-port="0"/>
		<edge from-layer="49" from-port="2" to-layer="52" to-port="0"/>
		<edge from-layer="50" from-port="1" to-layer="55" to-port="0"/>
		<edge from-layer="51" from-port="0" to-layer="54" to-port="0"/>
		<edge from-layer="52" from-port="1" to-layer="53" to-port="0"/>
		<edge from-layer="53" from-port="1" to-layer="54" to-port="1"/>
		<edge from-layer="54" from-port="2" to-layer="55" to-port="1"/>
		<edge from-layer="55" from-port="2" to-layer="57" to-port="0"/>
		<edge from-layer="55" from-port="2" to-layer="64" to-port="0"/>
		<edge from-layer="56" from-port="0" to-layer="57" to-port="1"/>
		<edge from-layer="57" from-port="2" to-layer="59" to-port="0"/>
		<edge from-layer="58" from-port="0" to-layer="59" to-port="1"/>
		<edge from-layer="59" from-port="2" to-layer="61" to-port="0"/>
		<edge from-layer="60" from-port="0" to-layer="61" to-port="1"/>
		<edge from-layer="61" from-port="2" to-layer="63" to-port="0"/>
		<edge from-layer="62" from-port="0" to-layer="63" to-port="1"/>
		<edge from-layer="63" from-port="2" to-layer="64" to-port="1"/>
		<edge from-layer="64" from-port="2" to-layer="65" to-port="0"/>
		<edge from-layer="64" from-port="2" to-layer="67" to-port="0"/>
		<edge from-layer="65" from-port="1" to-layer="70" to-port="0"/>
		<edge from-layer="66" from-port="0" to-layer="69" to-port="0"/>
		<edge from-layer="67" from-port="1" to-layer="68" to-port="0"/>
		<edge from-layer="68" from-port="1" to-layer="69" to-port="1"/>
		<edge from-layer="69" from-port="2" to-layer="70" to-port="1"/>
		<edge from-layer="70" from-port="2" to-layer="71" to-port="0"/>
		<edge from-layer="70" from-port="2" to-layer="78" to-port="0"/>
		<edge from-layer="71" from-port="1" to-layer="76" to-port="0"/>
		<edge from-layer="71" from-port="1" to-layer="75" to-port="1"/>
		<edge from-layer="72" from-port="0" to-layer="76" to-port="1"/>
		<edge from-layer="73" from-port="0" to-layer="76" to-port="2"/>
		<edge from-layer="74" from-port="0" to-layer="75" to-port="0"/>
		<edge from-layer="75" from-port="2" to-layer="76" to-port="3"/>
		<edge from-layer="76" from-port="4" to-layer="85" to-port="0"/>
		<edge from-layer="77" from-port="0" to-layer="78" to-port="1"/>
		<edge from-layer="78" from-port="2" to-layer="80" to-port="0"/>
		<edge from-layer="79" from-port="0" to-layer="80" to-port="1"/>
		<edge from-layer="80" from-port="2" to-layer="82" to-port="0"/>
		<edge from-layer="81" from-port="0" to-layer="82" to-port="1"/>
		<edge from-layer="82" from-port="2" to-layer="84" to-port="0"/>
		<edge from-layer="83" from-port="0" to-layer="84" to-port="1"/>
		<edge from-layer="84" from-port="2" to-layer="85" to-port="1"/>
		<edge from-layer="85" from-port="2" to-layer="88" to-port="0"/>
		<edge from-layer="85" from-port="2" to-layer="86" to-port="0"/>
		<edge from-layer="86" from-port="1" to-layer="91" to-port="0"/>
		<edge from-layer="87" from-port="0" to-layer="90" to-port="0"/>
		<edge from-layer="88" from-port="1" to-layer="89" to-port="0"/>
		<edge from-layer="89" from-port="1" to-layer="90" to-port="1"/>
		<edge from-layer="90" from-port="2" to-layer="91" to-port="1"/>
		<edge from-layer="91" from-port="2" to-layer="93" to-port="0"/>
		<edge from-layer="91" from-port="2" to-layer="100" to-port="0"/>
		<edge from-layer="92" from-port="0" to-layer="93" to-port="1"/>
		<edge from-layer="93" from-port="2" to-layer="95" to-port="0"/>
		<edge from-layer="94" from-port="0" to-layer="95" to-port="1"/>
		<edge from-layer="95" from-port="2" to-layer="97" to-port="0"/>
		<edge from-layer="96" from-port="0" to-layer="97" to-port="1"/>
		<edge from-layer="97" from-port="2" to-layer="99" to-port="0"/>
		<edge from-layer="98" from-port="0" to-layer="99" to-port="1"/>
		<edge from-layer="99" from-port="2" to-layer="100" to-port="1"/>
		<edge from-layer="100" from-port="2" to-layer="103" to-port="0"/>
		<edge from-layer="100" from-port="2" to-layer="101" to-port="0"/>
		<edge from-layer="101" from-port="1" to-layer="106" to-port="0"/>
		<edge from-layer="102" from-port="0" to-layer="105" to-port="0"/>
		<edge from-layer="103" from-port="1" to-layer="104" to-port="0"/>
		<edge from-layer="104" from-port="1" to-layer="105" to-port="1"/>
		<edge from-layer="105" from-port="2" to-layer="106" to-port="1"/>
		<edge from-layer="106" from-port="2" to-layer="108" to-port="0"/>
		<edge from-layer="106" from-port="2" to-layer="115" to-port="0"/>
		<edge from-layer="107" from-port="0" to-layer="108" to-port="1"/>
		<edge from-layer="108" from-port="2" to-layer="110" to-port="0"/>
		<edge from-layer="109" from-port="0" to-layer="110" to-port="1"/>
		<edge from-layer="110" from-port="2" to-layer="112" to-port="0"/>
		<edge from-layer="111" from-port="0" to-layer="112" to-port="1"/>
		<edge from-layer="112" from-port="2" to-layer="114" to-port="0"/>
		<edge from-layer="113" from-port="0" to-layer="114" to-port="1"/>
		<edge from-layer="114" from-port="2" to-layer="115" to-port="1"/>
		<edge from-layer="115" from-port="2" to-layer="116" to-port="0"/>
		<edge from-layer="115" from-port="2" to-layer="118" to-port="0"/>
		<edge from-layer="116" from-port="1" to-layer="121" to-port="0"/>
		<edge from-layer="117" from-port="0" to-layer="120" to-port="0"/>
		<edge from-layer="118" from-port="1" to-layer="119" to-port="0"/>
		<edge from-layer="119" from-port="1" to-layer="120" to-port="1"/>
		<edge from-layer="120" from-port="2" to-layer="121" to-port="1"/>
		<edge from-layer="121" from-port="2" to-layer="123" to-port="0"/>
		<edge from-layer="121" from-port="2" to-layer="130" to-port="0"/>
		<edge from-layer="122" from-port="0" to-layer="123" to-port="1"/>
		<edge from-layer="123" from-port="2" to-layer="125" to-port="0"/>
		<edge from-layer="124" from-port="0" to-layer="125" to-port="1"/>
		<edge from-layer="125" from-port="2" to-layer="127" to-port="0"/>
		<edge from-layer="126" from-port="0" to-layer="127" to-port="1"/>
		<edge from-layer="127" from-port="2" to-layer="129" to-port="0"/>
		<edge from-layer="128" from-port="0" to-layer="129" to-port="1"/>
		<edge from-layer="129" from-port="2" to-layer="130" to-port="1"/>
		<edge from-layer="130" from-port="2" to-layer="131" to-port="0"/>
		<edge from-layer="130" from-port="2" to-layer="133" to-port="0"/>
		<edge from-layer="131" from-port="1" to-layer="136" to-port="0"/>
		<edge from-layer="132" from-port="0" to-layer="135" to-port="0"/>
		<edge from-layer="133" from-port="1" to-layer="134" to-port="0"/>
		<edge from-layer="134" from-port="1" to-layer="135" to-port="1"/>
		<edge from-layer="135" from-port="2" to-layer="136" to-port="1"/>
		<edge from-layer="136" from-port="2" to-layer="138" to-port="0"/>
		<edge from-layer="136" from-port="2" to-layer="145" to-port="0"/>
		<edge from-layer="137" from-port="0" to-layer="138" to-port="1"/>
		<edge from-layer="138" from-port="2" to-layer="140" to-port="0"/>
		<edge from-layer="139" from-port="0" to-layer="140" to-port="1"/>
		<edge from-layer="140" from-port="2" to-layer="142" to-port="0"/>
		<edge from-layer="141" from-port="0" to-layer="142" to-port="1"/>
		<edge from-layer="142" from-port="2" to-layer="144" to-port="0"/>
		<edge from-layer="143" from-port="0" to-layer="144" to-port="1"/>
		<edge from-layer="144" from-port="2" to-layer="145" to-port="1"/>
		<edge from-layer="145" from-port="2" to-layer="146" to-port="0"/>
		<edge from-layer="145" from-port="2" to-layer="148" to-port="0"/>
		<edge from-layer="146" from-port="1" to-layer="151" to-port="0"/>
		<edge from-layer="147" from-port="0" to-layer="150" to-port="0"/>
		<edge from-layer="148" from-port="1" to-layer="149" to-port="0"/>
		<edge from-layer="149" from-port="1" to-layer="150" to-port="1"/>
		<edge from-layer="150" from-port="2" to-layer="151" to-port="1"/>
		<edge from-layer="151" from-port="2" to-layer="152" to-port="0"/>
		<edge from-layer="151" from-port="2" to-layer="159" to-port="0"/>
		<edge from-layer="152" from-port="1" to-layer="156" to-port="1"/>
		<edge from-layer="152" from-port="1" to-layer="157" to-port="0"/>
		<edge from-layer="153" from-port="0" to-layer="157" to-port="1"/>
		<edge from-layer="154" from-port="0" to-layer="157" to-port="2"/>
		<edge from-layer="155" from-port="0" to-layer="156" to-port="0"/>
		<edge from-layer="156" from-port="2" to-layer="157" to-port="3"/>
		<edge from-layer="157" from-port="4" to-layer="166" to-port="0"/>
		<edge from-layer="158" from-port="0" to-layer="159" to-port="1"/>
		<edge from-layer="159" from-port="2" to-layer="161" to-port="0"/>
		<edge from-layer="160" from-port="0" to-layer="161" to-port="1"/>
		<edge from-layer="161" from-port="2" to-layer="163" to-port="0"/>
		<edge from-layer="162" from-port="0" to-layer="163" to-port="1"/>
		<edge from-layer="163" from-port="2" to-layer="165" to-port="0"/>
		<edge from-layer="164" from-port="0" to-layer="165" to-port="1"/>
		<edge from-layer="165" from-port="2" to-layer="166" to-port="1"/>
		<edge from-layer="166" from-port="2" to-layer="169" to-port="0"/>
		<edge from-layer="166" from-port="2" to-layer="167" to-port="0"/>
		<edge from-layer="167" from-port="1" to-layer="172" to-port="0"/>
		<edge from-layer="168" from-port="0" to-layer="171" to-port="0"/>
		<edge from-layer="169" from-port="1" to-layer="170" to-port="0"/>
		<edge from-layer="170" from-port="1" to-layer="171" to-port="1"/>
		<edge from-layer="171" from-port="2" to-layer="172" to-port="1"/>
		<edge from-layer="172" from-port="2" to-layer="174" to-port="0"/>
		<edge from-layer="172" from-port="2" to-layer="181" to-port="0"/>
		<edge from-layer="173" from-port="0" to-layer="174" to-port="1"/>
		<edge from-layer="174" from-port="2" to-layer="176" to-port="0"/>
		<edge from-layer="175" from-port="0" to-layer="176" to-port="1"/>
		<edge from-layer="176" from-port="2" to-layer="178" to-port="0"/>
		<edge from-layer="177" from-port="0" to-layer="178" to-port="1"/>
		<edge from-layer="178" from-port="2" to-layer="180" to-port="0"/>
		<edge from-layer="179" from-port="0" to-layer="180" to-port="1"/>
		<edge from-layer="180" from-port="2" to-layer="181" to-port="1"/>
		<edge from-layer="181" from-port="2" to-layer="182" to-port="0"/>
		<edge from-layer="181" from-port="2" to-layer="184" to-port="0"/>
		<edge from-layer="182" from-port="1" to-layer="187" to-port="0"/>
		<edge from-layer="183" from-port="0" to-layer="186" to-port="0"/>
		<edge from-layer="184" from-port="1" to-layer="185" to-port="0"/>
		<edge from-layer="185" from-port="1" to-layer="186" to-port="1"/>
		<edge from-layer="186" from-port="2" to-layer="187" to-port="1"/>
		<edge from-layer="187" from-port="2" to-layer="189" to-port="0"/>
		<edge from-layer="187" from-port="2" to-layer="196" to-port="0"/>
		<edge from-layer="188" from-port="0" to-layer="189" to-port="1"/>
		<edge from-layer="189" from-port="2" to-layer="191" to-port="0"/>
		<edge from-layer="190" from-port="0" to-layer="191" to-port="1"/>
		<edge from-layer="191" from-port="2" to-layer="193" to-port="0"/>
		<edge from-layer="192" from-port="0" to-layer="193" to-port="1"/>
		<edge from-layer="193" from-port="2" to-layer="195" to-port="0"/>
		<edge from-layer="194" from-port="0" to-layer="195" to-port="1"/>
		<edge from-layer="195" from-port="2" to-layer="196" to-port="1"/>
		<edge from-layer="196" from-port="2" to-layer="197" to-port="0"/>
		<edge from-layer="196" from-port="2" to-layer="199" to-port="0"/>
		<edge from-layer="197" from-port="1" to-layer="202" to-port="0"/>
		<edge from-layer="198" from-port="0" to-layer="201" to-port="0"/>
		<edge from-layer="199" from-port="1" to-layer="200" to-port="0"/>
		<edge from-layer="200" from-port="1" to-layer="201" to-port="1"/>
		<edge from-layer="201" from-port="2" to-layer="202" to-port="1"/>
		<edge from-layer="202" from-port="2" to-layer="204" to-port="0"/>
		<edge from-layer="202" from-port="2" to-layer="211" to-port="0"/>
		<edge from-layer="203" from-port="0" to-layer="204" to-port="1"/>
		<edge from-layer="204" from-port="2" to-layer="206" to-port="0"/>
		<edge from-layer="205" from-port="0" to-layer="206" to-port="1"/>
		<edge from-layer="206" from-port="2" to-layer="208" to-port="0"/>
		<edge from-layer="207" from-port="0" to-layer="208" to-port="1"/>
		<edge from-layer="208" from-port="2" to-layer="210" to-port="0"/>
		<edge from-layer="209" from-port="0" to-layer="210" to-port="1"/>
		<edge from-layer="210" from-port="2" to-layer="211" to-port="1"/>
		<edge from-layer="211" from-port="2" to-layer="212" to-port="0"/>
		<edge from-layer="211" from-port="2" to-layer="214" to-port="0"/>
		<edge from-layer="212" from-port="1" to-layer="217" to-port="0"/>
		<edge from-layer="213" from-port="0" to-layer="216" to-port="0"/>
		<edge from-layer="214" from-port="1" to-layer="215" to-port="0"/>
		<edge from-layer="215" from-port="1" to-layer="216" to-port="1"/>
		<edge from-layer="216" from-port="2" to-layer="217" to-port="1"/>
		<edge from-layer="217" from-port="2" to-layer="226" to-port="0"/>
		<edge from-layer="217" from-port="2" to-layer="219" to-port="0"/>
		<edge from-layer="218" from-port="0" to-layer="219" to-port="1"/>
		<edge from-layer="219" from-port="2" to-layer="221" to-port="0"/>
		<edge from-layer="220" from-port="0" to-layer="221" to-port="1"/>
		<edge from-layer="221" from-port="2" to-layer="223" to-port="0"/>
		<edge from-layer="222" from-port="0" to-layer="223" to-port="1"/>
		<edge from-layer="223" from-port="2" to-layer="225" to-port="0"/>
		<edge from-layer="224" from-port="0" to-layer="225" to-port="1"/>
		<edge from-layer="225" from-port="2" to-layer="226" to-port="1"/>
		<edge from-layer="226" from-port="2" to-layer="227" to-port="0"/>
		<edge from-layer="226" from-port="2" to-layer="229" to-port="0"/>
		<edge from-layer="227" from-port="1" to-layer="232" to-port="0"/>
		<edge from-layer="228" from-port="0" to-layer="231" to-port="0"/>
		<edge from-layer="229" from-port="1" to-layer="230" to-port="0"/>
		<edge from-layer="230" from-port="1" to-layer="231" to-port="1"/>
		<edge from-layer="231" from-port="2" to-layer="232" to-port="1"/>
		<edge from-layer="232" from-port="2" to-layer="469" to-port="0"/>
		<edge from-layer="232" from-port="2" to-layer="240" to-port="0"/>
		<edge from-layer="232" from-port="2" to-layer="233" to-port="0"/>
		<edge from-layer="233" from-port="1" to-layer="238" to-port="0"/>
		<edge from-layer="233" from-port="1" to-layer="237" to-port="1"/>
		<edge from-layer="234" from-port="0" to-layer="238" to-port="1"/>
		<edge from-layer="235" from-port="0" to-layer="238" to-port="2"/>
		<edge from-layer="236" from-port="0" to-layer="237" to-port="0"/>
		<edge from-layer="237" from-port="2" to-layer="238" to-port="3"/>
		<edge from-layer="238" from-port="4" to-layer="247" to-port="0"/>
		<edge from-layer="239" from-port="0" to-layer="240" to-port="1"/>
		<edge from-layer="240" from-port="2" to-layer="242" to-port="0"/>
		<edge from-layer="241" from-port="0" to-layer="242" to-port="1"/>
		<edge from-layer="242" from-port="2" to-layer="244" to-port="0"/>
		<edge from-layer="243" from-port="0" to-layer="244" to-port="1"/>
		<edge from-layer="244" from-port="2" to-layer="246" to-port="0"/>
		<edge from-layer="245" from-port="0" to-layer="246" to-port="1"/>
		<edge from-layer="246" from-port="2" to-layer="247" to-port="1"/>
		<edge from-layer="247" from-port="2" to-layer="250" to-port="0"/>
		<edge from-layer="247" from-port="2" to-layer="248" to-port="0"/>
		<edge from-layer="248" from-port="1" to-layer="253" to-port="0"/>
		<edge from-layer="249" from-port="0" to-layer="252" to-port="0"/>
		<edge from-layer="250" from-port="1" to-layer="251" to-port="0"/>
		<edge from-layer="251" from-port="1" to-layer="252" to-port="1"/>
		<edge from-layer="252" from-port="2" to-layer="253" to-port="1"/>
		<edge from-layer="253" from-port="2" to-layer="262" to-port="0"/>
		<edge from-layer="253" from-port="2" to-layer="255" to-port="0"/>
		<edge from-layer="254" from-port="0" to-layer="255" to-port="1"/>
		<edge from-layer="255" from-port="2" to-layer="257" to-port="0"/>
		<edge from-layer="256" from-port="0" to-layer="257" to-port="1"/>
		<edge from-layer="257" from-port="2" to-layer="259" to-port="0"/>
		<edge from-layer="258" from-port="0" to-layer="259" to-port="1"/>
		<edge from-layer="259" from-port="2" to-layer="261" to-port="0"/>
		<edge from-layer="260" from-port="0" to-layer="261" to-port="1"/>
		<edge from-layer="261" from-port="2" to-layer="262" to-port="1"/>
		<edge from-layer="262" from-port="2" to-layer="263" to-port="0"/>
		<edge from-layer="262" from-port="2" to-layer="265" to-port="0"/>
		<edge from-layer="263" from-port="1" to-layer="268" to-port="0"/>
		<edge from-layer="264" from-port="0" to-layer="267" to-port="0"/>
		<edge from-layer="265" from-port="1" to-layer="266" to-port="0"/>
		<edge from-layer="266" from-port="1" to-layer="267" to-port="1"/>
		<edge from-layer="267" from-port="2" to-layer="268" to-port="1"/>
		<edge from-layer="268" from-port="2" to-layer="277" to-port="0"/>
		<edge from-layer="268" from-port="2" to-layer="270" to-port="0"/>
		<edge from-layer="269" from-port="0" to-layer="270" to-port="1"/>
		<edge from-layer="270" from-port="2" to-layer="272" to-port="0"/>
		<edge from-layer="271" from-port="0" to-layer="272" to-port="1"/>
		<edge from-layer="272" from-port="2" to-layer="274" to-port="0"/>
		<edge from-layer="273" from-port="0" to-layer="274" to-port="1"/>
		<edge from-layer="274" from-port="2" to-layer="276" to-port="0"/>
		<edge from-layer="275" from-port="0" to-layer="276" to-port="1"/>
		<edge from-layer="276" from-port="2" to-layer="277" to-port="1"/>
		<edge from-layer="277" from-port="2" to-layer="280" to-port="0"/>
		<edge from-layer="277" from-port="2" to-layer="278" to-port="0"/>
		<edge from-layer="278" from-port="1" to-layer="283" to-port="0"/>
		<edge from-layer="279" from-port="0" to-layer="282" to-port="0"/>
		<edge from-layer="280" from-port="1" to-layer="281" to-port="0"/>
		<edge from-layer="281" from-port="1" to-layer="282" to-port="1"/>
		<edge from-layer="282" from-port="2" to-layer="283" to-port="1"/>
		<edge from-layer="283" from-port="2" to-layer="285" to-port="0"/>
		<edge from-layer="283" from-port="2" to-layer="292" to-port="0"/>
		<edge from-layer="284" from-port="0" to-layer="285" to-port="1"/>
		<edge from-layer="285" from-port="2" to-layer="287" to-port="0"/>
		<edge from-layer="286" from-port="0" to-layer="287" to-port="1"/>
		<edge from-layer="287" from-port="2" to-layer="289" to-port="0"/>
		<edge from-layer="288" from-port="0" to-layer="289" to-port="1"/>
		<edge from-layer="289" from-port="2" to-layer="291" to-port="0"/>
		<edge from-layer="290" from-port="0" to-layer="291" to-port="1"/>
		<edge from-layer="291" from-port="2" to-layer="292" to-port="1"/>
		<edge from-layer="292" from-port="2" to-layer="293" to-port="0"/>
		<edge from-layer="292" from-port="2" to-layer="295" to-port="0"/>
		<edge from-layer="293" from-port="1" to-layer="298" to-port="0"/>
		<edge from-layer="294" from-port="0" to-layer="297" to-port="0"/>
		<edge from-layer="295" from-port="1" to-layer="296" to-port="0"/>
		<edge from-layer="296" from-port="1" to-layer="297" to-port="1"/>
		<edge from-layer="297" from-port="2" to-layer="298" to-port="1"/>
		<edge from-layer="298" from-port="2" to-layer="300" to-port="0"/>
		<edge from-layer="298" from-port="2" to-layer="307" to-port="0"/>
		<edge from-layer="299" from-port="0" to-layer="300" to-port="1"/>
		<edge from-layer="300" from-port="2" to-layer="302" to-port="0"/>
		<edge from-layer="301" from-port="0" to-layer="302" to-port="1"/>
		<edge from-layer="302" from-port="2" to-layer="304" to-port="0"/>
		<edge from-layer="303" from-port="0" to-layer="304" to-port="1"/>
		<edge from-layer="304" from-port="2" to-layer="306" to-port="0"/>
		<edge from-layer="305" from-port="0" to-layer="306" to-port="1"/>
		<edge from-layer="306" from-port="2" to-layer="307" to-port="1"/>
		<edge from-layer="307" from-port="2" to-layer="308" to-port="0"/>
		<edge from-layer="307" from-port="2" to-layer="310" to-port="0"/>
		<edge from-layer="308" from-port="1" to-layer="313" to-port="0"/>
		<edge from-layer="309" from-port="0" to-layer="312" to-port="0"/>
		<edge from-layer="310" from-port="1" to-layer="311" to-port="0"/>
		<edge from-layer="311" from-port="1" to-layer="312" to-port="1"/>
		<edge from-layer="312" from-port="2" to-layer="313" to-port="1"/>
		<edge from-layer="313" from-port="2" to-layer="316" to-port="0"/>
		<edge from-layer="313" from-port="2" to-layer="314" to-port="0"/>
		<edge from-layer="313" from-port="2" to-layer="414" to-port="0"/>
		<edge from-layer="314" from-port="1" to-layer="323" to-port="0"/>
		<edge from-layer="315" from-port="0" to-layer="316" to-port="1"/>
		<edge from-layer="316" from-port="2" to-layer="318" to-port="0"/>
		<edge from-layer="317" from-port="0" to-layer="318" to-port="1"/>
		<edge from-layer="318" from-port="2" to-layer="320" to-port="0"/>
		<edge from-layer="319" from-port="0" to-layer="320" to-port="1"/>
		<edge from-layer="320" from-port="2" to-layer="322" to-port="0"/>
		<edge from-layer="321" from-port="0" to-layer="322" to-port="1"/>
		<edge from-layer="322" from-port="2" to-layer="323" to-port="1"/>
		<edge from-layer="323" from-port="2" to-layer="324" to-port="0"/>
		<edge from-layer="323" from-port="2" to-layer="326" to-port="0"/>
		<edge from-layer="324" from-port="1" to-layer="329" to-port="0"/>
		<edge from-layer="325" from-port="0" to-layer="328" to-port="0"/>
		<edge from-layer="326" from-port="1" to-layer="327" to-port="0"/>
		<edge from-layer="327" from-port="1" to-layer="328" to-port="1"/>
		<edge from-layer="328" from-port="2" to-layer="329" to-port="1"/>
		<edge from-layer="329" from-port="2" to-layer="331" to-port="0"/>
		<edge from-layer="329" from-port="2" to-layer="338" to-port="0"/>
		<edge from-layer="330" from-port="0" to-layer="331" to-port="1"/>
		<edge from-layer="331" from-port="2" to-layer="333" to-port="0"/>
		<edge from-layer="332" from-port="0" to-layer="333" to-port="1"/>
		<edge from-layer="333" from-port="2" to-layer="335" to-port="0"/>
		<edge from-layer="334" from-port="0" to-layer="335" to-port="1"/>
		<edge from-layer="335" from-port="2" to-layer="337" to-port="0"/>
		<edge from-layer="336" from-port="0" to-layer="337" to-port="1"/>
		<edge from-layer="337" from-port="2" to-layer="338" to-port="1"/>
		<edge from-layer="338" from-port="2" to-layer="341" to-port="0"/>
		<edge from-layer="338" from-port="2" to-layer="339" to-port="0"/>
		<edge from-layer="339" from-port="1" to-layer="344" to-port="0"/>
		<edge from-layer="340" from-port="0" to-layer="343" to-port="0"/>
		<edge from-layer="341" from-port="1" to-layer="342" to-port="0"/>
		<edge from-layer="342" from-port="1" to-layer="343" to-port="1"/>
		<edge from-layer="343" from-port="2" to-layer="344" to-port="1"/>
		<edge from-layer="344" from-port="2" to-layer="346" to-port="0"/>
		<edge from-layer="344" from-port="2" to-layer="353" to-port="0"/>
		<edge from-layer="345" from-port="0" to-layer="346" to-port="1"/>
		<edge from-layer="346" from-port="2" to-layer="348" to-port="0"/>
		<edge from-layer="347" from-port="0" to-layer="348" to-port="1"/>
		<edge from-layer="348" from-port="2" to-layer="350" to-port="0"/>
		<edge from-layer="349" from-port="0" to-layer="350" to-port="1"/>
		<edge from-layer="350" from-port="2" to-layer="352" to-port="0"/>
		<edge from-layer="351" from-port="0" to-layer="352" to-port="1"/>
		<edge from-layer="352" from-port="2" to-layer="353" to-port="1"/>
		<edge from-layer="353" from-port="2" to-layer="356" to-port="0"/>
		<edge from-layer="353" from-port="2" to-layer="354" to-port="0"/>
		<edge from-layer="354" from-port="1" to-layer="359" to-port="0"/>
		<edge from-layer="355" from-port="0" to-layer="358" to-port="0"/>
		<edge from-layer="356" from-port="1" to-layer="357" to-port="0"/>
		<edge from-layer="357" from-port="1" to-layer="358" to-port="1"/>
		<edge from-layer="358" from-port="2" to-layer="359" to-port="1"/>
		<edge from-layer="359" from-port="2" to-layer="361" to-port="0"/>
		<edge from-layer="359" from-port="2" to-layer="368" to-port="0"/>
		<edge from-layer="360" from-port="0" to-layer="361" to-port="1"/>
		<edge from-layer="361" from-port="2" to-layer="363" to-port="0"/>
		<edge from-layer="362" from-port="0" to-layer="363" to-port="1"/>
		<edge from-layer="363" from-port="2" to-layer="365" to-port="0"/>
		<edge from-layer="364" from-port="0" to-layer="365" to-port="1"/>
		<edge from-layer="365" from-port="2" to-layer="367" to-port="0"/>
		<edge from-layer="366" from-port="0" to-layer="367" to-port="1"/>
		<edge from-layer="367" from-port="2" to-layer="368" to-port="1"/>
		<edge from-layer="368" from-port="2" to-layer="369" to-port="0"/>
		<edge from-layer="368" from-port="2" to-layer="371" to-port="0"/>
		<edge from-layer="369" from-port="1" to-layer="374" to-port="0"/>
		<edge from-layer="370" from-port="0" to-layer="373" to-port="0"/>
		<edge from-layer="371" from-port="1" to-layer="372" to-port="0"/>
		<edge from-layer="372" from-port="1" to-layer="373" to-port="1"/>
		<edge from-layer="373" from-port="2" to-layer="374" to-port="1"/>
		<edge from-layer="374" from-port="2" to-layer="376" to-port="0"/>
		<edge from-layer="374" from-port="2" to-layer="383" to-port="0"/>
		<edge from-layer="375" from-port="0" to-layer="376" to-port="1"/>
		<edge from-layer="376" from-port="2" to-layer="378" to-port="0"/>
		<edge from-layer="377" from-port="0" to-layer="378" to-port="1"/>
		<edge from-layer="378" from-port="2" to-layer="380" to-port="0"/>
		<edge from-layer="379" from-port="0" to-layer="380" to-port="1"/>
		<edge from-layer="380" from-port="2" to-layer="382" to-port="0"/>
		<edge from-layer="381" from-port="0" to-layer="382" to-port="1"/>
		<edge from-layer="382" from-port="2" to-layer="383" to-port="1"/>
		<edge from-layer="383" from-port="2" to-layer="386" to-port="0"/>
		<edge from-layer="383" from-port="2" to-layer="384" to-port="0"/>
		<edge from-layer="384" from-port="1" to-layer="389" to-port="0"/>
		<edge from-layer="385" from-port="0" to-layer="388" to-port="0"/>
		<edge from-layer="386" from-port="1" to-layer="387" to-port="0"/>
		<edge from-layer="387" from-port="1" to-layer="388" to-port="1"/>
		<edge from-layer="388" from-port="2" to-layer="389" to-port="1"/>
		<edge from-layer="389" from-port="2" to-layer="392" to-port="0"/>
		<edge from-layer="389" from-port="2" to-layer="403" to-port="0"/>
		<edge from-layer="390" from-port="0" to-layer="403" to-port="1"/>
		<edge from-layer="391" from-port="0" to-layer="401" to-port="0"/>
		<edge from-layer="392" from-port="1" to-layer="395" to-port="0"/>
		<edge from-layer="393" from-port="0" to-layer="395" to-port="1"/>
		<edge from-layer="394" from-port="0" to-layer="395" to-port="2"/>
		<edge from-layer="395" from-port="3" to-layer="399" to-port="0"/>
		<edge from-layer="396" from-port="0" to-layer="399" to-port="1"/>
		<edge from-layer="397" from-port="0" to-layer="399" to-port="2"/>
		<edge from-layer="398" from-port="0" to-layer="399" to-port="3"/>
		<edge from-layer="399" from-port="4" to-layer="400" to-port="0"/>
		<edge from-layer="400" from-port="1" to-layer="401" to-port="1"/>
		<edge from-layer="401" from-port="2" to-layer="403" to-port="2"/>
		<edge from-layer="402" from-port="0" to-layer="403" to-port="3"/>
		<edge from-layer="403" from-port="4" to-layer="405" to-port="0"/>
		<edge from-layer="404" from-port="0" to-layer="405" to-port="1"/>
		<edge from-layer="405" from-port="2" to-layer="407" to-port="0"/>
		<edge from-layer="406" from-port="0" to-layer="407" to-port="1"/>
		<edge from-layer="407" from-port="2" to-layer="408" to-port="0"/>
		<edge from-layer="407" from-port="2" to-layer="410" to-port="0"/>
		<edge from-layer="408" from-port="1" to-layer="413" to-port="0"/>
		<edge from-layer="409" from-port="0" to-layer="412" to-port="0"/>
		<edge from-layer="410" from-port="1" to-layer="411" to-port="0"/>
		<edge from-layer="411" from-port="1" to-layer="412" to-port="1"/>
		<edge from-layer="412" from-port="2" to-layer="413" to-port="1"/>
		<edge from-layer="413" from-port="2" to-layer="414" to-port="1"/>
		<edge from-layer="414" from-port="2" to-layer="416" to-port="0"/>
		<edge from-layer="414" from-port="2" to-layer="423" to-port="0"/>
		<edge from-layer="415" from-port="0" to-layer="416" to-port="1"/>
		<edge from-layer="416" from-port="2" to-layer="418" to-port="0"/>
		<edge from-layer="417" from-port="0" to-layer="418" to-port="1"/>
		<edge from-layer="418" from-port="2" to-layer="420" to-port="0"/>
		<edge from-layer="419" from-port="0" to-layer="420" to-port="1"/>
		<edge from-layer="420" from-port="2" to-layer="422" to-port="0"/>
		<edge from-layer="421" from-port="0" to-layer="422" to-port="1"/>
		<edge from-layer="422" from-port="2" to-layer="423" to-port="1"/>
		<edge from-layer="423" from-port="2" to-layer="424" to-port="0"/>
		<edge from-layer="423" from-port="2" to-layer="426" to-port="0"/>
		<edge from-layer="424" from-port="1" to-layer="429" to-port="0"/>
		<edge from-layer="425" from-port="0" to-layer="428" to-port="0"/>
		<edge from-layer="426" from-port="1" to-layer="427" to-port="0"/>
		<edge from-layer="427" from-port="1" to-layer="428" to-port="1"/>
		<edge from-layer="428" from-port="2" to-layer="429" to-port="1"/>
		<edge from-layer="429" from-port="2" to-layer="431" to-port="0"/>
		<edge from-layer="429" from-port="2" to-layer="438" to-port="0"/>
		<edge from-layer="430" from-port="0" to-layer="431" to-port="1"/>
		<edge from-layer="431" from-port="2" to-layer="433" to-port="0"/>
		<edge from-layer="432" from-port="0" to-layer="433" to-port="1"/>
		<edge from-layer="433" from-port="2" to-layer="435" to-port="0"/>
		<edge from-layer="434" from-port="0" to-layer="435" to-port="1"/>
		<edge from-layer="435" from-port="2" to-layer="437" to-port="0"/>
		<edge from-layer="436" from-port="0" to-layer="437" to-port="1"/>
		<edge from-layer="437" from-port="2" to-layer="438" to-port="1"/>
		<edge from-layer="438" from-port="2" to-layer="439" to-port="0"/>
		<edge from-layer="438" from-port="2" to-layer="441" to-port="0"/>
		<edge from-layer="439" from-port="1" to-layer="444" to-port="0"/>
		<edge from-layer="440" from-port="0" to-layer="443" to-port="0"/>
		<edge from-layer="441" from-port="1" to-layer="442" to-port="0"/>
		<edge from-layer="442" from-port="1" to-layer="443" to-port="1"/>
		<edge from-layer="443" from-port="2" to-layer="444" to-port="1"/>
		<edge from-layer="444" from-port="2" to-layer="447" to-port="0"/>
		<edge from-layer="444" from-port="2" to-layer="509" to-port="0"/>
		<edge from-layer="444" from-port="2" to-layer="527" to-port="0"/>
		<edge from-layer="444" from-port="2" to-layer="458" to-port="0"/>
		<edge from-layer="445" from-port="0" to-layer="458" to-port="1"/>
		<edge from-layer="446" from-port="0" to-layer="456" to-port="0"/>
		<edge from-layer="447" from-port="1" to-layer="450" to-port="0"/>
		<edge from-layer="448" from-port="0" to-layer="450" to-port="1"/>
		<edge from-layer="449" from-port="0" to-layer="450" to-port="2"/>
		<edge from-layer="450" from-port="3" to-layer="454" to-port="0"/>
		<edge from-layer="451" from-port="0" to-layer="454" to-port="1"/>
		<edge from-layer="452" from-port="0" to-layer="454" to-port="2"/>
		<edge from-layer="453" from-port="0" to-layer="454" to-port="3"/>
		<edge from-layer="454" from-port="4" to-layer="455" to-port="0"/>
		<edge from-layer="455" from-port="1" to-layer="456" to-port="1"/>
		<edge from-layer="456" from-port="2" to-layer="458" to-port="2"/>
		<edge from-layer="457" from-port="0" to-layer="458" to-port="3"/>
		<edge from-layer="458" from-port="4" to-layer="460" to-port="0"/>
		<edge from-layer="459" from-port="0" to-layer="460" to-port="1"/>
		<edge from-layer="460" from-port="2" to-layer="462" to-port="0"/>
		<edge from-layer="461" from-port="0" to-layer="462" to-port="1"/>
		<edge from-layer="462" from-port="2" to-layer="465" to-port="0"/>
		<edge from-layer="462" from-port="2" to-layer="463" to-port="0"/>
		<edge from-layer="463" from-port="1" to-layer="468" to-port="0"/>
		<edge from-layer="464" from-port="0" to-layer="467" to-port="0"/>
		<edge from-layer="465" from-port="1" to-layer="466" to-port="0"/>
		<edge from-layer="466" from-port="1" to-layer="467" to-port="1"/>
		<edge from-layer="467" from-port="2" to-layer="468" to-port="1"/>
		<edge from-layer="468" from-port="2" to-layer="469" to-port="1"/>
		<edge from-layer="469" from-port="2" to-layer="471" to-port="0"/>
		<edge from-layer="469" from-port="2" to-layer="478" to-port="0"/>
		<edge from-layer="470" from-port="0" to-layer="471" to-port="1"/>
		<edge from-layer="471" from-port="2" to-layer="473" to-port="0"/>
		<edge from-layer="472" from-port="0" to-layer="473" to-port="1"/>
		<edge from-layer="473" from-port="2" to-layer="475" to-port="0"/>
		<edge from-layer="474" from-port="0" to-layer="475" to-port="1"/>
		<edge from-layer="475" from-port="2" to-layer="477" to-port="0"/>
		<edge from-layer="476" from-port="0" to-layer="477" to-port="1"/>
		<edge from-layer="477" from-port="2" to-layer="478" to-port="1"/>
		<edge from-layer="478" from-port="2" to-layer="479" to-port="0"/>
		<edge from-layer="478" from-port="2" to-layer="481" to-port="0"/>
		<edge from-layer="479" from-port="1" to-layer="484" to-port="0"/>
		<edge from-layer="480" from-port="0" to-layer="483" to-port="0"/>
		<edge from-layer="481" from-port="1" to-layer="482" to-port="0"/>
		<edge from-layer="482" from-port="1" to-layer="483" to-port="1"/>
		<edge from-layer="483" from-port="2" to-layer="484" to-port="1"/>
		<edge from-layer="484" from-port="2" to-layer="486" to-port="0"/>
		<edge from-layer="484" from-port="2" to-layer="493" to-port="0"/>
		<edge from-layer="485" from-port="0" to-layer="486" to-port="1"/>
		<edge from-layer="486" from-port="2" to-layer="488" to-port="0"/>
		<edge from-layer="487" from-port="0" to-layer="488" to-port="1"/>
		<edge from-layer="488" from-port="2" to-layer="490" to-port="0"/>
		<edge from-layer="489" from-port="0" to-layer="490" to-port="1"/>
		<edge from-layer="490" from-port="2" to-layer="492" to-port="0"/>
		<edge from-layer="491" from-port="0" to-layer="492" to-port="1"/>
		<edge from-layer="492" from-port="2" to-layer="493" to-port="1"/>
		<edge from-layer="493" from-port="2" to-layer="494" to-port="0"/>
		<edge from-layer="493" from-port="2" to-layer="496" to-port="0"/>
		<edge from-layer="494" from-port="1" to-layer="499" to-port="0"/>
		<edge from-layer="495" from-port="0" to-layer="498" to-port="0"/>
		<edge from-layer="496" from-port="1" to-layer="497" to-port="0"/>
		<edge from-layer="497" from-port="1" to-layer="498" to-port="1"/>
		<edge from-layer="498" from-port="2" to-layer="499" to-port="1"/>
		<edge from-layer="499" from-port="2" to-layer="501" to-port="0"/>
		<edge from-layer="499" from-port="2" to-layer="519" to-port="0"/>
		<edge from-layer="500" from-port="0" to-layer="501" to-port="1"/>
		<edge from-layer="501" from-port="2" to-layer="503" to-port="0"/>
		<edge from-layer="502" from-port="0" to-layer="503" to-port="1"/>
		<edge from-layer="503" from-port="2" to-layer="505" to-port="0"/>
		<edge from-layer="504" from-port="0" to-layer="505" to-port="1"/>
		<edge from-layer="505" from-port="2" to-layer="507" to-port="0"/>
		<edge from-layer="506" from-port="0" to-layer="507" to-port="1"/>
		<edge from-layer="507" from-port="2" to-layer="516" to-port="0"/>
		<edge from-layer="508" from-port="0" to-layer="509" to-port="1"/>
		<edge from-layer="509" from-port="2" to-layer="511" to-port="0"/>
		<edge from-layer="510" from-port="0" to-layer="511" to-port="1"/>
		<edge from-layer="511" from-port="2" to-layer="513" to-port="0"/>
		<edge from-layer="512" from-port="0" to-layer="513" to-port="1"/>
		<edge from-layer="513" from-port="2" to-layer="515" to-port="0"/>
		<edge from-layer="514" from-port="0" to-layer="515" to-port="1"/>
		<edge from-layer="515" from-port="2" to-layer="516" to-port="1"/>
		<edge from-layer="516" from-port="2" to-layer="517" to-port="0"/>
		<edge from-layer="518" from-port="0" to-layer="519" to-port="1"/>
		<edge from-layer="519" from-port="2" to-layer="521" to-port="0"/>
		<edge from-layer="520" from-port="0" to-layer="521" to-port="1"/>
		<edge from-layer="521" from-port="2" to-layer="523" to-port="0"/>
		<edge from-layer="522" from-port="0" to-layer="523" to-port="1"/>
		<edge from-layer="523" from-port="2" to-layer="525" to-port="0"/>
		<edge from-layer="524" from-port="0" to-layer="525" to-port="1"/>
		<edge from-layer="525" from-port="2" to-layer="534" to-port="0"/>
		<edge from-layer="526" from-port="0" to-layer="527" to-port="1"/>
		<edge from-layer="527" from-port="2" to-layer="529" to-port="0"/>
		<edge from-layer="528" from-port="0" to-layer="529" to-port="1"/>
		<edge from-layer="529" from-port="2" to-layer="531" to-port="0"/>
		<edge from-layer="530" from-port="0" to-layer="531" to-port="1"/>
		<edge from-layer="531" from-port="2" to-layer="533" to-port="0"/>
		<edge from-layer="532" from-port="0" to-layer="533" to-port="1"/>
		<edge from-layer="533" from-port="2" to-layer="534" to-port="1"/>
		<edge from-layer="534" from-port="2" to-layer="535" to-port="0"/>
	</edges>
	<meta_data>
		<MO_version value="2021.4.0-3839-cd81789d294-releases/2021/4"/>
		<cli_parameters>
			<data_type value="FP16"/>
			<disable_nhwc_to_nchw value="False"/>
			<disable_resnet_optimization value="False"/>
			<disable_weights_compression value="False"/>
			<enable_concat_optimization value="False"/>
			<extensions value="DIR"/>
			<framework value="tf"/>
			<freeze_placeholder_with_value value="{}"/>
			<generate_deprecated_IR_V7 value="False"/>
			<input_model value="DIR/model_float32.pb"/>
			<input_model_is_text value="False"/>
			<keep_shape_ops value="True"/>
			<legacy_ir_generation value="False"/>
			<log_level value="ERROR"/>
			<mean_scale_values value="[(array([0., 0., 0.]), array([255., 255., 255.]))]"/>
			<mean_values value="[0.0, 0.0, 0.0]"/>
			<model_name value="palm_detection_FP16"/>
			<output_dir value="DIR"/>
			<placeholder_data_types value="{}"/>
			<progress value="False"/>
			<reverse_input_channels value="True"/>
			<scale_values value="[255.0, 255.0, 255.0]"/>
			<silent value="False"/>
			<static_shape value="False"/>
			<stream_output value="False"/>
			<transform value=""/>
			<unset unset_cli_parameters="batch, disable_fusing, disable_gfusing, finegrain_fusing, input, input_checkpoint, input_meta_graph, input_shape, move_to_preprocess, output, placeholder_shapes, saved_model_dir, saved_model_tags, scale, tensorboard_logdir, tensorflow_custom_layer_libraries, tensorflow_custom_operations_config_update, tensorflow_object_detection_api_pipeline_config, tensorflow_use_custom_operations_config, transformations_config"/>
		</cli_parameters>
	</meta_data>
</net>
