<?xml version="1.0" ?>
<net name="hand_landmark_FP32" version="10">
	<layers>
		<layer id="0" name="input_1" type="Parameter" version="opset1">
			<data shape="1, 3, 224, 224" element_type="f32"/>
			<output>
				<port id="0" precision="FP32">
					<dim>1</dim>
					<dim>3</dim>
					<dim>224</dim>
					<dim>224</dim>
				</port>
			</output>
		</layer>
		<layer id="1" name="input_1/scale_copy" type="Const" version="opset1">
			<data element_type="f32" shape="24, 3, 3, 3" offset="0" size="2592"/>
			<output>
				<port id="0" precision="FP32" names="Conv2D/filter:0">
					<dim>24</dim>
					<dim>3</dim>
					<dim>3</dim>
					<dim>3</dim>
				</port>
			</output>
		</layer>
		<layer id="2" name="Conv2D" type="Convolution" version="opset1">
			<data strides="2, 2" dilations="1, 1" pads_begin="0, 0" pads_end="1, 1" auto_pad="same_upper"/>
			<input>
				<port id="0" precision="FP32">
					<dim>1</dim>
					<dim>3</dim>
					<dim>224</dim>
					<dim>224</dim>
				</port>
				<port id="1" precision="FP32">
					<dim>24</dim>
					<dim>3</dim>
					<dim>3</dim>
					<dim>3</dim>
				</port>
			</input>
			<output>
				<port id="2" precision="FP32" names="Conv2D:0">
					<dim>1</dim>
					<dim>24</dim>
					<dim>112</dim>
					<dim>112</dim>
				</port>
			</output>
		</layer>
		<layer id="3" name="Add/y" type="Const" version="opset1">
			<data element_type="f32" shape="1, 24, 1, 1" offset="2592" size="96"/>
			<output>
				<port id="0" precision="FP32" names="Add/y:0">
					<dim>1</dim>
					<dim>24</dim>
					<dim>1</dim>
					<dim>1</dim>
				</port>
			</output>
		</layer>
		<layer id="4" name="Add" type="Add" version="opset1">
			<data auto_broadcast="numpy"/>
			<input>
				<port id="0" precision="FP32">
					<dim>1</dim>
					<dim>24</dim>
					<dim>112</dim>
					<dim>112</dim>
				</port>
				<port id="1" precision="FP32">
					<dim>1</dim>
					<dim>24</dim>
					<dim>1</dim>
					<dim>1</dim>
				</port>
			</input>
			<output>
				<port id="2" precision="FP32" names="Add:0">
					<dim>1</dim>
					<dim>24</dim>
					<dim>112</dim>
					<dim>112</dim>
				</port>
			</output>
		</layer>
		<layer id="5" name="model_1/model/re_lu/Relu6_model_1/model/batch_normalization/FusedBatchNormV3_model_1/model/batch_normalization_1/FusedBatchNormV3_model_1/model/depthwise_conv2d/depthwise_model_1/model/conv2d_5/Conv2D_model_1/model/conv2d/Conv2D" type="Clamp" version="opset1">
			<data min="0" max="6"/>
			<input>
				<port id="0" precision="FP32">
					<dim>1</dim>
					<dim>24</dim>
					<dim>112</dim>
					<dim>112</dim>
				</port>
			</input>
			<output>
				<port id="1" precision="FP32" names="model_1/model/re_lu/Relu6_model_1/model/batch_normalization/FusedBatchNormV3_model_1/model/batch_normalization_1/FusedBatchNormV3_model_1/model/depthwise_conv2d/depthwise_model_1/model/conv2d_5/Conv2D_model_1/model/conv2d/Conv2D:0">
					<dim>1</dim>
					<dim>24</dim>
					<dim>112</dim>
					<dim>112</dim>
				</port>
			</output>
		</layer>
		<layer id="6" name="depthwise/filter_in" type="Const" version="opset1">
			<data element_type="f32" shape="24, 1, 1, 3, 3" offset="2688" size="864"/>
			<output>
				<port id="0" precision="FP32" names="depthwise/filter_in:0">
					<dim>24</dim>
					<dim>1</dim>
					<dim>1</dim>
					<dim>3</dim>
					<dim>3</dim>
				</port>
			</output>
		</layer>
		<layer id="7" name="depthwise" type="GroupConvolution" version="opset1">
			<data strides="1, 1" pads_begin="1, 1" pads_end="1, 1" dilations="1, 1" auto_pad="same_upper"/>
			<input>
				<port id="0" precision="FP32">
					<dim>1</dim>
					<dim>24</dim>
					<dim>112</dim>
					<dim>112</dim>
				</port>
				<port id="1" precision="FP32">
					<dim>24</dim>
					<dim>1</dim>
					<dim>1</dim>
					<dim>3</dim>
					<dim>3</dim>
				</port>
			</input>
			<output>
				<port id="2" precision="FP32" names="depthwise:0">
					<dim>1</dim>
					<dim>24</dim>
					<dim>112</dim>
					<dim>112</dim>
				</port>
			</output>
		</layer>
		<layer id="8" name="Add_1/y" type="Const" version="opset1">
			<data element_type="f32" shape="1, 24, 1, 1" offset="3552" size="96"/>
			<output>
				<port id="0" precision="FP32" names="Add_1/y:0">
					<dim>1</dim>
					<dim>24</dim>
					<dim>1</dim>
					<dim>1</dim>
				</port>
			</output>
		</layer>
		<layer id="9" name="Add_1" type="Add" version="opset1">
			<data auto_broadcast="numpy"/>
			<input>
				<port id="0" precision="FP32">
					<dim>1</dim>
					<dim>24</dim>
					<dim>112</dim>
					<dim>112</dim>
				</port>
				<port id="1" precision="FP32">
					<dim>1</dim>
					<dim>24</dim>
					<dim>1</dim>
					<dim>1</dim>
				</port>
			</input>
			<output>
				<port id="2" precision="FP32" names="Add_1:0">
					<dim>1</dim>
					<dim>24</dim>
					<dim>112</dim>
					<dim>112</dim>
				</port>
			</output>
		</layer>
		<layer id="10" name="model_1/model/re_lu_1/Relu6_model_1/model/batch_normalization_1/FusedBatchNormV3_model_1/model/depthwise_conv2d/depthwise_model_1/model/conv2d_5/Conv2D" type="Clamp" version="opset1">
			<data min="0" max="6"/>
			<input>
				<port id="0" precision="FP32">
					<dim>1</dim>
					<dim>24</dim>
					<dim>112</dim>
					<dim>112</dim>
				</port>
			</input>
			<output>
				<port id="1" precision="FP32" names="model_1/model/re_lu_1/Relu6_model_1/model/batch_normalization_1/FusedBatchNormV3_model_1/model/depthwise_conv2d/depthwise_model_1/model/conv2d_5/Conv2D:0">
					<dim>1</dim>
					<dim>24</dim>
					<dim>112</dim>
					<dim>112</dim>
				</port>
			</output>
		</layer>
		<layer id="11" name="Conv2D_1/filter" type="Const" version="opset1">
			<data element_type="f32" shape="16, 24, 1, 1" offset="3648" size="1536"/>
			<output>
				<port id="0" precision="FP32" names="Conv2D_1/filter:0">
					<dim>16</dim>
					<dim>24</dim>
					<dim>1</dim>
					<dim>1</dim>
				</port>
			</output>
		</layer>
		<layer id="12" name="Conv2D_1" type="Convolution" version="opset1">
			<data strides="1, 1" dilations="1, 1" pads_begin="0, 0" pads_end="0, 0" auto_pad="same_upper"/>
			<input>
				<port id="0" precision="FP32">
					<dim>1</dim>
					<dim>24</dim>
					<dim>112</dim>
					<dim>112</dim>
				</port>
				<port id="1" precision="FP32">
					<dim>16</dim>
					<dim>24</dim>
					<dim>1</dim>
					<dim>1</dim>
				</port>
			</input>
			<output>
				<port id="2" precision="FP32" names="Conv2D_1:0">
					<dim>1</dim>
					<dim>16</dim>
					<dim>112</dim>
					<dim>112</dim>
				</port>
			</output>
		</layer>
		<layer id="13" name="model_1/model/batch_normalization_2/FusedBatchNormV3_model_1/model/conv2d_1/Conv2D1/y" type="Const" version="opset1">
			<data element_type="f32" shape="1, 16, 1, 1" offset="5184" size="64"/>
			<output>
				<port id="0" precision="FP32" names="model_1/model/batch_normalization_2/FusedBatchNormV3_model_1/model/conv2d_1/Conv2D1/y:0">
					<dim>1</dim>
					<dim>16</dim>
					<dim>1</dim>
					<dim>1</dim>
				</port>
			</output>
		</layer>
		<layer id="14" name="model_1/model/batch_normalization_2/FusedBatchNormV3_model_1/model/conv2d_1/Conv2D1" type="Add" version="opset1">
			<data auto_broadcast="numpy"/>
			<input>
				<port id="0" precision="FP32">
					<dim>1</dim>
					<dim>16</dim>
					<dim>112</dim>
					<dim>112</dim>
				</port>
				<port id="1" precision="FP32">
					<dim>1</dim>
					<dim>16</dim>
					<dim>1</dim>
					<dim>1</dim>
				</port>
			</input>
			<output>
				<port id="2" precision="FP32" names="model_1/model/batch_normalization_2/FusedBatchNormV3_model_1/model/conv2d_1/Conv2D1:0">
					<dim>1</dim>
					<dim>16</dim>
					<dim>112</dim>
					<dim>112</dim>
				</port>
			</output>
		</layer>
		<layer id="15" name="Conv2D_2/filter" type="Const" version="opset1">
			<data element_type="f32" shape="64, 16, 1, 1" offset="5248" size="4096"/>
			<output>
				<port id="0" precision="FP32" names="Conv2D_2/filter:0">
					<dim>64</dim>
					<dim>16</dim>
					<dim>1</dim>
					<dim>1</dim>
				</port>
			</output>
		</layer>
		<layer id="16" name="Conv2D_2" type="Convolution" version="opset1">
			<data strides="1, 1" dilations="1, 1" pads_begin="0, 0" pads_end="0, 0" auto_pad="same_upper"/>
			<input>
				<port id="0" precision="FP32">
					<dim>1</dim>
					<dim>16</dim>
					<dim>112</dim>
					<dim>112</dim>
				</port>
				<port id="1" precision="FP32">
					<dim>64</dim>
					<dim>16</dim>
					<dim>1</dim>
					<dim>1</dim>
				</port>
			</input>
			<output>
				<port id="2" precision="FP32" names="Conv2D_2:0">
					<dim>1</dim>
					<dim>64</dim>
					<dim>112</dim>
					<dim>112</dim>
				</port>
			</output>
		</layer>
		<layer id="17" name="Add_2/y" type="Const" version="opset1">
			<data element_type="f32" shape="1, 64, 1, 1" offset="9344" size="256"/>
			<output>
				<port id="0" precision="FP32" names="Add_2/y:0">
					<dim>1</dim>
					<dim>64</dim>
					<dim>1</dim>
					<dim>1</dim>
				</port>
			</output>
		</layer>
		<layer id="18" name="Add_2" type="Add" version="opset1">
			<data auto_broadcast="numpy"/>
			<input>
				<port id="0" precision="FP32">
					<dim>1</dim>
					<dim>64</dim>
					<dim>112</dim>
					<dim>112</dim>
				</port>
				<port id="1" precision="FP32">
					<dim>1</dim>
					<dim>64</dim>
					<dim>1</dim>
					<dim>1</dim>
				</port>
			</input>
			<output>
				<port id="2" precision="FP32" names="Add_2:0">
					<dim>1</dim>
					<dim>64</dim>
					<dim>112</dim>
					<dim>112</dim>
				</port>
			</output>
		</layer>
		<layer id="19" name="model_1/model/re_lu_2/Relu6_model_1/model/batch_normalization_3/FusedBatchNormV3_model_1/model/batch_normalization_4/FusedBatchNormV3_model_1/model/depthwise_conv2d_1/depthwise_model_1/model/conv2d_2/Conv2D" type="Clamp" version="opset1">
			<data min="0" max="6"/>
			<input>
				<port id="0" precision="FP32">
					<dim>1</dim>
					<dim>64</dim>
					<dim>112</dim>
					<dim>112</dim>
				</port>
			</input>
			<output>
				<port id="1" precision="FP32" names="model_1/model/re_lu_2/Relu6_model_1/model/batch_normalization_3/FusedBatchNormV3_model_1/model/batch_normalization_4/FusedBatchNormV3_model_1/model/depthwise_conv2d_1/depthwise_model_1/model/conv2d_2/Conv2D:0">
					<dim>1</dim>
					<dim>64</dim>
					<dim>112</dim>
					<dim>112</dim>
				</port>
			</output>
		</layer>
		<layer id="20" name="depthwise_1/filter_in" type="Const" version="opset1">
			<data element_type="f32" shape="64, 1, 1, 3, 3" offset="9600" size="2304"/>
			<output>
				<port id="0" precision="FP32" names="depthwise_1/filter_in:0">
					<dim>64</dim>
					<dim>1</dim>
					<dim>1</dim>
					<dim>3</dim>
					<dim>3</dim>
				</port>
			</output>
		</layer>
		<layer id="21" name="depthwise_1" type="GroupConvolution" version="opset1">
			<data strides="2, 2" pads_begin="0, 0" pads_end="1, 1" dilations="1, 1" auto_pad="same_upper"/>
			<input>
				<port id="0" precision="FP32">
					<dim>1</dim>
					<dim>64</dim>
					<dim>112</dim>
					<dim>112</dim>
				</port>
				<port id="1" precision="FP32">
					<dim>64</dim>
					<dim>1</dim>
					<dim>1</dim>
					<dim>3</dim>
					<dim>3</dim>
				</port>
			</input>
			<output>
				<port id="2" precision="FP32" names="depthwise_1:0">
					<dim>1</dim>
					<dim>64</dim>
					<dim>56</dim>
					<dim>56</dim>
				</port>
			</output>
		</layer>
		<layer id="22" name="Add_3/y" type="Const" version="opset1">
			<data element_type="f32" shape="1, 64, 1, 1" offset="11904" size="256"/>
			<output>
				<port id="0" precision="FP32" names="Add_3/y:0">
					<dim>1</dim>
					<dim>64</dim>
					<dim>1</dim>
					<dim>1</dim>
				</port>
			</output>
		</layer>
		<layer id="23" name="Add_3" type="Add" version="opset1">
			<data auto_broadcast="numpy"/>
			<input>
				<port id="0" precision="FP32">
					<dim>1</dim>
					<dim>64</dim>
					<dim>56</dim>
					<dim>56</dim>
				</port>
				<port id="1" precision="FP32">
					<dim>1</dim>
					<dim>64</dim>
					<dim>1</dim>
					<dim>1</dim>
				</port>
			</input>
			<output>
				<port id="2" precision="FP32" names="Add_3:0">
					<dim>1</dim>
					<dim>64</dim>
					<dim>56</dim>
					<dim>56</dim>
				</port>
			</output>
		</layer>
		<layer id="24" name="model_1/model/re_lu_3/Relu6_model_1/model/batch_normalization_4/FusedBatchNormV3_model_1/model/depthwise_conv2d_1/depthwise" type="Clamp" version="opset1">
			<data min="0" max="6"/>
			<input>
				<port id="0" precision="FP32">
					<dim>1</dim>
					<dim>64</dim>
					<dim>56</dim>
					<dim>56</dim>
				</port>
			</input>
			<output>
				<port id="1" precision="FP32" names="model_1/model/re_lu_3/Relu6_model_1/model/batch_normalization_4/FusedBatchNormV3_model_1/model/depthwise_conv2d_1/depthwise:0">
					<dim>1</dim>
					<dim>64</dim>
					<dim>56</dim>
					<dim>56</dim>
				</port>
			</output>
		</layer>
		<layer id="25" name="Conv2D_3/filter" type="Const" version="opset1">
			<data element_type="f32" shape="24, 64, 1, 1" offset="12160" size="6144"/>
			<output>
				<port id="0" precision="FP32" names="Conv2D_3/filter:0">
					<dim>24</dim>
					<dim>64</dim>
					<dim>1</dim>
					<dim>1</dim>
				</port>
			</output>
		</layer>
		<layer id="26" name="Conv2D_3" type="Convolution" version="opset1">
			<data strides="1, 1" dilations="1, 1" pads_begin="0, 0" pads_end="0, 0" auto_pad="same_upper"/>
			<input>
				<port id="0" precision="FP32">
					<dim>1</dim>
					<dim>64</dim>
					<dim>56</dim>
					<dim>56</dim>
				</port>
				<port id="1" precision="FP32">
					<dim>24</dim>
					<dim>64</dim>
					<dim>1</dim>
					<dim>1</dim>
				</port>
			</input>
			<output>
				<port id="2" precision="FP32" names="Conv2D_3:0">
					<dim>1</dim>
					<dim>24</dim>
					<dim>56</dim>
					<dim>56</dim>
				</port>
			</output>
		</layer>
		<layer id="27" name="model_1/model/batch_normalization_5/FusedBatchNormV3_model_1/model/conv2d_5/Conv2D_model_1/model/conv2d_3/Conv2D1/y" type="Const" version="opset1">
			<data element_type="f32" shape="1, 24, 1, 1" offset="18304" size="96"/>
			<output>
				<port id="0" precision="FP32" names="model_1/model/batch_normalization_5/FusedBatchNormV3_model_1/model/conv2d_5/Conv2D_model_1/model/conv2d_3/Conv2D1/y:0">
					<dim>1</dim>
					<dim>24</dim>
					<dim>1</dim>
					<dim>1</dim>
				</port>
			</output>
		</layer>
		<layer id="28" name="model_1/model/batch_normalization_5/FusedBatchNormV3_model_1/model/conv2d_5/Conv2D_model_1/model/conv2d_3/Conv2D1" type="Add" version="opset1">
			<data auto_broadcast="numpy"/>
			<input>
				<port id="0" precision="FP32">
					<dim>1</dim>
					<dim>24</dim>
					<dim>56</dim>
					<dim>56</dim>
				</port>
				<port id="1" precision="FP32">
					<dim>1</dim>
					<dim>24</dim>
					<dim>1</dim>
					<dim>1</dim>
				</port>
			</input>
			<output>
				<port id="2" precision="FP32" names="model_1/model/batch_normalization_5/FusedBatchNormV3_model_1/model/conv2d_5/Conv2D_model_1/model/conv2d_3/Conv2D1:0">
					<dim>1</dim>
					<dim>24</dim>
					<dim>56</dim>
					<dim>56</dim>
				</port>
			</output>
		</layer>
		<layer id="29" name="Conv2D_4/filter" type="Const" version="opset1">
			<data element_type="f32" shape="144, 24, 1, 1" offset="18400" size="13824"/>
			<output>
				<port id="0" precision="FP32" names="Conv2D_4/filter:0">
					<dim>144</dim>
					<dim>24</dim>
					<dim>1</dim>
					<dim>1</dim>
				</port>
			</output>
		</layer>
		<layer id="30" name="Conv2D_4" type="Convolution" version="opset1">
			<data strides="1, 1" dilations="1, 1" pads_begin="0, 0" pads_end="0, 0" auto_pad="same_upper"/>
			<input>
				<port id="0" precision="FP32">
					<dim>1</dim>
					<dim>24</dim>
					<dim>56</dim>
					<dim>56</dim>
				</port>
				<port id="1" precision="FP32">
					<dim>144</dim>
					<dim>24</dim>
					<dim>1</dim>
					<dim>1</dim>
				</port>
			</input>
			<output>
				<port id="2" precision="FP32" names="Conv2D_4:0">
					<dim>1</dim>
					<dim>144</dim>
					<dim>56</dim>
					<dim>56</dim>
				</port>
			</output>
		</layer>
		<layer id="31" name="Add_4/y" type="Const" version="opset1">
			<data element_type="f32" shape="1, 144, 1, 1" offset="32224" size="576"/>
			<output>
				<port id="0" precision="FP32" names="Add_4/y:0">
					<dim>1</dim>
					<dim>144</dim>
					<dim>1</dim>
					<dim>1</dim>
				</port>
			</output>
		</layer>
		<layer id="32" name="Add_4" type="Add" version="opset1">
			<data auto_broadcast="numpy"/>
			<input>
				<port id="0" precision="FP32">
					<dim>1</dim>
					<dim>144</dim>
					<dim>56</dim>
					<dim>56</dim>
				</port>
				<port id="1" precision="FP32">
					<dim>1</dim>
					<dim>144</dim>
					<dim>1</dim>
					<dim>1</dim>
				</port>
			</input>
			<output>
				<port id="2" precision="FP32" names="Add_4:0">
					<dim>1</dim>
					<dim>144</dim>
					<dim>56</dim>
					<dim>56</dim>
				</port>
			</output>
		</layer>
		<layer id="33" name="model_1/model/re_lu_4/Relu6_model_1/model/batch_normalization_6/FusedBatchNormV3_model_1/model/batch_normalization_10/FusedBatchNormV3_model_1/model/depthwise_conv2d_3/depthwise_model_1/model/conv2d_4/Conv2D" type="Clamp" version="opset1">
			<data min="0" max="6"/>
			<input>
				<port id="0" precision="FP32">
					<dim>1</dim>
					<dim>144</dim>
					<dim>56</dim>
					<dim>56</dim>
				</port>
			</input>
			<output>
				<port id="1" precision="FP32" names="model_1/model/re_lu_4/Relu6_model_1/model/batch_normalization_6/FusedBatchNormV3_model_1/model/batch_normalization_10/FusedBatchNormV3_model_1/model/depthwise_conv2d_3/depthwise_model_1/model/conv2d_4/Conv2D:0">
					<dim>1</dim>
					<dim>144</dim>
					<dim>56</dim>
					<dim>56</dim>
				</port>
			</output>
		</layer>
		<layer id="34" name="depthwise_2/filter_in" type="Const" version="opset1">
			<data element_type="f32" shape="144, 1, 1, 3, 3" offset="32800" size="5184"/>
			<output>
				<port id="0" precision="FP32" names="depthwise_2/filter_in:0">
					<dim>144</dim>
					<dim>1</dim>
					<dim>1</dim>
					<dim>3</dim>
					<dim>3</dim>
				</port>
			</output>
		</layer>
		<layer id="35" name="depthwise_2" type="GroupConvolution" version="opset1">
			<data strides="1, 1" pads_begin="1, 1" pads_end="1, 1" dilations="1, 1" auto_pad="same_upper"/>
			<input>
				<port id="0" precision="FP32">
					<dim>1</dim>
					<dim>144</dim>
					<dim>56</dim>
					<dim>56</dim>
				</port>
				<port id="1" precision="FP32">
					<dim>144</dim>
					<dim>1</dim>
					<dim>1</dim>
					<dim>3</dim>
					<dim>3</dim>
				</port>
			</input>
			<output>
				<port id="2" precision="FP32" names="depthwise_2:0">
					<dim>1</dim>
					<dim>144</dim>
					<dim>56</dim>
					<dim>56</dim>
				</port>
			</output>
		</layer>
		<layer id="36" name="Add_5/y" type="Const" version="opset1">
			<data element_type="f32" shape="1, 144, 1, 1" offset="37984" size="576"/>
			<output>
				<port id="0" precision="FP32" names="Add_5/y:0">
					<dim>1</dim>
					<dim>144</dim>
					<dim>1</dim>
					<dim>1</dim>
				</port>
			</output>
		</layer>
		<layer id="37" name="Add_5" type="Add" version="opset1">
			<data auto_broadcast="numpy"/>
			<input>
				<port id="0" precision="FP32">
					<dim>1</dim>
					<dim>144</dim>
					<dim>56</dim>
					<dim>56</dim>
				</port>
				<port id="1" precision="FP32">
					<dim>1</dim>
					<dim>144</dim>
					<dim>1</dim>
					<dim>1</dim>
				</port>
			</input>
			<output>
				<port id="2" precision="FP32" names="Add_5:0">
					<dim>1</dim>
					<dim>144</dim>
					<dim>56</dim>
					<dim>56</dim>
				</port>
			</output>
		</layer>
		<layer id="38" name="model_1/model/re_lu_5/Relu6_model_1/model/batch_normalization_7/FusedBatchNormV3_model_1/model/batch_normalization_10/FusedBatchNormV3_model_1/model/depthwise_conv2d_3/depthwise_model_1/model/depthwise_conv2d_2/depthwise" type="Clamp" version="opset1">
			<data min="0" max="6"/>
			<input>
				<port id="0" precision="FP32">
					<dim>1</dim>
					<dim>144</dim>
					<dim>56</dim>
					<dim>56</dim>
				</port>
			</input>
			<output>
				<port id="1" precision="FP32" names="model_1/model/re_lu_5/Relu6_model_1/model/batch_normalization_7/FusedBatchNormV3_model_1/model/batch_normalization_10/FusedBatchNormV3_model_1/model/depthwise_conv2d_3/depthwise_model_1/model/depthwise_conv2d_2/depthwise:0">
					<dim>1</dim>
					<dim>144</dim>
					<dim>56</dim>
					<dim>56</dim>
				</port>
			</output>
		</layer>
		<layer id="39" name="Conv2D_5/filter" type="Const" version="opset1">
			<data element_type="f32" shape="24, 144, 1, 1" offset="38560" size="13824"/>
			<output>
				<port id="0" precision="FP32" names="Conv2D_5/filter:0">
					<dim>24</dim>
					<dim>144</dim>
					<dim>1</dim>
					<dim>1</dim>
				</port>
			</output>
		</layer>
		<layer id="40" name="Conv2D_5" type="Convolution" version="opset1">
			<data strides="1, 1" dilations="1, 1" pads_begin="0, 0" pads_end="0, 0" auto_pad="same_upper"/>
			<input>
				<port id="0" precision="FP32">
					<dim>1</dim>
					<dim>144</dim>
					<dim>56</dim>
					<dim>56</dim>
				</port>
				<port id="1" precision="FP32">
					<dim>24</dim>
					<dim>144</dim>
					<dim>1</dim>
					<dim>1</dim>
				</port>
			</input>
			<output>
				<port id="2" precision="FP32" names="Conv2D_5:0">
					<dim>1</dim>
					<dim>24</dim>
					<dim>56</dim>
					<dim>56</dim>
				</port>
			</output>
		</layer>
		<layer id="41" name="model_1/model/batch_normalization_8/FusedBatchNormV3_model_1/model/conv2d_5/Conv2D1/y" type="Const" version="opset1">
			<data element_type="f32" shape="1, 24, 1, 1" offset="52384" size="96"/>
			<output>
				<port id="0" precision="FP32" names="model_1/model/batch_normalization_8/FusedBatchNormV3_model_1/model/conv2d_5/Conv2D1/y:0">
					<dim>1</dim>
					<dim>24</dim>
					<dim>1</dim>
					<dim>1</dim>
				</port>
			</output>
		</layer>
		<layer id="42" name="model_1/model/batch_normalization_8/FusedBatchNormV3_model_1/model/conv2d_5/Conv2D1" type="Add" version="opset1">
			<data auto_broadcast="numpy"/>
			<input>
				<port id="0" precision="FP32">
					<dim>1</dim>
					<dim>24</dim>
					<dim>56</dim>
					<dim>56</dim>
				</port>
				<port id="1" precision="FP32">
					<dim>1</dim>
					<dim>24</dim>
					<dim>1</dim>
					<dim>1</dim>
				</port>
			</input>
			<output>
				<port id="2" precision="FP32" names="model_1/model/batch_normalization_8/FusedBatchNormV3_model_1/model/conv2d_5/Conv2D1:0">
					<dim>1</dim>
					<dim>24</dim>
					<dim>56</dim>
					<dim>56</dim>
				</port>
			</output>
		</layer>
		<layer id="43" name="model_1/model/add/add" type="Add" version="opset1">
			<data auto_broadcast="numpy"/>
			<input>
				<port id="0" precision="FP32">
					<dim>1</dim>
					<dim>24</dim>
					<dim>56</dim>
					<dim>56</dim>
				</port>
				<port id="1" precision="FP32">
					<dim>1</dim>
					<dim>24</dim>
					<dim>56</dim>
					<dim>56</dim>
				</port>
			</input>
			<output>
				<port id="2" precision="FP32" names="model_1/model/add/add:0">
					<dim>1</dim>
					<dim>24</dim>
					<dim>56</dim>
					<dim>56</dim>
				</port>
			</output>
		</layer>
		<layer id="44" name="Conv2D_6/filter" type="Const" version="opset1">
			<data element_type="f32" shape="144, 24, 1, 1" offset="52480" size="13824"/>
			<output>
				<port id="0" precision="FP32" names="Conv2D_6/filter:0">
					<dim>144</dim>
					<dim>24</dim>
					<dim>1</dim>
					<dim>1</dim>
				</port>
			</output>
		</layer>
		<layer id="45" name="Conv2D_6" type="Convolution" version="opset1">
			<data strides="1, 1" dilations="1, 1" pads_begin="0, 0" pads_end="0, 0" auto_pad="same_upper"/>
			<input>
				<port id="0" precision="FP32">
					<dim>1</dim>
					<dim>24</dim>
					<dim>56</dim>
					<dim>56</dim>
				</port>
				<port id="1" precision="FP32">
					<dim>144</dim>
					<dim>24</dim>
					<dim>1</dim>
					<dim>1</dim>
				</port>
			</input>
			<output>
				<port id="2" precision="FP32" names="Conv2D_6:0">
					<dim>1</dim>
					<dim>144</dim>
					<dim>56</dim>
					<dim>56</dim>
				</port>
			</output>
		</layer>
		<layer id="46" name="Add_6/y" type="Const" version="opset1">
			<data element_type="f32" shape="1, 144, 1, 1" offset="66304" size="576"/>
			<output>
				<port id="0" precision="FP32" names="Add_6/y:0">
					<dim>1</dim>
					<dim>144</dim>
					<dim>1</dim>
					<dim>1</dim>
				</port>
			</output>
		</layer>
		<layer id="47" name="Add_6" type="Add" version="opset1">
			<data auto_broadcast="numpy"/>
			<input>
				<port id="0" precision="FP32">
					<dim>1</dim>
					<dim>144</dim>
					<dim>56</dim>
					<dim>56</dim>
				</port>
				<port id="1" precision="FP32">
					<dim>1</dim>
					<dim>144</dim>
					<dim>1</dim>
					<dim>1</dim>
				</port>
			</input>
			<output>
				<port id="2" precision="FP32" names="Add_6:0">
					<dim>1</dim>
					<dim>144</dim>
					<dim>56</dim>
					<dim>56</dim>
				</port>
			</output>
		</layer>
		<layer id="48" name="model_1/model/re_lu_6/Relu6_model_1/model/batch_normalization_9/FusedBatchNormV3_model_1/model/batch_normalization_10/FusedBatchNormV3_model_1/model/depthwise_conv2d_3/depthwise_model_1/model/conv2d_6/Conv2D" type="Clamp" version="opset1">
			<data min="0" max="6"/>
			<input>
				<port id="0" precision="FP32">
					<dim>1</dim>
					<dim>144</dim>
					<dim>56</dim>
					<dim>56</dim>
				</port>
			</input>
			<output>
				<port id="1" precision="FP32" names="model_1/model/re_lu_6/Relu6_model_1/model/batch_normalization_9/FusedBatchNormV3_model_1/model/batch_normalization_10/FusedBatchNormV3_model_1/model/depthwise_conv2d_3/depthwise_model_1/model/conv2d_6/Conv2D:0">
					<dim>1</dim>
					<dim>144</dim>
					<dim>56</dim>
					<dim>56</dim>
				</port>
			</output>
		</layer>
		<layer id="49" name="depthwise_3/filter_in" type="Const" version="opset1">
			<data element_type="f32" shape="144, 1, 1, 5, 5" offset="66880" size="14400"/>
			<output>
				<port id="0" precision="FP32" names="depthwise_3/filter_in:0">
					<dim>144</dim>
					<dim>1</dim>
					<dim>1</dim>
					<dim>5</dim>
					<dim>5</dim>
				</port>
			</output>
		</layer>
		<layer id="50" name="depthwise_3" type="GroupConvolution" version="opset1">
			<data strides="2, 2" pads_begin="1, 1" pads_end="2, 2" dilations="1, 1" auto_pad="same_upper"/>
			<input>
				<port id="0" precision="FP32">
					<dim>1</dim>
					<dim>144</dim>
					<dim>56</dim>
					<dim>56</dim>
				</port>
				<port id="1" precision="FP32">
					<dim>144</dim>
					<dim>1</dim>
					<dim>1</dim>
					<dim>5</dim>
					<dim>5</dim>
				</port>
			</input>
			<output>
				<port id="2" precision="FP32" names="depthwise_3:0">
					<dim>1</dim>
					<dim>144</dim>
					<dim>28</dim>
					<dim>28</dim>
				</port>
			</output>
		</layer>
		<layer id="51" name="Add_7/y" type="Const" version="opset1">
			<data element_type="f32" shape="1, 144, 1, 1" offset="81280" size="576"/>
			<output>
				<port id="0" precision="FP32" names="Add_7/y:0">
					<dim>1</dim>
					<dim>144</dim>
					<dim>1</dim>
					<dim>1</dim>
				</port>
			</output>
		</layer>
		<layer id="52" name="Add_7" type="Add" version="opset1">
			<data auto_broadcast="numpy"/>
			<input>
				<port id="0" precision="FP32">
					<dim>1</dim>
					<dim>144</dim>
					<dim>28</dim>
					<dim>28</dim>
				</port>
				<port id="1" precision="FP32">
					<dim>1</dim>
					<dim>144</dim>
					<dim>1</dim>
					<dim>1</dim>
				</port>
			</input>
			<output>
				<port id="2" precision="FP32" names="Add_7:0">
					<dim>1</dim>
					<dim>144</dim>
					<dim>28</dim>
					<dim>28</dim>
				</port>
			</output>
		</layer>
		<layer id="53" name="model_1/model/re_lu_7/Relu6_model_1/model/batch_normalization_10/FusedBatchNormV3_model_1/model/depthwise_conv2d_3/depthwise" type="Clamp" version="opset1">
			<data min="0" max="6"/>
			<input>
				<port id="0" precision="FP32">
					<dim>1</dim>
					<dim>144</dim>
					<dim>28</dim>
					<dim>28</dim>
				</port>
			</input>
			<output>
				<port id="1" precision="FP32" names="model_1/model/re_lu_7/Relu6_model_1/model/batch_normalization_10/FusedBatchNormV3_model_1/model/depthwise_conv2d_3/depthwise:0">
					<dim>1</dim>
					<dim>144</dim>
					<dim>28</dim>
					<dim>28</dim>
				</port>
			</output>
		</layer>
		<layer id="54" name="Conv2D_7/filter" type="Const" version="opset1">
			<data element_type="f32" shape="40, 144, 1, 1" offset="81856" size="23040"/>
			<output>
				<port id="0" precision="FP32" names="Conv2D_7/filter:0">
					<dim>40</dim>
					<dim>144</dim>
					<dim>1</dim>
					<dim>1</dim>
				</port>
			</output>
		</layer>
		<layer id="55" name="Conv2D_7" type="Convolution" version="opset1">
			<data strides="1, 1" dilations="1, 1" pads_begin="0, 0" pads_end="0, 0" auto_pad="same_upper"/>
			<input>
				<port id="0" precision="FP32">
					<dim>1</dim>
					<dim>144</dim>
					<dim>28</dim>
					<dim>28</dim>
				</port>
				<port id="1" precision="FP32">
					<dim>40</dim>
					<dim>144</dim>
					<dim>1</dim>
					<dim>1</dim>
				</port>
			</input>
			<output>
				<port id="2" precision="FP32" names="Conv2D_7:0">
					<dim>1</dim>
					<dim>40</dim>
					<dim>28</dim>
					<dim>28</dim>
				</port>
			</output>
		</layer>
		<layer id="56" name="model_1/model/batch_normalization_11/FusedBatchNormV3_model_1/model/conv2d_9/Conv2D_model_1/model/conv2d_7/Conv2D1/y" type="Const" version="opset1">
			<data element_type="f32" shape="1, 40, 1, 1" offset="104896" size="160"/>
			<output>
				<port id="0" precision="FP32" names="model_1/model/batch_normalization_11/FusedBatchNormV3_model_1/model/conv2d_9/Conv2D_model_1/model/conv2d_7/Conv2D1/y:0">
					<dim>1</dim>
					<dim>40</dim>
					<dim>1</dim>
					<dim>1</dim>
				</port>
			</output>
		</layer>
		<layer id="57" name="model_1/model/batch_normalization_11/FusedBatchNormV3_model_1/model/conv2d_9/Conv2D_model_1/model/conv2d_7/Conv2D1" type="Add" version="opset1">
			<data auto_broadcast="numpy"/>
			<input>
				<port id="0" precision="FP32">
					<dim>1</dim>
					<dim>40</dim>
					<dim>28</dim>
					<dim>28</dim>
				</port>
				<port id="1" precision="FP32">
					<dim>1</dim>
					<dim>40</dim>
					<dim>1</dim>
					<dim>1</dim>
				</port>
			</input>
			<output>
				<port id="2" precision="FP32" names="model_1/model/batch_normalization_11/FusedBatchNormV3_model_1/model/conv2d_9/Conv2D_model_1/model/conv2d_7/Conv2D1:0">
					<dim>1</dim>
					<dim>40</dim>
					<dim>28</dim>
					<dim>28</dim>
				</port>
			</output>
		</layer>
		<layer id="58" name="Conv2D_8/filter" type="Const" version="opset1">
			<data element_type="f32" shape="240, 40, 1, 1" offset="105056" size="38400"/>
			<output>
				<port id="0" precision="FP32" names="Conv2D_8/filter:0">
					<dim>240</dim>
					<dim>40</dim>
					<dim>1</dim>
					<dim>1</dim>
				</port>
			</output>
		</layer>
		<layer id="59" name="Conv2D_8" type="Convolution" version="opset1">
			<data strides="1, 1" dilations="1, 1" pads_begin="0, 0" pads_end="0, 0" auto_pad="same_upper"/>
			<input>
				<port id="0" precision="FP32">
					<dim>1</dim>
					<dim>40</dim>
					<dim>28</dim>
					<dim>28</dim>
				</port>
				<port id="1" precision="FP32">
					<dim>240</dim>
					<dim>40</dim>
					<dim>1</dim>
					<dim>1</dim>
				</port>
			</input>
			<output>
				<port id="2" precision="FP32" names="Conv2D_8:0">
					<dim>1</dim>
					<dim>240</dim>
					<dim>28</dim>
					<dim>28</dim>
				</port>
			</output>
		</layer>
		<layer id="60" name="Add_8/y" type="Const" version="opset1">
			<data element_type="f32" shape="1, 240, 1, 1" offset="143456" size="960"/>
			<output>
				<port id="0" precision="FP32" names="Add_8/y:0">
					<dim>1</dim>
					<dim>240</dim>
					<dim>1</dim>
					<dim>1</dim>
				</port>
			</output>
		</layer>
		<layer id="61" name="Add_8" type="Add" version="opset1">
			<data auto_broadcast="numpy"/>
			<input>
				<port id="0" precision="FP32">
					<dim>1</dim>
					<dim>240</dim>
					<dim>28</dim>
					<dim>28</dim>
				</port>
				<port id="1" precision="FP32">
					<dim>1</dim>
					<dim>240</dim>
					<dim>1</dim>
					<dim>1</dim>
				</port>
			</input>
			<output>
				<port id="2" precision="FP32" names="Add_8:0">
					<dim>1</dim>
					<dim>240</dim>
					<dim>28</dim>
					<dim>28</dim>
				</port>
			</output>
		</layer>
		<layer id="62" name="model_1/model/re_lu_8/Relu6_model_1/model/batch_normalization_12/FusedBatchNormV3_model_1/model/batch_normalization_16/FusedBatchNormV3_model_1/model/depthwise_conv2d_5/depthwise_model_1/model/conv2d_8/Conv2D" type="Clamp" version="opset1">
			<data min="0" max="6"/>
			<input>
				<port id="0" precision="FP32">
					<dim>1</dim>
					<dim>240</dim>
					<dim>28</dim>
					<dim>28</dim>
				</port>
			</input>
			<output>
				<port id="1" precision="FP32" names="model_1/model/re_lu_8/Relu6_model_1/model/batch_normalization_12/FusedBatchNormV3_model_1/model/batch_normalization_16/FusedBatchNormV3_model_1/model/depthwise_conv2d_5/depthwise_model_1/model/conv2d_8/Conv2D:0">
					<dim>1</dim>
					<dim>240</dim>
					<dim>28</dim>
					<dim>28</dim>
				</port>
			</output>
		</layer>
		<layer id="63" name="depthwise_4/filter_in" type="Const" version="opset1">
			<data element_type="f32" shape="240, 1, 1, 5, 5" offset="144416" size="24000"/>
			<output>
				<port id="0" precision="FP32" names="depthwise_4/filter_in:0">
					<dim>240</dim>
					<dim>1</dim>
					<dim>1</dim>
					<dim>5</dim>
					<dim>5</dim>
				</port>
			</output>
		</layer>
		<layer id="64" name="depthwise_4" type="GroupConvolution" version="opset1">
			<data strides="1, 1" pads_begin="2, 2" pads_end="2, 2" dilations="1, 1" auto_pad="same_upper"/>
			<input>
				<port id="0" precision="FP32">
					<dim>1</dim>
					<dim>240</dim>
					<dim>28</dim>
					<dim>28</dim>
				</port>
				<port id="1" precision="FP32">
					<dim>240</dim>
					<dim>1</dim>
					<dim>1</dim>
					<dim>5</dim>
					<dim>5</dim>
				</port>
			</input>
			<output>
				<port id="2" precision="FP32" names="depthwise_4:0">
					<dim>1</dim>
					<dim>240</dim>
					<dim>28</dim>
					<dim>28</dim>
				</port>
			</output>
		</layer>
		<layer id="65" name="Add_9/y" type="Const" version="opset1">
			<data element_type="f32" shape="1, 240, 1, 1" offset="168416" size="960"/>
			<output>
				<port id="0" precision="FP32" names="Add_9/y:0">
					<dim>1</dim>
					<dim>240</dim>
					<dim>1</dim>
					<dim>1</dim>
				</port>
			</output>
		</layer>
		<layer id="66" name="Add_9" type="Add" version="opset1">
			<data auto_broadcast="numpy"/>
			<input>
				<port id="0" precision="FP32">
					<dim>1</dim>
					<dim>240</dim>
					<dim>28</dim>
					<dim>28</dim>
				</port>
				<port id="1" precision="FP32">
					<dim>1</dim>
					<dim>240</dim>
					<dim>1</dim>
					<dim>1</dim>
				</port>
			</input>
			<output>
				<port id="2" precision="FP32" names="Add_9:0">
					<dim>1</dim>
					<dim>240</dim>
					<dim>28</dim>
					<dim>28</dim>
				</port>
			</output>
		</layer>
		<layer id="67" name="model_1/model/re_lu_9/Relu6_model_1/model/batch_normalization_13/FusedBatchNormV3_model_1/model/batch_normalization_16/FusedBatchNormV3_model_1/model/depthwise_conv2d_5/depthwise_model_1/model/depthwise_conv2d_4/depthwise" type="Clamp" version="opset1">
			<data min="0" max="6"/>
			<input>
				<port id="0" precision="FP32">
					<dim>1</dim>
					<dim>240</dim>
					<dim>28</dim>
					<dim>28</dim>
				</port>
			</input>
			<output>
				<port id="1" precision="FP32" names="model_1/model/re_lu_9/Relu6_model_1/model/batch_normalization_13/FusedBatchNormV3_model_1/model/batch_normalization_16/FusedBatchNormV3_model_1/model/depthwise_conv2d_5/depthwise_model_1/model/depthwise_conv2d_4/depthwise:0">
					<dim>1</dim>
					<dim>240</dim>
					<dim>28</dim>
					<dim>28</dim>
				</port>
			</output>
		</layer>
		<layer id="68" name="Conv2D_9/filter" type="Const" version="opset1">
			<data element_type="f32" shape="40, 240, 1, 1" offset="169376" size="38400"/>
			<output>
				<port id="0" precision="FP32" names="Conv2D_9/filter:0">
					<dim>40</dim>
					<dim>240</dim>
					<dim>1</dim>
					<dim>1</dim>
				</port>
			</output>
		</layer>
		<layer id="69" name="Conv2D_9" type="Convolution" version="opset1">
			<data strides="1, 1" dilations="1, 1" pads_begin="0, 0" pads_end="0, 0" auto_pad="same_upper"/>
			<input>
				<port id="0" precision="FP32">
					<dim>1</dim>
					<dim>240</dim>
					<dim>28</dim>
					<dim>28</dim>
				</port>
				<port id="1" precision="FP32">
					<dim>40</dim>
					<dim>240</dim>
					<dim>1</dim>
					<dim>1</dim>
				</port>
			</input>
			<output>
				<port id="2" precision="FP32" names="Conv2D_9:0">
					<dim>1</dim>
					<dim>40</dim>
					<dim>28</dim>
					<dim>28</dim>
				</port>
			</output>
		</layer>
		<layer id="70" name="model_1/model/batch_normalization_14/FusedBatchNormV3_model_1/model/conv2d_9/Conv2D1/y" type="Const" version="opset1">
			<data element_type="f32" shape="1, 40, 1, 1" offset="207776" size="160"/>
			<output>
				<port id="0" precision="FP32" names="model_1/model/batch_normalization_14/FusedBatchNormV3_model_1/model/conv2d_9/Conv2D1/y:0">
					<dim>1</dim>
					<dim>40</dim>
					<dim>1</dim>
					<dim>1</dim>
				</port>
			</output>
		</layer>
		<layer id="71" name="model_1/model/batch_normalization_14/FusedBatchNormV3_model_1/model/conv2d_9/Conv2D1" type="Add" version="opset1">
			<data auto_broadcast="numpy"/>
			<input>
				<port id="0" precision="FP32">
					<dim>1</dim>
					<dim>40</dim>
					<dim>28</dim>
					<dim>28</dim>
				</port>
				<port id="1" precision="FP32">
					<dim>1</dim>
					<dim>40</dim>
					<dim>1</dim>
					<dim>1</dim>
				</port>
			</input>
			<output>
				<port id="2" precision="FP32" names="model_1/model/batch_normalization_14/FusedBatchNormV3_model_1/model/conv2d_9/Conv2D1:0">
					<dim>1</dim>
					<dim>40</dim>
					<dim>28</dim>
					<dim>28</dim>
				</port>
			</output>
		</layer>
		<layer id="72" name="model_1/model/add_1/add" type="Add" version="opset1">
			<data auto_broadcast="numpy"/>
			<input>
				<port id="0" precision="FP32">
					<dim>1</dim>
					<dim>40</dim>
					<dim>28</dim>
					<dim>28</dim>
				</port>
				<port id="1" precision="FP32">
					<dim>1</dim>
					<dim>40</dim>
					<dim>28</dim>
					<dim>28</dim>
				</port>
			</input>
			<output>
				<port id="2" precision="FP32" names="model_1/model/add_1/add:0">
					<dim>1</dim>
					<dim>40</dim>
					<dim>28</dim>
					<dim>28</dim>
				</port>
			</output>
		</layer>
		<layer id="73" name="Conv2D_10/filter" type="Const" version="opset1">
			<data element_type="f32" shape="240, 40, 1, 1" offset="207936" size="38400"/>
			<output>
				<port id="0" precision="FP32" names="Conv2D_10/filter:0">
					<dim>240</dim>
					<dim>40</dim>
					<dim>1</dim>
					<dim>1</dim>
				</port>
			</output>
		</layer>
		<layer id="74" name="Conv2D_10" type="Convolution" version="opset1">
			<data strides="1, 1" dilations="1, 1" pads_begin="0, 0" pads_end="0, 0" auto_pad="same_upper"/>
			<input>
				<port id="0" precision="FP32">
					<dim>1</dim>
					<dim>40</dim>
					<dim>28</dim>
					<dim>28</dim>
				</port>
				<port id="1" precision="FP32">
					<dim>240</dim>
					<dim>40</dim>
					<dim>1</dim>
					<dim>1</dim>
				</port>
			</input>
			<output>
				<port id="2" precision="FP32" names="Conv2D_10:0">
					<dim>1</dim>
					<dim>240</dim>
					<dim>28</dim>
					<dim>28</dim>
				</port>
			</output>
		</layer>
		<layer id="75" name="Add_10/y" type="Const" version="opset1">
			<data element_type="f32" shape="1, 240, 1, 1" offset="246336" size="960"/>
			<output>
				<port id="0" precision="FP32" names="Add_10/y:0">
					<dim>1</dim>
					<dim>240</dim>
					<dim>1</dim>
					<dim>1</dim>
				</port>
			</output>
		</layer>
		<layer id="76" name="Add_10" type="Add" version="opset1">
			<data auto_broadcast="numpy"/>
			<input>
				<port id="0" precision="FP32">
					<dim>1</dim>
					<dim>240</dim>
					<dim>28</dim>
					<dim>28</dim>
				</port>
				<port id="1" precision="FP32">
					<dim>1</dim>
					<dim>240</dim>
					<dim>1</dim>
					<dim>1</dim>
				</port>
			</input>
			<output>
				<port id="2" precision="FP32" names="Add_10:0">
					<dim>1</dim>
					<dim>240</dim>
					<dim>28</dim>
					<dim>28</dim>
				</port>
			</output>
		</layer>
		<layer id="77" name="model_1/model/re_lu_10/Relu6_model_1/model/batch_normalization_15/FusedBatchNormV3_model_1/model/batch_normalization_16/FusedBatchNormV3_model_1/model/depthwise_conv2d_5/depthwise_model_1/model/conv2d_10/Conv2D" type="Clamp" version="opset1">
			<data min="0" max="6"/>
			<input>
				<port id="0" precision="FP32">
					<dim>1</dim>
					<dim>240</dim>
					<dim>28</dim>
					<dim>28</dim>
				</port>
			</input>
			<output>
				<port id="1" precision="FP32" names="model_1/model/re_lu_10/Relu6_model_1/model/batch_normalization_15/FusedBatchNormV3_model_1/model/batch_normalization_16/FusedBatchNormV3_model_1/model/depthwise_conv2d_5/depthwise_model_1/model/conv2d_10/Conv2D:0">
					<dim>1</dim>
					<dim>240</dim>
					<dim>28</dim>
					<dim>28</dim>
				</port>
			</output>
		</layer>
		<layer id="78" name="depthwise_5/filter_in" type="Const" version="opset1">
			<data element_type="f32" shape="240, 1, 1, 3, 3" offset="247296" size="8640"/>
			<output>
				<port id="0" precision="FP32" names="depthwise_5/filter_in:0">
					<dim>240</dim>
					<dim>1</dim>
					<dim>1</dim>
					<dim>3</dim>
					<dim>3</dim>
				</port>
			</output>
		</layer>
		<layer id="79" name="depthwise_5" type="GroupConvolution" version="opset1">
			<data strides="2, 2" pads_begin="0, 0" pads_end="1, 1" dilations="1, 1" auto_pad="same_upper"/>
			<input>
				<port id="0" precision="FP32">
					<dim>1</dim>
					<dim>240</dim>
					<dim>28</dim>
					<dim>28</dim>
				</port>
				<port id="1" precision="FP32">
					<dim>240</dim>
					<dim>1</dim>
					<dim>1</dim>
					<dim>3</dim>
					<dim>3</dim>
				</port>
			</input>
			<output>
				<port id="2" precision="FP32" names="depthwise_5:0">
					<dim>1</dim>
					<dim>240</dim>
					<dim>14</dim>
					<dim>14</dim>
				</port>
			</output>
		</layer>
		<layer id="80" name="Add_11/y" type="Const" version="opset1">
			<data element_type="f32" shape="1, 240, 1, 1" offset="255936" size="960"/>
			<output>
				<port id="0" precision="FP32" names="Add_11/y:0">
					<dim>1</dim>
					<dim>240</dim>
					<dim>1</dim>
					<dim>1</dim>
				</port>
			</output>
		</layer>
		<layer id="81" name="Add_11" type="Add" version="opset1">
			<data auto_broadcast="numpy"/>
			<input>
				<port id="0" precision="FP32">
					<dim>1</dim>
					<dim>240</dim>
					<dim>14</dim>
					<dim>14</dim>
				</port>
				<port id="1" precision="FP32">
					<dim>1</dim>
					<dim>240</dim>
					<dim>1</dim>
					<dim>1</dim>
				</port>
			</input>
			<output>
				<port id="2" precision="FP32" names="Add_11:0">
					<dim>1</dim>
					<dim>240</dim>
					<dim>14</dim>
					<dim>14</dim>
				</port>
			</output>
		</layer>
		<layer id="82" name="model_1/model/re_lu_11/Relu6_model_1/model/batch_normalization_16/FusedBatchNormV3_model_1/model/depthwise_conv2d_5/depthwise" type="Clamp" version="opset1">
			<data min="0" max="6"/>
			<input>
				<port id="0" precision="FP32">
					<dim>1</dim>
					<dim>240</dim>
					<dim>14</dim>
					<dim>14</dim>
				</port>
			</input>
			<output>
				<port id="1" precision="FP32" names="model_1/model/re_lu_11/Relu6_model_1/model/batch_normalization_16/FusedBatchNormV3_model_1/model/depthwise_conv2d_5/depthwise:0">
					<dim>1</dim>
					<dim>240</dim>
					<dim>14</dim>
					<dim>14</dim>
				</port>
			</output>
		</layer>
		<layer id="83" name="Conv2D_11/filter" type="Const" version="opset1">
			<data element_type="f32" shape="80, 240, 1, 1" offset="256896" size="76800"/>
			<output>
				<port id="0" precision="FP32" names="Conv2D_11/filter:0">
					<dim>80</dim>
					<dim>240</dim>
					<dim>1</dim>
					<dim>1</dim>
				</port>
			</output>
		</layer>
		<layer id="84" name="Conv2D_11" type="Convolution" version="opset1">
			<data strides="1, 1" dilations="1, 1" pads_begin="0, 0" pads_end="0, 0" auto_pad="same_upper"/>
			<input>
				<port id="0" precision="FP32">
					<dim>1</dim>
					<dim>240</dim>
					<dim>14</dim>
					<dim>14</dim>
				</port>
				<port id="1" precision="FP32">
					<dim>80</dim>
					<dim>240</dim>
					<dim>1</dim>
					<dim>1</dim>
				</port>
			</input>
			<output>
				<port id="2" precision="FP32" names="Conv2D_11:0">
					<dim>1</dim>
					<dim>80</dim>
					<dim>14</dim>
					<dim>14</dim>
				</port>
			</output>
		</layer>
		<layer id="85" name="model_1/model/batch_normalization_17/FusedBatchNormV3_model_1/model/conv2d_15/Conv2D_model_1/model/conv2d_11/Conv2D1/y" type="Const" version="opset1">
			<data element_type="f32" shape="1, 80, 1, 1" offset="333696" size="320"/>
			<output>
				<port id="0" precision="FP32" names="model_1/model/batch_normalization_17/FusedBatchNormV3_model_1/model/conv2d_15/Conv2D_model_1/model/conv2d_11/Conv2D1/y:0">
					<dim>1</dim>
					<dim>80</dim>
					<dim>1</dim>
					<dim>1</dim>
				</port>
			</output>
		</layer>
		<layer id="86" name="model_1/model/batch_normalization_17/FusedBatchNormV3_model_1/model/conv2d_15/Conv2D_model_1/model/conv2d_11/Conv2D1" type="Add" version="opset1">
			<data auto_broadcast="numpy"/>
			<input>
				<port id="0" precision="FP32">
					<dim>1</dim>
					<dim>80</dim>
					<dim>14</dim>
					<dim>14</dim>
				</port>
				<port id="1" precision="FP32">
					<dim>1</dim>
					<dim>80</dim>
					<dim>1</dim>
					<dim>1</dim>
				</port>
			</input>
			<output>
				<port id="2" precision="FP32" names="model_1/model/batch_normalization_17/FusedBatchNormV3_model_1/model/conv2d_15/Conv2D_model_1/model/conv2d_11/Conv2D1:0">
					<dim>1</dim>
					<dim>80</dim>
					<dim>14</dim>
					<dim>14</dim>
				</port>
			</output>
		</layer>
		<layer id="87" name="Conv2D_12/filter" type="Const" version="opset1">
			<data element_type="f32" shape="480, 80, 1, 1" offset="334016" size="153600"/>
			<output>
				<port id="0" precision="FP32" names="Conv2D_12/filter:0">
					<dim>480</dim>
					<dim>80</dim>
					<dim>1</dim>
					<dim>1</dim>
				</port>
			</output>
		</layer>
		<layer id="88" name="Conv2D_12" type="Convolution" version="opset1">
			<data strides="1, 1" dilations="1, 1" pads_begin="0, 0" pads_end="0, 0" auto_pad="same_upper"/>
			<input>
				<port id="0" precision="FP32">
					<dim>1</dim>
					<dim>80</dim>
					<dim>14</dim>
					<dim>14</dim>
				</port>
				<port id="1" precision="FP32">
					<dim>480</dim>
					<dim>80</dim>
					<dim>1</dim>
					<dim>1</dim>
				</port>
			</input>
			<output>
				<port id="2" precision="FP32" names="Conv2D_12:0">
					<dim>1</dim>
					<dim>480</dim>
					<dim>14</dim>
					<dim>14</dim>
				</port>
			</output>
		</layer>
		<layer id="89" name="Add_12/y" type="Const" version="opset1">
			<data element_type="f32" shape="1, 480, 1, 1" offset="487616" size="1920"/>
			<output>
				<port id="0" precision="FP32" names="Add_12/y:0">
					<dim>1</dim>
					<dim>480</dim>
					<dim>1</dim>
					<dim>1</dim>
				</port>
			</output>
		</layer>
		<layer id="90" name="Add_12" type="Add" version="opset1">
			<data auto_broadcast="numpy"/>
			<input>
				<port id="0" precision="FP32">
					<dim>1</dim>
					<dim>480</dim>
					<dim>14</dim>
					<dim>14</dim>
				</port>
				<port id="1" precision="FP32">
					<dim>1</dim>
					<dim>480</dim>
					<dim>1</dim>
					<dim>1</dim>
				</port>
			</input>
			<output>
				<port id="2" precision="FP32" names="Add_12:0">
					<dim>1</dim>
					<dim>480</dim>
					<dim>14</dim>
					<dim>14</dim>
				</port>
			</output>
		</layer>
		<layer id="91" name="model_1/model/re_lu_12/Relu6_model_1/model/batch_normalization_18/FusedBatchNormV3_model_1/model/batch_normalization_25/FusedBatchNormV3_model_1/model/depthwise_conv2d_8/depthwise_model_1/model/conv2d_12/Conv2D" type="Clamp" version="opset1">
			<data min="0" max="6"/>
			<input>
				<port id="0" precision="FP32">
					<dim>1</dim>
					<dim>480</dim>
					<dim>14</dim>
					<dim>14</dim>
				</port>
			</input>
			<output>
				<port id="1" precision="FP32" names="model_1/model/re_lu_12/Relu6_model_1/model/batch_normalization_18/FusedBatchNormV3_model_1/model/batch_normalization_25/FusedBatchNormV3_model_1/model/depthwise_conv2d_8/depthwise_model_1/model/conv2d_12/Conv2D:0">
					<dim>1</dim>
					<dim>480</dim>
					<dim>14</dim>
					<dim>14</dim>
				</port>
			</output>
		</layer>
		<layer id="92" name="depthwise_6/filter_in" type="Const" version="opset1">
			<data element_type="f32" shape="480, 1, 1, 3, 3" offset="489536" size="17280"/>
			<output>
				<port id="0" precision="FP32" names="depthwise_6/filter_in:0">
					<dim>480</dim>
					<dim>1</dim>
					<dim>1</dim>
					<dim>3</dim>
					<dim>3</dim>
				</port>
			</output>
		</layer>
		<layer id="93" name="depthwise_6" type="GroupConvolution" version="opset1">
			<data strides="1, 1" pads_begin="1, 1" pads_end="1, 1" dilations="1, 1" auto_pad="same_upper"/>
			<input>
				<port id="0" precision="FP32">
					<dim>1</dim>
					<dim>480</dim>
					<dim>14</dim>
					<dim>14</dim>
				</port>
				<port id="1" precision="FP32">
					<dim>480</dim>
					<dim>1</dim>
					<dim>1</dim>
					<dim>3</dim>
					<dim>3</dim>
				</port>
			</input>
			<output>
				<port id="2" precision="FP32" names="depthwise_6:0">
					<dim>1</dim>
					<dim>480</dim>
					<dim>14</dim>
					<dim>14</dim>
				</port>
			</output>
		</layer>
		<layer id="94" name="Add_13/y" type="Const" version="opset1">
			<data element_type="f32" shape="1, 480, 1, 1" offset="506816" size="1920"/>
			<output>
				<port id="0" precision="FP32" names="Add_13/y:0">
					<dim>1</dim>
					<dim>480</dim>
					<dim>1</dim>
					<dim>1</dim>
				</port>
			</output>
		</layer>
		<layer id="95" name="Add_13" type="Add" version="opset1">
			<data auto_broadcast="numpy"/>
			<input>
				<port id="0" precision="FP32">
					<dim>1</dim>
					<dim>480</dim>
					<dim>14</dim>
					<dim>14</dim>
				</port>
				<port id="1" precision="FP32">
					<dim>1</dim>
					<dim>480</dim>
					<dim>1</dim>
					<dim>1</dim>
				</port>
			</input>
			<output>
				<port id="2" precision="FP32" names="Add_13:0">
					<dim>1</dim>
					<dim>480</dim>
					<dim>14</dim>
					<dim>14</dim>
				</port>
			</output>
		</layer>
		<layer id="96" name="model_1/model/re_lu_13/Relu6_model_1/model/batch_normalization_19/FusedBatchNormV3_model_1/model/batch_normalization_25/FusedBatchNormV3_model_1/model/depthwise_conv2d_8/depthwise_model_1/model/depthwise_conv2d_6/depthwise" type="Clamp" version="opset1">
			<data min="0" max="6"/>
			<input>
				<port id="0" precision="FP32">
					<dim>1</dim>
					<dim>480</dim>
					<dim>14</dim>
					<dim>14</dim>
				</port>
			</input>
			<output>
				<port id="1" precision="FP32" names="model_1/model/re_lu_13/Relu6_model_1/model/batch_normalization_19/FusedBatchNormV3_model_1/model/batch_normalization_25/FusedBatchNormV3_model_1/model/depthwise_conv2d_8/depthwise_model_1/model/depthwise_conv2d_6/depthwise:0">
					<dim>1</dim>
					<dim>480</dim>
					<dim>14</dim>
					<dim>14</dim>
				</port>
			</output>
		</layer>
		<layer id="97" name="Conv2D_13/filter" type="Const" version="opset1">
			<data element_type="f32" shape="80, 480, 1, 1" offset="508736" size="153600"/>
			<output>
				<port id="0" precision="FP32" names="Conv2D_13/filter:0">
					<dim>80</dim>
					<dim>480</dim>
					<dim>1</dim>
					<dim>1</dim>
				</port>
			</output>
		</layer>
		<layer id="98" name="Conv2D_13" type="Convolution" version="opset1">
			<data strides="1, 1" dilations="1, 1" pads_begin="0, 0" pads_end="0, 0" auto_pad="same_upper"/>
			<input>
				<port id="0" precision="FP32">
					<dim>1</dim>
					<dim>480</dim>
					<dim>14</dim>
					<dim>14</dim>
				</port>
				<port id="1" precision="FP32">
					<dim>80</dim>
					<dim>480</dim>
					<dim>1</dim>
					<dim>1</dim>
				</port>
			</input>
			<output>
				<port id="2" precision="FP32" names="Conv2D_13:0">
					<dim>1</dim>
					<dim>80</dim>
					<dim>14</dim>
					<dim>14</dim>
				</port>
			</output>
		</layer>
		<layer id="99" name="model_1/model/batch_normalization_20/FusedBatchNormV3_model_1/model/conv2d_15/Conv2D_model_1/model/conv2d_13/Conv2D1/y" type="Const" version="opset1">
			<data element_type="f32" shape="1, 80, 1, 1" offset="662336" size="320"/>
			<output>
				<port id="0" precision="FP32" names="model_1/model/batch_normalization_20/FusedBatchNormV3_model_1/model/conv2d_15/Conv2D_model_1/model/conv2d_13/Conv2D1/y:0">
					<dim>1</dim>
					<dim>80</dim>
					<dim>1</dim>
					<dim>1</dim>
				</port>
			</output>
		</layer>
		<layer id="100" name="model_1/model/batch_normalization_20/FusedBatchNormV3_model_1/model/conv2d_15/Conv2D_model_1/model/conv2d_13/Conv2D1" type="Add" version="opset1">
			<data auto_broadcast="numpy"/>
			<input>
				<port id="0" precision="FP32">
					<dim>1</dim>
					<dim>80</dim>
					<dim>14</dim>
					<dim>14</dim>
				</port>
				<port id="1" precision="FP32">
					<dim>1</dim>
					<dim>80</dim>
					<dim>1</dim>
					<dim>1</dim>
				</port>
			</input>
			<output>
				<port id="2" precision="FP32" names="model_1/model/batch_normalization_20/FusedBatchNormV3_model_1/model/conv2d_15/Conv2D_model_1/model/conv2d_13/Conv2D1:0">
					<dim>1</dim>
					<dim>80</dim>
					<dim>14</dim>
					<dim>14</dim>
				</port>
			</output>
		</layer>
		<layer id="101" name="model_1/model/add_2/add" type="Add" version="opset1">
			<data auto_broadcast="numpy"/>
			<input>
				<port id="0" precision="FP32">
					<dim>1</dim>
					<dim>80</dim>
					<dim>14</dim>
					<dim>14</dim>
				</port>
				<port id="1" precision="FP32">
					<dim>1</dim>
					<dim>80</dim>
					<dim>14</dim>
					<dim>14</dim>
				</port>
			</input>
			<output>
				<port id="2" precision="FP32" names="model_1/model/add_2/add:0">
					<dim>1</dim>
					<dim>80</dim>
					<dim>14</dim>
					<dim>14</dim>
				</port>
			</output>
		</layer>
		<layer id="102" name="Conv2D_14/filter" type="Const" version="opset1">
			<data element_type="f32" shape="480, 80, 1, 1" offset="662656" size="153600"/>
			<output>
				<port id="0" precision="FP32" names="Conv2D_14/filter:0">
					<dim>480</dim>
					<dim>80</dim>
					<dim>1</dim>
					<dim>1</dim>
				</port>
			</output>
		</layer>
		<layer id="103" name="Conv2D_14" type="Convolution" version="opset1">
			<data strides="1, 1" dilations="1, 1" pads_begin="0, 0" pads_end="0, 0" auto_pad="same_upper"/>
			<input>
				<port id="0" precision="FP32">
					<dim>1</dim>
					<dim>80</dim>
					<dim>14</dim>
					<dim>14</dim>
				</port>
				<port id="1" precision="FP32">
					<dim>480</dim>
					<dim>80</dim>
					<dim>1</dim>
					<dim>1</dim>
				</port>
			</input>
			<output>
				<port id="2" precision="FP32" names="Conv2D_14:0">
					<dim>1</dim>
					<dim>480</dim>
					<dim>14</dim>
					<dim>14</dim>
				</port>
			</output>
		</layer>
		<layer id="104" name="Add_14/y" type="Const" version="opset1">
			<data element_type="f32" shape="1, 480, 1, 1" offset="816256" size="1920"/>
			<output>
				<port id="0" precision="FP32" names="Add_14/y:0">
					<dim>1</dim>
					<dim>480</dim>
					<dim>1</dim>
					<dim>1</dim>
				</port>
			</output>
		</layer>
		<layer id="105" name="Add_14" type="Add" version="opset1">
			<data auto_broadcast="numpy"/>
			<input>
				<port id="0" precision="FP32">
					<dim>1</dim>
					<dim>480</dim>
					<dim>14</dim>
					<dim>14</dim>
				</port>
				<port id="1" precision="FP32">
					<dim>1</dim>
					<dim>480</dim>
					<dim>1</dim>
					<dim>1</dim>
				</port>
			</input>
			<output>
				<port id="2" precision="FP32" names="Add_14:0">
					<dim>1</dim>
					<dim>480</dim>
					<dim>14</dim>
					<dim>14</dim>
				</port>
			</output>
		</layer>
		<layer id="106" name="model_1/model/re_lu_14/Relu6_model_1/model/batch_normalization_21/FusedBatchNormV3_model_1/model/batch_normalization_25/FusedBatchNormV3_model_1/model/depthwise_conv2d_8/depthwise_model_1/model/conv2d_14/Conv2D" type="Clamp" version="opset1">
			<data min="0" max="6"/>
			<input>
				<port id="0" precision="FP32">
					<dim>1</dim>
					<dim>480</dim>
					<dim>14</dim>
					<dim>14</dim>
				</port>
			</input>
			<output>
				<port id="1" precision="FP32" names="model_1/model/re_lu_14/Relu6_model_1/model/batch_normalization_21/FusedBatchNormV3_model_1/model/batch_normalization_25/FusedBatchNormV3_model_1/model/depthwise_conv2d_8/depthwise_model_1/model/conv2d_14/Conv2D:0">
					<dim>1</dim>
					<dim>480</dim>
					<dim>14</dim>
					<dim>14</dim>
				</port>
			</output>
		</layer>
		<layer id="107" name="depthwise_7/filter_in" type="Const" version="opset1">
			<data element_type="f32" shape="480, 1, 1, 3, 3" offset="818176" size="17280"/>
			<output>
				<port id="0" precision="FP32" names="depthwise_7/filter_in:0">
					<dim>480</dim>
					<dim>1</dim>
					<dim>1</dim>
					<dim>3</dim>
					<dim>3</dim>
				</port>
			</output>
		</layer>
		<layer id="108" name="depthwise_7" type="GroupConvolution" version="opset1">
			<data strides="1, 1" pads_begin="1, 1" pads_end="1, 1" dilations="1, 1" auto_pad="same_upper"/>
			<input>
				<port id="0" precision="FP32">
					<dim>1</dim>
					<dim>480</dim>
					<dim>14</dim>
					<dim>14</dim>
				</port>
				<port id="1" precision="FP32">
					<dim>480</dim>
					<dim>1</dim>
					<dim>1</dim>
					<dim>3</dim>
					<dim>3</dim>
				</port>
			</input>
			<output>
				<port id="2" precision="FP32" names="depthwise_7:0">
					<dim>1</dim>
					<dim>480</dim>
					<dim>14</dim>
					<dim>14</dim>
				</port>
			</output>
		</layer>
		<layer id="109" name="Add_15/y" type="Const" version="opset1">
			<data element_type="f32" shape="1, 480, 1, 1" offset="835456" size="1920"/>
			<output>
				<port id="0" precision="FP32" names="Add_15/y:0">
					<dim>1</dim>
					<dim>480</dim>
					<dim>1</dim>
					<dim>1</dim>
				</port>
			</output>
		</layer>
		<layer id="110" name="Add_15" type="Add" version="opset1">
			<data auto_broadcast="numpy"/>
			<input>
				<port id="0" precision="FP32">
					<dim>1</dim>
					<dim>480</dim>
					<dim>14</dim>
					<dim>14</dim>
				</port>
				<port id="1" precision="FP32">
					<dim>1</dim>
					<dim>480</dim>
					<dim>1</dim>
					<dim>1</dim>
				</port>
			</input>
			<output>
				<port id="2" precision="FP32" names="Add_15:0">
					<dim>1</dim>
					<dim>480</dim>
					<dim>14</dim>
					<dim>14</dim>
				</port>
			</output>
		</layer>
		<layer id="111" name="model_1/model/re_lu_15/Relu6_model_1/model/batch_normalization_22/FusedBatchNormV3_model_1/model/batch_normalization_25/FusedBatchNormV3_model_1/model/depthwise_conv2d_8/depthwise_model_1/model/depthwise_conv2d_7/depthwise" type="Clamp" version="opset1">
			<data min="0" max="6"/>
			<input>
				<port id="0" precision="FP32">
					<dim>1</dim>
					<dim>480</dim>
					<dim>14</dim>
					<dim>14</dim>
				</port>
			</input>
			<output>
				<port id="1" precision="FP32" names="model_1/model/re_lu_15/Relu6_model_1/model/batch_normalization_22/FusedBatchNormV3_model_1/model/batch_normalization_25/FusedBatchNormV3_model_1/model/depthwise_conv2d_8/depthwise_model_1/model/depthwise_conv2d_7/depthwise:0">
					<dim>1</dim>
					<dim>480</dim>
					<dim>14</dim>
					<dim>14</dim>
				</port>
			</output>
		</layer>
		<layer id="112" name="Conv2D_15/filter" type="Const" version="opset1">
			<data element_type="f32" shape="80, 480, 1, 1" offset="837376" size="153600"/>
			<output>
				<port id="0" precision="FP32" names="Conv2D_15/filter:0">
					<dim>80</dim>
					<dim>480</dim>
					<dim>1</dim>
					<dim>1</dim>
				</port>
			</output>
		</layer>
		<layer id="113" name="Conv2D_15" type="Convolution" version="opset1">
			<data strides="1, 1" dilations="1, 1" pads_begin="0, 0" pads_end="0, 0" auto_pad="same_upper"/>
			<input>
				<port id="0" precision="FP32">
					<dim>1</dim>
					<dim>480</dim>
					<dim>14</dim>
					<dim>14</dim>
				</port>
				<port id="1" precision="FP32">
					<dim>80</dim>
					<dim>480</dim>
					<dim>1</dim>
					<dim>1</dim>
				</port>
			</input>
			<output>
				<port id="2" precision="FP32" names="Conv2D_15:0">
					<dim>1</dim>
					<dim>80</dim>
					<dim>14</dim>
					<dim>14</dim>
				</port>
			</output>
		</layer>
		<layer id="114" name="model_1/model/batch_normalization_23/FusedBatchNormV3_model_1/model/conv2d_15/Conv2D1/y" type="Const" version="opset1">
			<data element_type="f32" shape="1, 80, 1, 1" offset="990976" size="320"/>
			<output>
				<port id="0" precision="FP32" names="model_1/model/batch_normalization_23/FusedBatchNormV3_model_1/model/conv2d_15/Conv2D1/y:0">
					<dim>1</dim>
					<dim>80</dim>
					<dim>1</dim>
					<dim>1</dim>
				</port>
			</output>
		</layer>
		<layer id="115" name="model_1/model/batch_normalization_23/FusedBatchNormV3_model_1/model/conv2d_15/Conv2D1" type="Add" version="opset1">
			<data auto_broadcast="numpy"/>
			<input>
				<port id="0" precision="FP32">
					<dim>1</dim>
					<dim>80</dim>
					<dim>14</dim>
					<dim>14</dim>
				</port>
				<port id="1" precision="FP32">
					<dim>1</dim>
					<dim>80</dim>
					<dim>1</dim>
					<dim>1</dim>
				</port>
			</input>
			<output>
				<port id="2" precision="FP32" names="model_1/model/batch_normalization_23/FusedBatchNormV3_model_1/model/conv2d_15/Conv2D1:0">
					<dim>1</dim>
					<dim>80</dim>
					<dim>14</dim>
					<dim>14</dim>
				</port>
			</output>
		</layer>
		<layer id="116" name="model_1/model/add_3/add" type="Add" version="opset1">
			<data auto_broadcast="numpy"/>
			<input>
				<port id="0" precision="FP32">
					<dim>1</dim>
					<dim>80</dim>
					<dim>14</dim>
					<dim>14</dim>
				</port>
				<port id="1" precision="FP32">
					<dim>1</dim>
					<dim>80</dim>
					<dim>14</dim>
					<dim>14</dim>
				</port>
			</input>
			<output>
				<port id="2" precision="FP32" names="model_1/model/add_3/add:0">
					<dim>1</dim>
					<dim>80</dim>
					<dim>14</dim>
					<dim>14</dim>
				</port>
			</output>
		</layer>
		<layer id="117" name="Conv2D_16/filter" type="Const" version="opset1">
			<data element_type="f32" shape="480, 80, 1, 1" offset="991296" size="153600"/>
			<output>
				<port id="0" precision="FP32" names="Conv2D_16/filter:0">
					<dim>480</dim>
					<dim>80</dim>
					<dim>1</dim>
					<dim>1</dim>
				</port>
			</output>
		</layer>
		<layer id="118" name="Conv2D_16" type="Convolution" version="opset1">
			<data strides="1, 1" dilations="1, 1" pads_begin="0, 0" pads_end="0, 0" auto_pad="same_upper"/>
			<input>
				<port id="0" precision="FP32">
					<dim>1</dim>
					<dim>80</dim>
					<dim>14</dim>
					<dim>14</dim>
				</port>
				<port id="1" precision="FP32">
					<dim>480</dim>
					<dim>80</dim>
					<dim>1</dim>
					<dim>1</dim>
				</port>
			</input>
			<output>
				<port id="2" precision="FP32" names="Conv2D_16:0">
					<dim>1</dim>
					<dim>480</dim>
					<dim>14</dim>
					<dim>14</dim>
				</port>
			</output>
		</layer>
		<layer id="119" name="Add_16/y" type="Const" version="opset1">
			<data element_type="f32" shape="1, 480, 1, 1" offset="1144896" size="1920"/>
			<output>
				<port id="0" precision="FP32" names="Add_16/y:0">
					<dim>1</dim>
					<dim>480</dim>
					<dim>1</dim>
					<dim>1</dim>
				</port>
			</output>
		</layer>
		<layer id="120" name="Add_16" type="Add" version="opset1">
			<data auto_broadcast="numpy"/>
			<input>
				<port id="0" precision="FP32">
					<dim>1</dim>
					<dim>480</dim>
					<dim>14</dim>
					<dim>14</dim>
				</port>
				<port id="1" precision="FP32">
					<dim>1</dim>
					<dim>480</dim>
					<dim>1</dim>
					<dim>1</dim>
				</port>
			</input>
			<output>
				<port id="2" precision="FP32" names="Add_16:0">
					<dim>1</dim>
					<dim>480</dim>
					<dim>14</dim>
					<dim>14</dim>
				</port>
			</output>
		</layer>
		<layer id="121" name="model_1/model/re_lu_16/Relu6_model_1/model/batch_normalization_24/FusedBatchNormV3_model_1/model/batch_normalization_25/FusedBatchNormV3_model_1/model/depthwise_conv2d_8/depthwise_model_1/model/conv2d_16/Conv2D" type="Clamp" version="opset1">
			<data min="0" max="6"/>
			<input>
				<port id="0" precision="FP32">
					<dim>1</dim>
					<dim>480</dim>
					<dim>14</dim>
					<dim>14</dim>
				</port>
			</input>
			<output>
				<port id="1" precision="FP32" names="model_1/model/re_lu_16/Relu6_model_1/model/batch_normalization_24/FusedBatchNormV3_model_1/model/batch_normalization_25/FusedBatchNormV3_model_1/model/depthwise_conv2d_8/depthwise_model_1/model/conv2d_16/Conv2D:0">
					<dim>1</dim>
					<dim>480</dim>
					<dim>14</dim>
					<dim>14</dim>
				</port>
			</output>
		</layer>
		<layer id="122" name="depthwise_8/filter_in" type="Const" version="opset1">
			<data element_type="f32" shape="480, 1, 1, 5, 5" offset="1146816" size="48000"/>
			<output>
				<port id="0" precision="FP32" names="depthwise_8/filter_in:0">
					<dim>480</dim>
					<dim>1</dim>
					<dim>1</dim>
					<dim>5</dim>
					<dim>5</dim>
				</port>
			</output>
		</layer>
		<layer id="123" name="depthwise_8" type="GroupConvolution" version="opset1">
			<data strides="1, 1" pads_begin="2, 2" pads_end="2, 2" dilations="1, 1" auto_pad="same_upper"/>
			<input>
				<port id="0" precision="FP32">
					<dim>1</dim>
					<dim>480</dim>
					<dim>14</dim>
					<dim>14</dim>
				</port>
				<port id="1" precision="FP32">
					<dim>480</dim>
					<dim>1</dim>
					<dim>1</dim>
					<dim>5</dim>
					<dim>5</dim>
				</port>
			</input>
			<output>
				<port id="2" precision="FP32" names="depthwise_8:0">
					<dim>1</dim>
					<dim>480</dim>
					<dim>14</dim>
					<dim>14</dim>
				</port>
			</output>
		</layer>
		<layer id="124" name="Add_17/y" type="Const" version="opset1">
			<data element_type="f32" shape="1, 480, 1, 1" offset="1194816" size="1920"/>
			<output>
				<port id="0" precision="FP32" names="Add_17/y:0">
					<dim>1</dim>
					<dim>480</dim>
					<dim>1</dim>
					<dim>1</dim>
				</port>
			</output>
		</layer>
		<layer id="125" name="Add_17" type="Add" version="opset1">
			<data auto_broadcast="numpy"/>
			<input>
				<port id="0" precision="FP32">
					<dim>1</dim>
					<dim>480</dim>
					<dim>14</dim>
					<dim>14</dim>
				</port>
				<port id="1" precision="FP32">
					<dim>1</dim>
					<dim>480</dim>
					<dim>1</dim>
					<dim>1</dim>
				</port>
			</input>
			<output>
				<port id="2" precision="FP32" names="Add_17:0">
					<dim>1</dim>
					<dim>480</dim>
					<dim>14</dim>
					<dim>14</dim>
				</port>
			</output>
		</layer>
		<layer id="126" name="model_1/model/re_lu_17/Relu6_model_1/model/batch_normalization_25/FusedBatchNormV3_model_1/model/depthwise_conv2d_8/depthwise" type="Clamp" version="opset1">
			<data min="0" max="6"/>
			<input>
				<port id="0" precision="FP32">
					<dim>1</dim>
					<dim>480</dim>
					<dim>14</dim>
					<dim>14</dim>
				</port>
			</input>
			<output>
				<port id="1" precision="FP32" names="model_1/model/re_lu_17/Relu6_model_1/model/batch_normalization_25/FusedBatchNormV3_model_1/model/depthwise_conv2d_8/depthwise:0">
					<dim>1</dim>
					<dim>480</dim>
					<dim>14</dim>
					<dim>14</dim>
				</port>
			</output>
		</layer>
		<layer id="127" name="Conv2D_17/filter" type="Const" version="opset1">
			<data element_type="f32" shape="112, 480, 1, 1" offset="1196736" size="215040"/>
			<output>
				<port id="0" precision="FP32" names="Conv2D_17/filter:0">
					<dim>112</dim>
					<dim>480</dim>
					<dim>1</dim>
					<dim>1</dim>
				</port>
			</output>
		</layer>
		<layer id="128" name="Conv2D_17" type="Convolution" version="opset1">
			<data strides="1, 1" dilations="1, 1" pads_begin="0, 0" pads_end="0, 0" auto_pad="same_upper"/>
			<input>
				<port id="0" precision="FP32">
					<dim>1</dim>
					<dim>480</dim>
					<dim>14</dim>
					<dim>14</dim>
				</port>
				<port id="1" precision="FP32">
					<dim>112</dim>
					<dim>480</dim>
					<dim>1</dim>
					<dim>1</dim>
				</port>
			</input>
			<output>
				<port id="2" precision="FP32" names="Conv2D_17:0">
					<dim>1</dim>
					<dim>112</dim>
					<dim>14</dim>
					<dim>14</dim>
				</port>
			</output>
		</layer>
		<layer id="129" name="model_1/model/batch_normalization_26/FusedBatchNormV3_model_1/model/conv2d_21/Conv2D_model_1/model/conv2d_17/Conv2D1/y" type="Const" version="opset1">
			<data element_type="f32" shape="1, 112, 1, 1" offset="1411776" size="448"/>
			<output>
				<port id="0" precision="FP32" names="model_1/model/batch_normalization_26/FusedBatchNormV3_model_1/model/conv2d_21/Conv2D_model_1/model/conv2d_17/Conv2D1/y:0">
					<dim>1</dim>
					<dim>112</dim>
					<dim>1</dim>
					<dim>1</dim>
				</port>
			</output>
		</layer>
		<layer id="130" name="model_1/model/batch_normalization_26/FusedBatchNormV3_model_1/model/conv2d_21/Conv2D_model_1/model/conv2d_17/Conv2D1" type="Add" version="opset1">
			<data auto_broadcast="numpy"/>
			<input>
				<port id="0" precision="FP32">
					<dim>1</dim>
					<dim>112</dim>
					<dim>14</dim>
					<dim>14</dim>
				</port>
				<port id="1" precision="FP32">
					<dim>1</dim>
					<dim>112</dim>
					<dim>1</dim>
					<dim>1</dim>
				</port>
			</input>
			<output>
				<port id="2" precision="FP32" names="model_1/model/batch_normalization_26/FusedBatchNormV3_model_1/model/conv2d_21/Conv2D_model_1/model/conv2d_17/Conv2D1:0">
					<dim>1</dim>
					<dim>112</dim>
					<dim>14</dim>
					<dim>14</dim>
				</port>
			</output>
		</layer>
		<layer id="131" name="Conv2D_18/filter" type="Const" version="opset1">
			<data element_type="f32" shape="672, 112, 1, 1" offset="1412224" size="301056"/>
			<output>
				<port id="0" precision="FP32" names="Conv2D_18/filter:0">
					<dim>672</dim>
					<dim>112</dim>
					<dim>1</dim>
					<dim>1</dim>
				</port>
			</output>
		</layer>
		<layer id="132" name="Conv2D_18" type="Convolution" version="opset1">
			<data strides="1, 1" dilations="1, 1" pads_begin="0, 0" pads_end="0, 0" auto_pad="same_upper"/>
			<input>
				<port id="0" precision="FP32">
					<dim>1</dim>
					<dim>112</dim>
					<dim>14</dim>
					<dim>14</dim>
				</port>
				<port id="1" precision="FP32">
					<dim>672</dim>
					<dim>112</dim>
					<dim>1</dim>
					<dim>1</dim>
				</port>
			</input>
			<output>
				<port id="2" precision="FP32" names="Conv2D_18:0">
					<dim>1</dim>
					<dim>672</dim>
					<dim>14</dim>
					<dim>14</dim>
				</port>
			</output>
		</layer>
		<layer id="133" name="Add_18/y" type="Const" version="opset1">
			<data element_type="f32" shape="1, 672, 1, 1" offset="1713280" size="2688"/>
			<output>
				<port id="0" precision="FP32" names="Add_18/y:0">
					<dim>1</dim>
					<dim>672</dim>
					<dim>1</dim>
					<dim>1</dim>
				</port>
			</output>
		</layer>
		<layer id="134" name="Add_18" type="Add" version="opset1">
			<data auto_broadcast="numpy"/>
			<input>
				<port id="0" precision="FP32">
					<dim>1</dim>
					<dim>672</dim>
					<dim>14</dim>
					<dim>14</dim>
				</port>
				<port id="1" precision="FP32">
					<dim>1</dim>
					<dim>672</dim>
					<dim>1</dim>
					<dim>1</dim>
				</port>
			</input>
			<output>
				<port id="2" precision="FP32" names="Add_18:0">
					<dim>1</dim>
					<dim>672</dim>
					<dim>14</dim>
					<dim>14</dim>
				</port>
			</output>
		</layer>
		<layer id="135" name="model_1/model/re_lu_18/Relu6_model_1/model/batch_normalization_27/FusedBatchNormV3_model_1/model/batch_normalization_34/FusedBatchNormV3_model_1/model/depthwise_conv2d_11/depthwise_model_1/model/conv2d_18/Conv2D" type="Clamp" version="opset1">
			<data min="0" max="6"/>
			<input>
				<port id="0" precision="FP32">
					<dim>1</dim>
					<dim>672</dim>
					<dim>14</dim>
					<dim>14</dim>
				</port>
			</input>
			<output>
				<port id="1" precision="FP32" names="model_1/model/re_lu_18/Relu6_model_1/model/batch_normalization_27/FusedBatchNormV3_model_1/model/batch_normalization_34/FusedBatchNormV3_model_1/model/depthwise_conv2d_11/depthwise_model_1/model/conv2d_18/Conv2D:0">
					<dim>1</dim>
					<dim>672</dim>
					<dim>14</dim>
					<dim>14</dim>
				</port>
			</output>
		</layer>
		<layer id="136" name="depthwise_9/filter_in" type="Const" version="opset1">
			<data element_type="f32" shape="672, 1, 1, 5, 5" offset="1715968" size="67200"/>
			<output>
				<port id="0" precision="FP32" names="depthwise_9/filter_in:0">
					<dim>672</dim>
					<dim>1</dim>
					<dim>1</dim>
					<dim>5</dim>
					<dim>5</dim>
				</port>
			</output>
		</layer>
		<layer id="137" name="depthwise_9" type="GroupConvolution" version="opset1">
			<data strides="1, 1" pads_begin="2, 2" pads_end="2, 2" dilations="1, 1" auto_pad="same_upper"/>
			<input>
				<port id="0" precision="FP32">
					<dim>1</dim>
					<dim>672</dim>
					<dim>14</dim>
					<dim>14</dim>
				</port>
				<port id="1" precision="FP32">
					<dim>672</dim>
					<dim>1</dim>
					<dim>1</dim>
					<dim>5</dim>
					<dim>5</dim>
				</port>
			</input>
			<output>
				<port id="2" precision="FP32" names="depthwise_9:0">
					<dim>1</dim>
					<dim>672</dim>
					<dim>14</dim>
					<dim>14</dim>
				</port>
			</output>
		</layer>
		<layer id="138" name="Add_19/y" type="Const" version="opset1">
			<data element_type="f32" shape="1, 672, 1, 1" offset="1783168" size="2688"/>
			<output>
				<port id="0" precision="FP32" names="Add_19/y:0">
					<dim>1</dim>
					<dim>672</dim>
					<dim>1</dim>
					<dim>1</dim>
				</port>
			</output>
		</layer>
		<layer id="139" name="Add_19" type="Add" version="opset1">
			<data auto_broadcast="numpy"/>
			<input>
				<port id="0" precision="FP32">
					<dim>1</dim>
					<dim>672</dim>
					<dim>14</dim>
					<dim>14</dim>
				</port>
				<port id="1" precision="FP32">
					<dim>1</dim>
					<dim>672</dim>
					<dim>1</dim>
					<dim>1</dim>
				</port>
			</input>
			<output>
				<port id="2" precision="FP32" names="Add_19:0">
					<dim>1</dim>
					<dim>672</dim>
					<dim>14</dim>
					<dim>14</dim>
				</port>
			</output>
		</layer>
		<layer id="140" name="model_1/model/re_lu_19/Relu6_model_1/model/batch_normalization_28/FusedBatchNormV3_model_1/model/batch_normalization_34/FusedBatchNormV3_model_1/model/depthwise_conv2d_11/depthwise_model_1/model/depthwise_conv2d_9/depthwise" type="Clamp" version="opset1">
			<data min="0" max="6"/>
			<input>
				<port id="0" precision="FP32">
					<dim>1</dim>
					<dim>672</dim>
					<dim>14</dim>
					<dim>14</dim>
				</port>
			</input>
			<output>
				<port id="1" precision="FP32" names="model_1/model/re_lu_19/Relu6_model_1/model/batch_normalization_28/FusedBatchNormV3_model_1/model/batch_normalization_34/FusedBatchNormV3_model_1/model/depthwise_conv2d_11/depthwise_model_1/model/depthwise_conv2d_9/depthwise:0">
					<dim>1</dim>
					<dim>672</dim>
					<dim>14</dim>
					<dim>14</dim>
				</port>
			</output>
		</layer>
		<layer id="141" name="Conv2D_19/filter" type="Const" version="opset1">
			<data element_type="f32" shape="112, 672, 1, 1" offset="1785856" size="301056"/>
			<output>
				<port id="0" precision="FP32" names="Conv2D_19/filter:0">
					<dim>112</dim>
					<dim>672</dim>
					<dim>1</dim>
					<dim>1</dim>
				</port>
			</output>
		</layer>
		<layer id="142" name="Conv2D_19" type="Convolution" version="opset1">
			<data strides="1, 1" dilations="1, 1" pads_begin="0, 0" pads_end="0, 0" auto_pad="same_upper"/>
			<input>
				<port id="0" precision="FP32">
					<dim>1</dim>
					<dim>672</dim>
					<dim>14</dim>
					<dim>14</dim>
				</port>
				<port id="1" precision="FP32">
					<dim>112</dim>
					<dim>672</dim>
					<dim>1</dim>
					<dim>1</dim>
				</port>
			</input>
			<output>
				<port id="2" precision="FP32" names="Conv2D_19:0">
					<dim>1</dim>
					<dim>112</dim>
					<dim>14</dim>
					<dim>14</dim>
				</port>
			</output>
		</layer>
		<layer id="143" name="model_1/model/batch_normalization_29/FusedBatchNormV3_model_1/model/conv2d_21/Conv2D_model_1/model/conv2d_19/Conv2D1/y" type="Const" version="opset1">
			<data element_type="f32" shape="1, 112, 1, 1" offset="2086912" size="448"/>
			<output>
				<port id="0" precision="FP32" names="model_1/model/batch_normalization_29/FusedBatchNormV3_model_1/model/conv2d_21/Conv2D_model_1/model/conv2d_19/Conv2D1/y:0">
					<dim>1</dim>
					<dim>112</dim>
					<dim>1</dim>
					<dim>1</dim>
				</port>
			</output>
		</layer>
		<layer id="144" name="model_1/model/batch_normalization_29/FusedBatchNormV3_model_1/model/conv2d_21/Conv2D_model_1/model/conv2d_19/Conv2D1" type="Add" version="opset1">
			<data auto_broadcast="numpy"/>
			<input>
				<port id="0" precision="FP32">
					<dim>1</dim>
					<dim>112</dim>
					<dim>14</dim>
					<dim>14</dim>
				</port>
				<port id="1" precision="FP32">
					<dim>1</dim>
					<dim>112</dim>
					<dim>1</dim>
					<dim>1</dim>
				</port>
			</input>
			<output>
				<port id="2" precision="FP32" names="model_1/model/batch_normalization_29/FusedBatchNormV3_model_1/model/conv2d_21/Conv2D_model_1/model/conv2d_19/Conv2D1:0">
					<dim>1</dim>
					<dim>112</dim>
					<dim>14</dim>
					<dim>14</dim>
				</port>
			</output>
		</layer>
		<layer id="145" name="model_1/model/add_4/add" type="Add" version="opset1">
			<data auto_broadcast="numpy"/>
			<input>
				<port id="0" precision="FP32">
					<dim>1</dim>
					<dim>112</dim>
					<dim>14</dim>
					<dim>14</dim>
				</port>
				<port id="1" precision="FP32">
					<dim>1</dim>
					<dim>112</dim>
					<dim>14</dim>
					<dim>14</dim>
				</port>
			</input>
			<output>
				<port id="2" precision="FP32" names="model_1/model/add_4/add:0">
					<dim>1</dim>
					<dim>112</dim>
					<dim>14</dim>
					<dim>14</dim>
				</port>
			</output>
		</layer>
		<layer id="146" name="Conv2D_20/filter" type="Const" version="opset1">
			<data element_type="f32" shape="672, 112, 1, 1" offset="2087360" size="301056"/>
			<output>
				<port id="0" precision="FP32" names="Conv2D_20/filter:0">
					<dim>672</dim>
					<dim>112</dim>
					<dim>1</dim>
					<dim>1</dim>
				</port>
			</output>
		</layer>
		<layer id="147" name="Conv2D_20" type="Convolution" version="opset1">
			<data strides="1, 1" dilations="1, 1" pads_begin="0, 0" pads_end="0, 0" auto_pad="same_upper"/>
			<input>
				<port id="0" precision="FP32">
					<dim>1</dim>
					<dim>112</dim>
					<dim>14</dim>
					<dim>14</dim>
				</port>
				<port id="1" precision="FP32">
					<dim>672</dim>
					<dim>112</dim>
					<dim>1</dim>
					<dim>1</dim>
				</port>
			</input>
			<output>
				<port id="2" precision="FP32" names="Conv2D_20:0">
					<dim>1</dim>
					<dim>672</dim>
					<dim>14</dim>
					<dim>14</dim>
				</port>
			</output>
		</layer>
		<layer id="148" name="Add_20/y" type="Const" version="opset1">
			<data element_type="f32" shape="1, 672, 1, 1" offset="2388416" size="2688"/>
			<output>
				<port id="0" precision="FP32" names="Add_20/y:0">
					<dim>1</dim>
					<dim>672</dim>
					<dim>1</dim>
					<dim>1</dim>
				</port>
			</output>
		</layer>
		<layer id="149" name="Add_20" type="Add" version="opset1">
			<data auto_broadcast="numpy"/>
			<input>
				<port id="0" precision="FP32">
					<dim>1</dim>
					<dim>672</dim>
					<dim>14</dim>
					<dim>14</dim>
				</port>
				<port id="1" precision="FP32">
					<dim>1</dim>
					<dim>672</dim>
					<dim>1</dim>
					<dim>1</dim>
				</port>
			</input>
			<output>
				<port id="2" precision="FP32" names="Add_20:0">
					<dim>1</dim>
					<dim>672</dim>
					<dim>14</dim>
					<dim>14</dim>
				</port>
			</output>
		</layer>
		<layer id="150" name="model_1/model/re_lu_20/Relu6_model_1/model/batch_normalization_30/FusedBatchNormV3_model_1/model/batch_normalization_34/FusedBatchNormV3_model_1/model/depthwise_conv2d_11/depthwise_model_1/model/conv2d_20/Conv2D" type="Clamp" version="opset1">
			<data min="0" max="6"/>
			<input>
				<port id="0" precision="FP32">
					<dim>1</dim>
					<dim>672</dim>
					<dim>14</dim>
					<dim>14</dim>
				</port>
			</input>
			<output>
				<port id="1" precision="FP32" names="model_1/model/re_lu_20/Relu6_model_1/model/batch_normalization_30/FusedBatchNormV3_model_1/model/batch_normalization_34/FusedBatchNormV3_model_1/model/depthwise_conv2d_11/depthwise_model_1/model/conv2d_20/Conv2D:0">
					<dim>1</dim>
					<dim>672</dim>
					<dim>14</dim>
					<dim>14</dim>
				</port>
			</output>
		</layer>
		<layer id="151" name="depthwise_10/filter_in" type="Const" version="opset1">
			<data element_type="f32" shape="672, 1, 1, 5, 5" offset="2391104" size="67200"/>
			<output>
				<port id="0" precision="FP32" names="depthwise_10/filter_in:0">
					<dim>672</dim>
					<dim>1</dim>
					<dim>1</dim>
					<dim>5</dim>
					<dim>5</dim>
				</port>
			</output>
		</layer>
		<layer id="152" name="depthwise_10" type="GroupConvolution" version="opset1">
			<data strides="1, 1" pads_begin="2, 2" pads_end="2, 2" dilations="1, 1" auto_pad="same_upper"/>
			<input>
				<port id="0" precision="FP32">
					<dim>1</dim>
					<dim>672</dim>
					<dim>14</dim>
					<dim>14</dim>
				</port>
				<port id="1" precision="FP32">
					<dim>672</dim>
					<dim>1</dim>
					<dim>1</dim>
					<dim>5</dim>
					<dim>5</dim>
				</port>
			</input>
			<output>
				<port id="2" precision="FP32" names="depthwise_10:0">
					<dim>1</dim>
					<dim>672</dim>
					<dim>14</dim>
					<dim>14</dim>
				</port>
			</output>
		</layer>
		<layer id="153" name="Add_21/y" type="Const" version="opset1">
			<data element_type="f32" shape="1, 672, 1, 1" offset="2458304" size="2688"/>
			<output>
				<port id="0" precision="FP32" names="Add_21/y:0">
					<dim>1</dim>
					<dim>672</dim>
					<dim>1</dim>
					<dim>1</dim>
				</port>
			</output>
		</layer>
		<layer id="154" name="Add_21" type="Add" version="opset1">
			<data auto_broadcast="numpy"/>
			<input>
				<port id="0" precision="FP32">
					<dim>1</dim>
					<dim>672</dim>
					<dim>14</dim>
					<dim>14</dim>
				</port>
				<port id="1" precision="FP32">
					<dim>1</dim>
					<dim>672</dim>
					<dim>1</dim>
					<dim>1</dim>
				</port>
			</input>
			<output>
				<port id="2" precision="FP32" names="Add_21:0">
					<dim>1</dim>
					<dim>672</dim>
					<dim>14</dim>
					<dim>14</dim>
				</port>
			</output>
		</layer>
		<layer id="155" name="model_1/model/re_lu_21/Relu6_model_1/model/batch_normalization_31/FusedBatchNormV3_model_1/model/depthwise_conv2d_10/depthwise_model_1/model/depthwise_conv2d_11/depthwise" type="Clamp" version="opset1">
			<data min="0" max="6"/>
			<input>
				<port id="0" precision="FP32">
					<dim>1</dim>
					<dim>672</dim>
					<dim>14</dim>
					<dim>14</dim>
				</port>
			</input>
			<output>
				<port id="1" precision="FP32" names="model_1/model/re_lu_21/Relu6_model_1/model/batch_normalization_31/FusedBatchNormV3_model_1/model/depthwise_conv2d_10/depthwise_model_1/model/depthwise_conv2d_11/depthwise:0">
					<dim>1</dim>
					<dim>672</dim>
					<dim>14</dim>
					<dim>14</dim>
				</port>
			</output>
		</layer>
		<layer id="156" name="Conv2D_21/filter" type="Const" version="opset1">
			<data element_type="f32" shape="112, 672, 1, 1" offset="2460992" size="301056"/>
			<output>
				<port id="0" precision="FP32" names="Conv2D_21/filter:0">
					<dim>112</dim>
					<dim>672</dim>
					<dim>1</dim>
					<dim>1</dim>
				</port>
			</output>
		</layer>
		<layer id="157" name="Conv2D_21" type="Convolution" version="opset1">
			<data strides="1, 1" dilations="1, 1" pads_begin="0, 0" pads_end="0, 0" auto_pad="same_upper"/>
			<input>
				<port id="0" precision="FP32">
					<dim>1</dim>
					<dim>672</dim>
					<dim>14</dim>
					<dim>14</dim>
				</port>
				<port id="1" precision="FP32">
					<dim>112</dim>
					<dim>672</dim>
					<dim>1</dim>
					<dim>1</dim>
				</port>
			</input>
			<output>
				<port id="2" precision="FP32" names="Conv2D_21:0">
					<dim>1</dim>
					<dim>112</dim>
					<dim>14</dim>
					<dim>14</dim>
				</port>
			</output>
		</layer>
		<layer id="158" name="model_1/model/batch_normalization_32/FusedBatchNormV3_model_1/model/conv2d_21/Conv2D1/y" type="Const" version="opset1">
			<data element_type="f32" shape="1, 112, 1, 1" offset="2762048" size="448"/>
			<output>
				<port id="0" precision="FP32" names="model_1/model/batch_normalization_32/FusedBatchNormV3_model_1/model/conv2d_21/Conv2D1/y:0">
					<dim>1</dim>
					<dim>112</dim>
					<dim>1</dim>
					<dim>1</dim>
				</port>
			</output>
		</layer>
		<layer id="159" name="model_1/model/batch_normalization_32/FusedBatchNormV3_model_1/model/conv2d_21/Conv2D1" type="Add" version="opset1">
			<data auto_broadcast="numpy"/>
			<input>
				<port id="0" precision="FP32">
					<dim>1</dim>
					<dim>112</dim>
					<dim>14</dim>
					<dim>14</dim>
				</port>
				<port id="1" precision="FP32">
					<dim>1</dim>
					<dim>112</dim>
					<dim>1</dim>
					<dim>1</dim>
				</port>
			</input>
			<output>
				<port id="2" precision="FP32" names="model_1/model/batch_normalization_32/FusedBatchNormV3_model_1/model/conv2d_21/Conv2D1:0">
					<dim>1</dim>
					<dim>112</dim>
					<dim>14</dim>
					<dim>14</dim>
				</port>
			</output>
		</layer>
		<layer id="160" name="model_1/model/add_5/add" type="Add" version="opset1">
			<data auto_broadcast="numpy"/>
			<input>
				<port id="0" precision="FP32">
					<dim>1</dim>
					<dim>112</dim>
					<dim>14</dim>
					<dim>14</dim>
				</port>
				<port id="1" precision="FP32">
					<dim>1</dim>
					<dim>112</dim>
					<dim>14</dim>
					<dim>14</dim>
				</port>
			</input>
			<output>
				<port id="2" precision="FP32" names="model_1/model/add_5/add:0">
					<dim>1</dim>
					<dim>112</dim>
					<dim>14</dim>
					<dim>14</dim>
				</port>
			</output>
		</layer>
		<layer id="161" name="Conv2D_22/filter" type="Const" version="opset1">
			<data element_type="f32" shape="672, 112, 1, 1" offset="2762496" size="301056"/>
			<output>
				<port id="0" precision="FP32" names="Conv2D_22/filter:0">
					<dim>672</dim>
					<dim>112</dim>
					<dim>1</dim>
					<dim>1</dim>
				</port>
			</output>
		</layer>
		<layer id="162" name="Conv2D_22" type="Convolution" version="opset1">
			<data strides="1, 1" dilations="1, 1" pads_begin="0, 0" pads_end="0, 0" auto_pad="same_upper"/>
			<input>
				<port id="0" precision="FP32">
					<dim>1</dim>
					<dim>112</dim>
					<dim>14</dim>
					<dim>14</dim>
				</port>
				<port id="1" precision="FP32">
					<dim>672</dim>
					<dim>112</dim>
					<dim>1</dim>
					<dim>1</dim>
				</port>
			</input>
			<output>
				<port id="2" precision="FP32" names="Conv2D_22:0">
					<dim>1</dim>
					<dim>672</dim>
					<dim>14</dim>
					<dim>14</dim>
				</port>
			</output>
		</layer>
		<layer id="163" name="Add_22/y" type="Const" version="opset1">
			<data element_type="f32" shape="1, 672, 1, 1" offset="3063552" size="2688"/>
			<output>
				<port id="0" precision="FP32" names="Add_22/y:0">
					<dim>1</dim>
					<dim>672</dim>
					<dim>1</dim>
					<dim>1</dim>
				</port>
			</output>
		</layer>
		<layer id="164" name="Add_22" type="Add" version="opset1">
			<data auto_broadcast="numpy"/>
			<input>
				<port id="0" precision="FP32">
					<dim>1</dim>
					<dim>672</dim>
					<dim>14</dim>
					<dim>14</dim>
				</port>
				<port id="1" precision="FP32">
					<dim>1</dim>
					<dim>672</dim>
					<dim>1</dim>
					<dim>1</dim>
				</port>
			</input>
			<output>
				<port id="2" precision="FP32" names="Add_22:0">
					<dim>1</dim>
					<dim>672</dim>
					<dim>14</dim>
					<dim>14</dim>
				</port>
			</output>
		</layer>
		<layer id="165" name="model_1/model/re_lu_22/Relu6_model_1/model/batch_normalization_33/FusedBatchNormV3_model_1/model/batch_normalization_34/FusedBatchNormV3_model_1/model/depthwise_conv2d_11/depthwise_model_1/model/conv2d_22/Conv2D" type="Clamp" version="opset1">
			<data min="0" max="6"/>
			<input>
				<port id="0" precision="FP32">
					<dim>1</dim>
					<dim>672</dim>
					<dim>14</dim>
					<dim>14</dim>
				</port>
			</input>
			<output>
				<port id="1" precision="FP32" names="model_1/model/re_lu_22/Relu6_model_1/model/batch_normalization_33/FusedBatchNormV3_model_1/model/batch_normalization_34/FusedBatchNormV3_model_1/model/depthwise_conv2d_11/depthwise_model_1/model/conv2d_22/Conv2D:0">
					<dim>1</dim>
					<dim>672</dim>
					<dim>14</dim>
					<dim>14</dim>
				</port>
			</output>
		</layer>
		<layer id="166" name="depthwise_11/filter_in" type="Const" version="opset1">
			<data element_type="f32" shape="672, 1, 1, 5, 5" offset="3066240" size="67200"/>
			<output>
				<port id="0" precision="FP32" names="depthwise_11/filter_in:0">
					<dim>672</dim>
					<dim>1</dim>
					<dim>1</dim>
					<dim>5</dim>
					<dim>5</dim>
				</port>
			</output>
		</layer>
		<layer id="167" name="depthwise_11" type="GroupConvolution" version="opset1">
			<data strides="2, 2" pads_begin="1, 1" pads_end="2, 2" dilations="1, 1" auto_pad="same_upper"/>
			<input>
				<port id="0" precision="FP32">
					<dim>1</dim>
					<dim>672</dim>
					<dim>14</dim>
					<dim>14</dim>
				</port>
				<port id="1" precision="FP32">
					<dim>672</dim>
					<dim>1</dim>
					<dim>1</dim>
					<dim>5</dim>
					<dim>5</dim>
				</port>
			</input>
			<output>
				<port id="2" precision="FP32" names="depthwise_11:0">
					<dim>1</dim>
					<dim>672</dim>
					<dim>7</dim>
					<dim>7</dim>
				</port>
			</output>
		</layer>
		<layer id="168" name="Add_23/y" type="Const" version="opset1">
			<data element_type="f32" shape="1, 672, 1, 1" offset="3133440" size="2688"/>
			<output>
				<port id="0" precision="FP32" names="Add_23/y:0">
					<dim>1</dim>
					<dim>672</dim>
					<dim>1</dim>
					<dim>1</dim>
				</port>
			</output>
		</layer>
		<layer id="169" name="Add_23" type="Add" version="opset1">
			<data auto_broadcast="numpy"/>
			<input>
				<port id="0" precision="FP32">
					<dim>1</dim>
					<dim>672</dim>
					<dim>7</dim>
					<dim>7</dim>
				</port>
				<port id="1" precision="FP32">
					<dim>1</dim>
					<dim>672</dim>
					<dim>1</dim>
					<dim>1</dim>
				</port>
			</input>
			<output>
				<port id="2" precision="FP32" names="Add_23:0">
					<dim>1</dim>
					<dim>672</dim>
					<dim>7</dim>
					<dim>7</dim>
				</port>
			</output>
		</layer>
		<layer id="170" name="model_1/model/re_lu_23/Relu6_model_1/model/batch_normalization_34/FusedBatchNormV3_model_1/model/depthwise_conv2d_11/depthwise" type="Clamp" version="opset1">
			<data min="0" max="6"/>
			<input>
				<port id="0" precision="FP32">
					<dim>1</dim>
					<dim>672</dim>
					<dim>7</dim>
					<dim>7</dim>
				</port>
			</input>
			<output>
				<port id="1" precision="FP32" names="model_1/model/re_lu_23/Relu6_model_1/model/batch_normalization_34/FusedBatchNormV3_model_1/model/depthwise_conv2d_11/depthwise:0">
					<dim>1</dim>
					<dim>672</dim>
					<dim>7</dim>
					<dim>7</dim>
				</port>
			</output>
		</layer>
		<layer id="171" name="Conv2D_23/filter" type="Const" version="opset1">
			<data element_type="f32" shape="192, 672, 1, 1" offset="3136128" size="516096"/>
			<output>
				<port id="0" precision="FP32" names="Conv2D_23/filter:0">
					<dim>192</dim>
					<dim>672</dim>
					<dim>1</dim>
					<dim>1</dim>
				</port>
			</output>
		</layer>
		<layer id="172" name="Conv2D_23" type="Convolution" version="opset1">
			<data strides="1, 1" dilations="1, 1" pads_begin="0, 0" pads_end="0, 0" auto_pad="same_upper"/>
			<input>
				<port id="0" precision="FP32">
					<dim>1</dim>
					<dim>672</dim>
					<dim>7</dim>
					<dim>7</dim>
				</port>
				<port id="1" precision="FP32">
					<dim>192</dim>
					<dim>672</dim>
					<dim>1</dim>
					<dim>1</dim>
				</port>
			</input>
			<output>
				<port id="2" precision="FP32" names="Conv2D_23:0">
					<dim>1</dim>
					<dim>192</dim>
					<dim>7</dim>
					<dim>7</dim>
				</port>
			</output>
		</layer>
		<layer id="173" name="model_1/model/batch_normalization_35/FusedBatchNormV3_model_1/model/conv2d_29/Conv2D_model_1/model/conv2d_23/Conv2D1/y" type="Const" version="opset1">
			<data element_type="f32" shape="1, 192, 1, 1" offset="3652224" size="768"/>
			<output>
				<port id="0" precision="FP32" names="model_1/model/batch_normalization_35/FusedBatchNormV3_model_1/model/conv2d_29/Conv2D_model_1/model/conv2d_23/Conv2D1/y:0">
					<dim>1</dim>
					<dim>192</dim>
					<dim>1</dim>
					<dim>1</dim>
				</port>
			</output>
		</layer>
		<layer id="174" name="model_1/model/batch_normalization_35/FusedBatchNormV3_model_1/model/conv2d_29/Conv2D_model_1/model/conv2d_23/Conv2D1" type="Add" version="opset1">
			<data auto_broadcast="numpy"/>
			<input>
				<port id="0" precision="FP32">
					<dim>1</dim>
					<dim>192</dim>
					<dim>7</dim>
					<dim>7</dim>
				</port>
				<port id="1" precision="FP32">
					<dim>1</dim>
					<dim>192</dim>
					<dim>1</dim>
					<dim>1</dim>
				</port>
			</input>
			<output>
				<port id="2" precision="FP32" names="model_1/model/batch_normalization_35/FusedBatchNormV3_model_1/model/conv2d_29/Conv2D_model_1/model/conv2d_23/Conv2D1:0">
					<dim>1</dim>
					<dim>192</dim>
					<dim>7</dim>
					<dim>7</dim>
				</port>
			</output>
		</layer>
		<layer id="175" name="Conv2D_24/filter" type="Const" version="opset1">
			<data element_type="f32" shape="1152, 192, 1, 1" offset="3652992" size="884736"/>
			<output>
				<port id="0" precision="FP32" names="Conv2D_24/filter:0">
					<dim>1152</dim>
					<dim>192</dim>
					<dim>1</dim>
					<dim>1</dim>
				</port>
			</output>
		</layer>
		<layer id="176" name="Conv2D_24" type="Convolution" version="opset1">
			<data strides="1, 1" dilations="1, 1" pads_begin="0, 0" pads_end="0, 0" auto_pad="same_upper"/>
			<input>
				<port id="0" precision="FP32">
					<dim>1</dim>
					<dim>192</dim>
					<dim>7</dim>
					<dim>7</dim>
				</port>
				<port id="1" precision="FP32">
					<dim>1152</dim>
					<dim>192</dim>
					<dim>1</dim>
					<dim>1</dim>
				</port>
			</input>
			<output>
				<port id="2" precision="FP32" names="Conv2D_24:0">
					<dim>1</dim>
					<dim>1152</dim>
					<dim>7</dim>
					<dim>7</dim>
				</port>
			</output>
		</layer>
		<layer id="177" name="Add_24/y" type="Const" version="opset1">
			<data element_type="f32" shape="1, 1152, 1, 1" offset="4537728" size="4608"/>
			<output>
				<port id="0" precision="FP32" names="Add_24/y:0">
					<dim>1</dim>
					<dim>1152</dim>
					<dim>1</dim>
					<dim>1</dim>
				</port>
			</output>
		</layer>
		<layer id="178" name="Add_24" type="Add" version="opset1">
			<data auto_broadcast="numpy"/>
			<input>
				<port id="0" precision="FP32">
					<dim>1</dim>
					<dim>1152</dim>
					<dim>7</dim>
					<dim>7</dim>
				</port>
				<port id="1" precision="FP32">
					<dim>1</dim>
					<dim>1152</dim>
					<dim>1</dim>
					<dim>1</dim>
				</port>
			</input>
			<output>
				<port id="2" precision="FP32" names="Add_24:0">
					<dim>1</dim>
					<dim>1152</dim>
					<dim>7</dim>
					<dim>7</dim>
				</port>
			</output>
		</layer>
		<layer id="179" name="model_1/model/re_lu_24/Relu6_model_1/model/batch_normalization_36/FusedBatchNormV3_model_1/model/batch_normalization_46/FusedBatchNormV3_model_1/model/depthwise_conv2d_15/depthwise_model_1/model/conv2d_24/Conv2D" type="Clamp" version="opset1">
			<data min="0" max="6"/>
			<input>
				<port id="0" precision="FP32">
					<dim>1</dim>
					<dim>1152</dim>
					<dim>7</dim>
					<dim>7</dim>
				</port>
			</input>
			<output>
				<port id="1" precision="FP32" names="model_1/model/re_lu_24/Relu6_model_1/model/batch_normalization_36/FusedBatchNormV3_model_1/model/batch_normalization_46/FusedBatchNormV3_model_1/model/depthwise_conv2d_15/depthwise_model_1/model/conv2d_24/Conv2D:0">
					<dim>1</dim>
					<dim>1152</dim>
					<dim>7</dim>
					<dim>7</dim>
				</port>
			</output>
		</layer>
		<layer id="180" name="depthwise_12/filter_in" type="Const" version="opset1">
			<data element_type="f32" shape="1152, 1, 1, 5, 5" offset="4542336" size="115200"/>
			<output>
				<port id="0" precision="FP32" names="depthwise_12/filter_in:0">
					<dim>1152</dim>
					<dim>1</dim>
					<dim>1</dim>
					<dim>5</dim>
					<dim>5</dim>
				</port>
			</output>
		</layer>
		<layer id="181" name="depthwise_12" type="GroupConvolution" version="opset1">
			<data strides="1, 1" pads_begin="2, 2" pads_end="2, 2" dilations="1, 1" auto_pad="same_upper"/>
			<input>
				<port id="0" precision="FP32">
					<dim>1</dim>
					<dim>1152</dim>
					<dim>7</dim>
					<dim>7</dim>
				</port>
				<port id="1" precision="FP32">
					<dim>1152</dim>
					<dim>1</dim>
					<dim>1</dim>
					<dim>5</dim>
					<dim>5</dim>
				</port>
			</input>
			<output>
				<port id="2" precision="FP32" names="depthwise_12:0">
					<dim>1</dim>
					<dim>1152</dim>
					<dim>7</dim>
					<dim>7</dim>
				</port>
			</output>
		</layer>
		<layer id="182" name="Add_25/y" type="Const" version="opset1">
			<data element_type="f32" shape="1, 1152, 1, 1" offset="4657536" size="4608"/>
			<output>
				<port id="0" precision="FP32" names="Add_25/y:0">
					<dim>1</dim>
					<dim>1152</dim>
					<dim>1</dim>
					<dim>1</dim>
				</port>
			</output>
		</layer>
		<layer id="183" name="Add_25" type="Add" version="opset1">
			<data auto_broadcast="numpy"/>
			<input>
				<port id="0" precision="FP32">
					<dim>1</dim>
					<dim>1152</dim>
					<dim>7</dim>
					<dim>7</dim>
				</port>
				<port id="1" precision="FP32">
					<dim>1</dim>
					<dim>1152</dim>
					<dim>1</dim>
					<dim>1</dim>
				</port>
			</input>
			<output>
				<port id="2" precision="FP32" names="Add_25:0">
					<dim>1</dim>
					<dim>1152</dim>
					<dim>7</dim>
					<dim>7</dim>
				</port>
			</output>
		</layer>
		<layer id="184" name="model_1/model/re_lu_25/Relu6_model_1/model/batch_normalization_37/FusedBatchNormV3_model_1/model/depthwise_conv2d_12/depthwise_model_1/model/depthwise_conv2d_15/depthwise" type="Clamp" version="opset1">
			<data min="0" max="6"/>
			<input>
				<port id="0" precision="FP32">
					<dim>1</dim>
					<dim>1152</dim>
					<dim>7</dim>
					<dim>7</dim>
				</port>
			</input>
			<output>
				<port id="1" precision="FP32" names="model_1/model/re_lu_25/Relu6_model_1/model/batch_normalization_37/FusedBatchNormV3_model_1/model/depthwise_conv2d_12/depthwise_model_1/model/depthwise_conv2d_15/depthwise:0">
					<dim>1</dim>
					<dim>1152</dim>
					<dim>7</dim>
					<dim>7</dim>
				</port>
			</output>
		</layer>
		<layer id="185" name="Conv2D_25/filter" type="Const" version="opset1">
			<data element_type="f32" shape="192, 1152, 1, 1" offset="4662144" size="884736"/>
			<output>
				<port id="0" precision="FP32" names="Conv2D_25/filter:0">
					<dim>192</dim>
					<dim>1152</dim>
					<dim>1</dim>
					<dim>1</dim>
				</port>
			</output>
		</layer>
		<layer id="186" name="Conv2D_25" type="Convolution" version="opset1">
			<data strides="1, 1" dilations="1, 1" pads_begin="0, 0" pads_end="0, 0" auto_pad="same_upper"/>
			<input>
				<port id="0" precision="FP32">
					<dim>1</dim>
					<dim>1152</dim>
					<dim>7</dim>
					<dim>7</dim>
				</port>
				<port id="1" precision="FP32">
					<dim>192</dim>
					<dim>1152</dim>
					<dim>1</dim>
					<dim>1</dim>
				</port>
			</input>
			<output>
				<port id="2" precision="FP32" names="Conv2D_25:0">
					<dim>1</dim>
					<dim>192</dim>
					<dim>7</dim>
					<dim>7</dim>
				</port>
			</output>
		</layer>
		<layer id="187" name="model_1/model/batch_normalization_38/FusedBatchNormV3_model_1/model/conv2d_29/Conv2D_model_1/model/conv2d_25/Conv2D1/y" type="Const" version="opset1">
			<data element_type="f32" shape="1, 192, 1, 1" offset="5546880" size="768"/>
			<output>
				<port id="0" precision="FP32" names="model_1/model/batch_normalization_38/FusedBatchNormV3_model_1/model/conv2d_29/Conv2D_model_1/model/conv2d_25/Conv2D1/y:0">
					<dim>1</dim>
					<dim>192</dim>
					<dim>1</dim>
					<dim>1</dim>
				</port>
			</output>
		</layer>
		<layer id="188" name="model_1/model/batch_normalization_38/FusedBatchNormV3_model_1/model/conv2d_29/Conv2D_model_1/model/conv2d_25/Conv2D1" type="Add" version="opset1">
			<data auto_broadcast="numpy"/>
			<input>
				<port id="0" precision="FP32">
					<dim>1</dim>
					<dim>192</dim>
					<dim>7</dim>
					<dim>7</dim>
				</port>
				<port id="1" precision="FP32">
					<dim>1</dim>
					<dim>192</dim>
					<dim>1</dim>
					<dim>1</dim>
				</port>
			</input>
			<output>
				<port id="2" precision="FP32" names="model_1/model/batch_normalization_38/FusedBatchNormV3_model_1/model/conv2d_29/Conv2D_model_1/model/conv2d_25/Conv2D1:0">
					<dim>1</dim>
					<dim>192</dim>
					<dim>7</dim>
					<dim>7</dim>
				</port>
			</output>
		</layer>
		<layer id="189" name="model_1/model/add_6/add" type="Add" version="opset1">
			<data auto_broadcast="numpy"/>
			<input>
				<port id="0" precision="FP32">
					<dim>1</dim>
					<dim>192</dim>
					<dim>7</dim>
					<dim>7</dim>
				</port>
				<port id="1" precision="FP32">
					<dim>1</dim>
					<dim>192</dim>
					<dim>7</dim>
					<dim>7</dim>
				</port>
			</input>
			<output>
				<port id="2" precision="FP32" names="model_1/model/add_6/add:0">
					<dim>1</dim>
					<dim>192</dim>
					<dim>7</dim>
					<dim>7</dim>
				</port>
			</output>
		</layer>
		<layer id="190" name="Conv2D_26/filter" type="Const" version="opset1">
			<data element_type="f32" shape="1152, 192, 1, 1" offset="5547648" size="884736"/>
			<output>
				<port id="0" precision="FP32" names="Conv2D_26/filter:0">
					<dim>1152</dim>
					<dim>192</dim>
					<dim>1</dim>
					<dim>1</dim>
				</port>
			</output>
		</layer>
		<layer id="191" name="Conv2D_26" type="Convolution" version="opset1">
			<data strides="1, 1" dilations="1, 1" pads_begin="0, 0" pads_end="0, 0" auto_pad="same_upper"/>
			<input>
				<port id="0" precision="FP32">
					<dim>1</dim>
					<dim>192</dim>
					<dim>7</dim>
					<dim>7</dim>
				</port>
				<port id="1" precision="FP32">
					<dim>1152</dim>
					<dim>192</dim>
					<dim>1</dim>
					<dim>1</dim>
				</port>
			</input>
			<output>
				<port id="2" precision="FP32" names="Conv2D_26:0">
					<dim>1</dim>
					<dim>1152</dim>
					<dim>7</dim>
					<dim>7</dim>
				</port>
			</output>
		</layer>
		<layer id="192" name="Add_26/y" type="Const" version="opset1">
			<data element_type="f32" shape="1, 1152, 1, 1" offset="6432384" size="4608"/>
			<output>
				<port id="0" precision="FP32" names="Add_26/y:0">
					<dim>1</dim>
					<dim>1152</dim>
					<dim>1</dim>
					<dim>1</dim>
				</port>
			</output>
		</layer>
		<layer id="193" name="Add_26" type="Add" version="opset1">
			<data auto_broadcast="numpy"/>
			<input>
				<port id="0" precision="FP32">
					<dim>1</dim>
					<dim>1152</dim>
					<dim>7</dim>
					<dim>7</dim>
				</port>
				<port id="1" precision="FP32">
					<dim>1</dim>
					<dim>1152</dim>
					<dim>1</dim>
					<dim>1</dim>
				</port>
			</input>
			<output>
				<port id="2" precision="FP32" names="Add_26:0">
					<dim>1</dim>
					<dim>1152</dim>
					<dim>7</dim>
					<dim>7</dim>
				</port>
			</output>
		</layer>
		<layer id="194" name="model_1/model/re_lu_26/Relu6_model_1/model/batch_normalization_39/FusedBatchNormV3_model_1/model/batch_normalization_46/FusedBatchNormV3_model_1/model/depthwise_conv2d_15/depthwise_model_1/model/conv2d_26/Conv2D" type="Clamp" version="opset1">
			<data min="0" max="6"/>
			<input>
				<port id="0" precision="FP32">
					<dim>1</dim>
					<dim>1152</dim>
					<dim>7</dim>
					<dim>7</dim>
				</port>
			</input>
			<output>
				<port id="1" precision="FP32" names="model_1/model/re_lu_26/Relu6_model_1/model/batch_normalization_39/FusedBatchNormV3_model_1/model/batch_normalization_46/FusedBatchNormV3_model_1/model/depthwise_conv2d_15/depthwise_model_1/model/conv2d_26/Conv2D:0">
					<dim>1</dim>
					<dim>1152</dim>
					<dim>7</dim>
					<dim>7</dim>
				</port>
			</output>
		</layer>
		<layer id="195" name="depthwise_13/filter_in" type="Const" version="opset1">
			<data element_type="f32" shape="1152, 1, 1, 5, 5" offset="6436992" size="115200"/>
			<output>
				<port id="0" precision="FP32" names="depthwise_13/filter_in:0">
					<dim>1152</dim>
					<dim>1</dim>
					<dim>1</dim>
					<dim>5</dim>
					<dim>5</dim>
				</port>
			</output>
		</layer>
		<layer id="196" name="depthwise_13" type="GroupConvolution" version="opset1">
			<data strides="1, 1" pads_begin="2, 2" pads_end="2, 2" dilations="1, 1" auto_pad="same_upper"/>
			<input>
				<port id="0" precision="FP32">
					<dim>1</dim>
					<dim>1152</dim>
					<dim>7</dim>
					<dim>7</dim>
				</port>
				<port id="1" precision="FP32">
					<dim>1152</dim>
					<dim>1</dim>
					<dim>1</dim>
					<dim>5</dim>
					<dim>5</dim>
				</port>
			</input>
			<output>
				<port id="2" precision="FP32" names="depthwise_13:0">
					<dim>1</dim>
					<dim>1152</dim>
					<dim>7</dim>
					<dim>7</dim>
				</port>
			</output>
		</layer>
		<layer id="197" name="Add_27/y" type="Const" version="opset1">
			<data element_type="f32" shape="1, 1152, 1, 1" offset="6552192" size="4608"/>
			<output>
				<port id="0" precision="FP32" names="Add_27/y:0">
					<dim>1</dim>
					<dim>1152</dim>
					<dim>1</dim>
					<dim>1</dim>
				</port>
			</output>
		</layer>
		<layer id="198" name="Add_27" type="Add" version="opset1">
			<data auto_broadcast="numpy"/>
			<input>
				<port id="0" precision="FP32">
					<dim>1</dim>
					<dim>1152</dim>
					<dim>7</dim>
					<dim>7</dim>
				</port>
				<port id="1" precision="FP32">
					<dim>1</dim>
					<dim>1152</dim>
					<dim>1</dim>
					<dim>1</dim>
				</port>
			</input>
			<output>
				<port id="2" precision="FP32" names="Add_27:0">
					<dim>1</dim>
					<dim>1152</dim>
					<dim>7</dim>
					<dim>7</dim>
				</port>
			</output>
		</layer>
		<layer id="199" name="model_1/model/re_lu_27/Relu6_model_1/model/batch_normalization_40/FusedBatchNormV3_model_1/model/depthwise_conv2d_13/depthwise_model_1/model/depthwise_conv2d_15/depthwise" type="Clamp" version="opset1">
			<data min="0" max="6"/>
			<input>
				<port id="0" precision="FP32">
					<dim>1</dim>
					<dim>1152</dim>
					<dim>7</dim>
					<dim>7</dim>
				</port>
			</input>
			<output>
				<port id="1" precision="FP32" names="model_1/model/re_lu_27/Relu6_model_1/model/batch_normalization_40/FusedBatchNormV3_model_1/model/depthwise_conv2d_13/depthwise_model_1/model/depthwise_conv2d_15/depthwise:0">
					<dim>1</dim>
					<dim>1152</dim>
					<dim>7</dim>
					<dim>7</dim>
				</port>
			</output>
		</layer>
		<layer id="200" name="Conv2D_27/filter" type="Const" version="opset1">
			<data element_type="f32" shape="192, 1152, 1, 1" offset="6556800" size="884736"/>
			<output>
				<port id="0" precision="FP32" names="Conv2D_27/filter:0">
					<dim>192</dim>
					<dim>1152</dim>
					<dim>1</dim>
					<dim>1</dim>
				</port>
			</output>
		</layer>
		<layer id="201" name="Conv2D_27" type="Convolution" version="opset1">
			<data strides="1, 1" dilations="1, 1" pads_begin="0, 0" pads_end="0, 0" auto_pad="same_upper"/>
			<input>
				<port id="0" precision="FP32">
					<dim>1</dim>
					<dim>1152</dim>
					<dim>7</dim>
					<dim>7</dim>
				</port>
				<port id="1" precision="FP32">
					<dim>192</dim>
					<dim>1152</dim>
					<dim>1</dim>
					<dim>1</dim>
				</port>
			</input>
			<output>
				<port id="2" precision="FP32" names="Conv2D_27:0">
					<dim>1</dim>
					<dim>192</dim>
					<dim>7</dim>
					<dim>7</dim>
				</port>
			</output>
		</layer>
		<layer id="202" name="model_1/model/batch_normalization_41/FusedBatchNormV3_model_1/model/conv2d_29/Conv2D_model_1/model/conv2d_27/Conv2D1/y" type="Const" version="opset1">
			<data element_type="f32" shape="1, 192, 1, 1" offset="7441536" size="768"/>
			<output>
				<port id="0" precision="FP32" names="model_1/model/batch_normalization_41/FusedBatchNormV3_model_1/model/conv2d_29/Conv2D_model_1/model/conv2d_27/Conv2D1/y:0">
					<dim>1</dim>
					<dim>192</dim>
					<dim>1</dim>
					<dim>1</dim>
				</port>
			</output>
		</layer>
		<layer id="203" name="model_1/model/batch_normalization_41/FusedBatchNormV3_model_1/model/conv2d_29/Conv2D_model_1/model/conv2d_27/Conv2D1" type="Add" version="opset1">
			<data auto_broadcast="numpy"/>
			<input>
				<port id="0" precision="FP32">
					<dim>1</dim>
					<dim>192</dim>
					<dim>7</dim>
					<dim>7</dim>
				</port>
				<port id="1" precision="FP32">
					<dim>1</dim>
					<dim>192</dim>
					<dim>1</dim>
					<dim>1</dim>
				</port>
			</input>
			<output>
				<port id="2" precision="FP32" names="model_1/model/batch_normalization_41/FusedBatchNormV3_model_1/model/conv2d_29/Conv2D_model_1/model/conv2d_27/Conv2D1:0">
					<dim>1</dim>
					<dim>192</dim>
					<dim>7</dim>
					<dim>7</dim>
				</port>
			</output>
		</layer>
		<layer id="204" name="model_1/model/add_7/add" type="Add" version="opset1">
			<data auto_broadcast="numpy"/>
			<input>
				<port id="0" precision="FP32">
					<dim>1</dim>
					<dim>192</dim>
					<dim>7</dim>
					<dim>7</dim>
				</port>
				<port id="1" precision="FP32">
					<dim>1</dim>
					<dim>192</dim>
					<dim>7</dim>
					<dim>7</dim>
				</port>
			</input>
			<output>
				<port id="2" precision="FP32" names="model_1/model/add_7/add:0">
					<dim>1</dim>
					<dim>192</dim>
					<dim>7</dim>
					<dim>7</dim>
				</port>
			</output>
		</layer>
		<layer id="205" name="Conv2D_28/filter" type="Const" version="opset1">
			<data element_type="f32" shape="1152, 192, 1, 1" offset="7442304" size="884736"/>
			<output>
				<port id="0" precision="FP32" names="Conv2D_28/filter:0">
					<dim>1152</dim>
					<dim>192</dim>
					<dim>1</dim>
					<dim>1</dim>
				</port>
			</output>
		</layer>
		<layer id="206" name="Conv2D_28" type="Convolution" version="opset1">
			<data strides="1, 1" dilations="1, 1" pads_begin="0, 0" pads_end="0, 0" auto_pad="same_upper"/>
			<input>
				<port id="0" precision="FP32">
					<dim>1</dim>
					<dim>192</dim>
					<dim>7</dim>
					<dim>7</dim>
				</port>
				<port id="1" precision="FP32">
					<dim>1152</dim>
					<dim>192</dim>
					<dim>1</dim>
					<dim>1</dim>
				</port>
			</input>
			<output>
				<port id="2" precision="FP32" names="Conv2D_28:0">
					<dim>1</dim>
					<dim>1152</dim>
					<dim>7</dim>
					<dim>7</dim>
				</port>
			</output>
		</layer>
		<layer id="207" name="Add_28/y" type="Const" version="opset1">
			<data element_type="f32" shape="1, 1152, 1, 1" offset="8327040" size="4608"/>
			<output>
				<port id="0" precision="FP32" names="Add_28/y:0">
					<dim>1</dim>
					<dim>1152</dim>
					<dim>1</dim>
					<dim>1</dim>
				</port>
			</output>
		</layer>
		<layer id="208" name="Add_28" type="Add" version="opset1">
			<data auto_broadcast="numpy"/>
			<input>
				<port id="0" precision="FP32">
					<dim>1</dim>
					<dim>1152</dim>
					<dim>7</dim>
					<dim>7</dim>
				</port>
				<port id="1" precision="FP32">
					<dim>1</dim>
					<dim>1152</dim>
					<dim>1</dim>
					<dim>1</dim>
				</port>
			</input>
			<output>
				<port id="2" precision="FP32" names="Add_28:0">
					<dim>1</dim>
					<dim>1152</dim>
					<dim>7</dim>
					<dim>7</dim>
				</port>
			</output>
		</layer>
		<layer id="209" name="model_1/model/re_lu_28/Relu6_model_1/model/batch_normalization_42/FusedBatchNormV3_model_1/model/batch_normalization_46/FusedBatchNormV3_model_1/model/depthwise_conv2d_15/depthwise_model_1/model/conv2d_28/Conv2D" type="Clamp" version="opset1">
			<data min="0" max="6"/>
			<input>
				<port id="0" precision="FP32">
					<dim>1</dim>
					<dim>1152</dim>
					<dim>7</dim>
					<dim>7</dim>
				</port>
			</input>
			<output>
				<port id="1" precision="FP32" names="model_1/model/re_lu_28/Relu6_model_1/model/batch_normalization_42/FusedBatchNormV3_model_1/model/batch_normalization_46/FusedBatchNormV3_model_1/model/depthwise_conv2d_15/depthwise_model_1/model/conv2d_28/Conv2D:0">
					<dim>1</dim>
					<dim>1152</dim>
					<dim>7</dim>
					<dim>7</dim>
				</port>
			</output>
		</layer>
		<layer id="210" name="depthwise_14/filter_in" type="Const" version="opset1">
			<data element_type="f32" shape="1152, 1, 1, 5, 5" offset="8331648" size="115200"/>
			<output>
				<port id="0" precision="FP32" names="depthwise_14/filter_in:0">
					<dim>1152</dim>
					<dim>1</dim>
					<dim>1</dim>
					<dim>5</dim>
					<dim>5</dim>
				</port>
			</output>
		</layer>
		<layer id="211" name="depthwise_14" type="GroupConvolution" version="opset1">
			<data strides="1, 1" pads_begin="2, 2" pads_end="2, 2" dilations="1, 1" auto_pad="same_upper"/>
			<input>
				<port id="0" precision="FP32">
					<dim>1</dim>
					<dim>1152</dim>
					<dim>7</dim>
					<dim>7</dim>
				</port>
				<port id="1" precision="FP32">
					<dim>1152</dim>
					<dim>1</dim>
					<dim>1</dim>
					<dim>5</dim>
					<dim>5</dim>
				</port>
			</input>
			<output>
				<port id="2" precision="FP32" names="depthwise_14:0">
					<dim>1</dim>
					<dim>1152</dim>
					<dim>7</dim>
					<dim>7</dim>
				</port>
			</output>
		</layer>
		<layer id="212" name="Add_29/y" type="Const" version="opset1">
			<data element_type="f32" shape="1, 1152, 1, 1" offset="8446848" size="4608"/>
			<output>
				<port id="0" precision="FP32" names="Add_29/y:0">
					<dim>1</dim>
					<dim>1152</dim>
					<dim>1</dim>
					<dim>1</dim>
				</port>
			</output>
		</layer>
		<layer id="213" name="Add_29" type="Add" version="opset1">
			<data auto_broadcast="numpy"/>
			<input>
				<port id="0" precision="FP32">
					<dim>1</dim>
					<dim>1152</dim>
					<dim>7</dim>
					<dim>7</dim>
				</port>
				<port id="1" precision="FP32">
					<dim>1</dim>
					<dim>1152</dim>
					<dim>1</dim>
					<dim>1</dim>
				</port>
			</input>
			<output>
				<port id="2" precision="FP32" names="Add_29:0">
					<dim>1</dim>
					<dim>1152</dim>
					<dim>7</dim>
					<dim>7</dim>
				</port>
			</output>
		</layer>
		<layer id="214" name="model_1/model/re_lu_29/Relu6_model_1/model/batch_normalization_43/FusedBatchNormV3_model_1/model/depthwise_conv2d_14/depthwise_model_1/model/depthwise_conv2d_15/depthwise" type="Clamp" version="opset1">
			<data min="0" max="6"/>
			<input>
				<port id="0" precision="FP32">
					<dim>1</dim>
					<dim>1152</dim>
					<dim>7</dim>
					<dim>7</dim>
				</port>
			</input>
			<output>
				<port id="1" precision="FP32" names="model_1/model/re_lu_29/Relu6_model_1/model/batch_normalization_43/FusedBatchNormV3_model_1/model/depthwise_conv2d_14/depthwise_model_1/model/depthwise_conv2d_15/depthwise:0">
					<dim>1</dim>
					<dim>1152</dim>
					<dim>7</dim>
					<dim>7</dim>
				</port>
			</output>
		</layer>
		<layer id="215" name="Conv2D_29/filter" type="Const" version="opset1">
			<data element_type="f32" shape="192, 1152, 1, 1" offset="8451456" size="884736"/>
			<output>
				<port id="0" precision="FP32" names="Conv2D_29/filter:0">
					<dim>192</dim>
					<dim>1152</dim>
					<dim>1</dim>
					<dim>1</dim>
				</port>
			</output>
		</layer>
		<layer id="216" name="Conv2D_29" type="Convolution" version="opset1">
			<data strides="1, 1" dilations="1, 1" pads_begin="0, 0" pads_end="0, 0" auto_pad="same_upper"/>
			<input>
				<port id="0" precision="FP32">
					<dim>1</dim>
					<dim>1152</dim>
					<dim>7</dim>
					<dim>7</dim>
				</port>
				<port id="1" precision="FP32">
					<dim>192</dim>
					<dim>1152</dim>
					<dim>1</dim>
					<dim>1</dim>
				</port>
			</input>
			<output>
				<port id="2" precision="FP32" names="Conv2D_29:0">
					<dim>1</dim>
					<dim>192</dim>
					<dim>7</dim>
					<dim>7</dim>
				</port>
			</output>
		</layer>
		<layer id="217" name="model_1/model/batch_normalization_44/FusedBatchNormV3_model_1/model/conv2d_29/Conv2D1/y" type="Const" version="opset1">
			<data element_type="f32" shape="1, 192, 1, 1" offset="9336192" size="768"/>
			<output>
				<port id="0" precision="FP32" names="model_1/model/batch_normalization_44/FusedBatchNormV3_model_1/model/conv2d_29/Conv2D1/y:0">
					<dim>1</dim>
					<dim>192</dim>
					<dim>1</dim>
					<dim>1</dim>
				</port>
			</output>
		</layer>
		<layer id="218" name="model_1/model/batch_normalization_44/FusedBatchNormV3_model_1/model/conv2d_29/Conv2D1" type="Add" version="opset1">
			<data auto_broadcast="numpy"/>
			<input>
				<port id="0" precision="FP32">
					<dim>1</dim>
					<dim>192</dim>
					<dim>7</dim>
					<dim>7</dim>
				</port>
				<port id="1" precision="FP32">
					<dim>1</dim>
					<dim>192</dim>
					<dim>1</dim>
					<dim>1</dim>
				</port>
			</input>
			<output>
				<port id="2" precision="FP32" names="model_1/model/batch_normalization_44/FusedBatchNormV3_model_1/model/conv2d_29/Conv2D1:0">
					<dim>1</dim>
					<dim>192</dim>
					<dim>7</dim>
					<dim>7</dim>
				</port>
			</output>
		</layer>
		<layer id="219" name="model_1/model/add_8/add" type="Add" version="opset1">
			<data auto_broadcast="numpy"/>
			<input>
				<port id="0" precision="FP32">
					<dim>1</dim>
					<dim>192</dim>
					<dim>7</dim>
					<dim>7</dim>
				</port>
				<port id="1" precision="FP32">
					<dim>1</dim>
					<dim>192</dim>
					<dim>7</dim>
					<dim>7</dim>
				</port>
			</input>
			<output>
				<port id="2" precision="FP32" names="model_1/model/add_8/add:0">
					<dim>1</dim>
					<dim>192</dim>
					<dim>7</dim>
					<dim>7</dim>
				</port>
			</output>
		</layer>
		<layer id="220" name="Conv2D_30/filter" type="Const" version="opset1">
			<data element_type="f32" shape="1152, 192, 1, 1" offset="9336960" size="884736"/>
			<output>
				<port id="0" precision="FP32" names="Conv2D_30/filter:0">
					<dim>1152</dim>
					<dim>192</dim>
					<dim>1</dim>
					<dim>1</dim>
				</port>
			</output>
		</layer>
		<layer id="221" name="Conv2D_30" type="Convolution" version="opset1">
			<data strides="1, 1" dilations="1, 1" pads_begin="0, 0" pads_end="0, 0" auto_pad="same_upper"/>
			<input>
				<port id="0" precision="FP32">
					<dim>1</dim>
					<dim>192</dim>
					<dim>7</dim>
					<dim>7</dim>
				</port>
				<port id="1" precision="FP32">
					<dim>1152</dim>
					<dim>192</dim>
					<dim>1</dim>
					<dim>1</dim>
				</port>
			</input>
			<output>
				<port id="2" precision="FP32" names="Conv2D_30:0">
					<dim>1</dim>
					<dim>1152</dim>
					<dim>7</dim>
					<dim>7</dim>
				</port>
			</output>
		</layer>
		<layer id="222" name="Add_30/y" type="Const" version="opset1">
			<data element_type="f32" shape="1, 1152, 1, 1" offset="10221696" size="4608"/>
			<output>
				<port id="0" precision="FP32" names="Add_30/y:0">
					<dim>1</dim>
					<dim>1152</dim>
					<dim>1</dim>
					<dim>1</dim>
				</port>
			</output>
		</layer>
		<layer id="223" name="Add_30" type="Add" version="opset1">
			<data auto_broadcast="numpy"/>
			<input>
				<port id="0" precision="FP32">
					<dim>1</dim>
					<dim>1152</dim>
					<dim>7</dim>
					<dim>7</dim>
				</port>
				<port id="1" precision="FP32">
					<dim>1</dim>
					<dim>1152</dim>
					<dim>1</dim>
					<dim>1</dim>
				</port>
			</input>
			<output>
				<port id="2" precision="FP32" names="Add_30:0">
					<dim>1</dim>
					<dim>1152</dim>
					<dim>7</dim>
					<dim>7</dim>
				</port>
			</output>
		</layer>
		<layer id="224" name="model_1/model/re_lu_30/Relu6_model_1/model/batch_normalization_45/FusedBatchNormV3_model_1/model/batch_normalization_46/FusedBatchNormV3_model_1/model/depthwise_conv2d_15/depthwise_model_1/model/conv2d_30/Conv2D" type="Clamp" version="opset1">
			<data min="0" max="6"/>
			<input>
				<port id="0" precision="FP32">
					<dim>1</dim>
					<dim>1152</dim>
					<dim>7</dim>
					<dim>7</dim>
				</port>
			</input>
			<output>
				<port id="1" precision="FP32" names="model_1/model/re_lu_30/Relu6_model_1/model/batch_normalization_45/FusedBatchNormV3_model_1/model/batch_normalization_46/FusedBatchNormV3_model_1/model/depthwise_conv2d_15/depthwise_model_1/model/conv2d_30/Conv2D:0">
					<dim>1</dim>
					<dim>1152</dim>
					<dim>7</dim>
					<dim>7</dim>
				</port>
			</output>
		</layer>
		<layer id="225" name="depthwise_15/filter_in" type="Const" version="opset1">
			<data element_type="f32" shape="1152, 1, 1, 3, 3" offset="10226304" size="41472"/>
			<output>
				<port id="0" precision="FP32" names="depthwise_15/filter_in:0">
					<dim>1152</dim>
					<dim>1</dim>
					<dim>1</dim>
					<dim>3</dim>
					<dim>3</dim>
				</port>
			</output>
		</layer>
		<layer id="226" name="depthwise_15" type="GroupConvolution" version="opset1">
			<data strides="1, 1" pads_begin="1, 1" pads_end="1, 1" dilations="1, 1" auto_pad="same_upper"/>
			<input>
				<port id="0" precision="FP32">
					<dim>1</dim>
					<dim>1152</dim>
					<dim>7</dim>
					<dim>7</dim>
				</port>
				<port id="1" precision="FP32">
					<dim>1152</dim>
					<dim>1</dim>
					<dim>1</dim>
					<dim>3</dim>
					<dim>3</dim>
				</port>
			</input>
			<output>
				<port id="2" precision="FP32" names="depthwise_15:0">
					<dim>1</dim>
					<dim>1152</dim>
					<dim>7</dim>
					<dim>7</dim>
				</port>
			</output>
		</layer>
		<layer id="227" name="Add_31/y" type="Const" version="opset1">
			<data element_type="f32" shape="1, 1152, 1, 1" offset="10267776" size="4608"/>
			<output>
				<port id="0" precision="FP32" names="Add_31/y:0">
					<dim>1</dim>
					<dim>1152</dim>
					<dim>1</dim>
					<dim>1</dim>
				</port>
			</output>
		</layer>
		<layer id="228" name="Add_31" type="Add" version="opset1">
			<data auto_broadcast="numpy"/>
			<input>
				<port id="0" precision="FP32">
					<dim>1</dim>
					<dim>1152</dim>
					<dim>7</dim>
					<dim>7</dim>
				</port>
				<port id="1" precision="FP32">
					<dim>1</dim>
					<dim>1152</dim>
					<dim>1</dim>
					<dim>1</dim>
				</port>
			</input>
			<output>
				<port id="2" precision="FP32" names="Add_31:0">
					<dim>1</dim>
					<dim>1152</dim>
					<dim>7</dim>
					<dim>7</dim>
				</port>
			</output>
		</layer>
		<layer id="229" name="model_1/model/re_lu_31/Relu6_model_1/model/batch_normalization_46/FusedBatchNormV3_model_1/model/depthwise_conv2d_15/depthwise" type="Clamp" version="opset1">
			<data min="0" max="6"/>
			<input>
				<port id="0" precision="FP32">
					<dim>1</dim>
					<dim>1152</dim>
					<dim>7</dim>
					<dim>7</dim>
				</port>
			</input>
			<output>
				<port id="1" precision="FP32">
					<dim>1</dim>
					<dim>1152</dim>
					<dim>7</dim>
					<dim>7</dim>
				</port>
			</output>
		</layer>
		<layer id="230" name="model_1/model/global_average_pooling2d/MeanGather934312624" type="Const" version="opset1">
			<data element_type="i64" shape="2" offset="10272384" size="16"/>
			<output>
				<port id="0" precision="I64">
					<dim>2</dim>
				</port>
			</output>
		</layer>
		<layer id="231" name="model_1/model/global_average_pooling2d/Mean" type="ReduceMean" version="opset1">
			<data keep_dims="false"/>
			<input>
				<port id="0" precision="FP32">
					<dim>1</dim>
					<dim>1152</dim>
					<dim>7</dim>
					<dim>7</dim>
				</port>
				<port id="1" precision="I64">
					<dim>2</dim>
				</port>
			</input>
			<output>
				<port id="2" precision="FP32" names="model_1/model/global_average_pooling2d/Mean:0">
					<dim>1</dim>
					<dim>1152</dim>
				</port>
			</output>
		</layer>
		<layer id="232" name="Identity_dense/MatMul/ReadVariableOp" type="Const" version="opset1">
			<data element_type="f32" shape="63, 1152" offset="10272400" size="290304"/>
			<output>
				<port id="0" precision="FP32" names="Identity_dense/MatMul/ReadVariableOp:0">
					<dim>63</dim>
					<dim>1152</dim>
				</port>
			</output>
		</layer>
		<layer id="233" name="Identity_dense/MatMul" type="MatMul" version="opset1">
			<data transpose_a="false" transpose_b="true"/>
			<input>
				<port id="0" precision="FP32">
					<dim>1</dim>
					<dim>1152</dim>
				</port>
				<port id="1" precision="FP32">
					<dim>63</dim>
					<dim>1152</dim>
				</port>
			</input>
			<output>
				<port id="2" precision="FP32" names="Identity_dense/MatMul:0">
					<dim>1</dim>
					<dim>63</dim>
				</port>
			</output>
		</layer>
		<layer id="234" name="Identity_dense/BiasAdd/ReadVariableOp" type="Const" version="opset1">
			<data element_type="f32" shape="1, 63" offset="10562704" size="252"/>
			<output>
				<port id="0" precision="FP32" names="Identity_dense/BiasAdd/ReadVariableOp:0">
					<dim>1</dim>
					<dim>63</dim>
				</port>
			</output>
		</layer>
		<layer id="235" name="Identity_dense/BiasAdd/Add" type="Add" version="opset1">
			<data auto_broadcast="numpy"/>
			<input>
				<port id="0" precision="FP32">
					<dim>1</dim>
					<dim>63</dim>
				</port>
				<port id="1" precision="FP32">
					<dim>1</dim>
					<dim>63</dim>
				</port>
			</input>
			<output>
				<port id="2" precision="FP32" names="Identity:0,Identity_dense/BiasAdd:0">
					<dim>1</dim>
					<dim>63</dim>
				</port>
			</output>
		</layer>
		<layer id="236" name="Identity:0" type="Result" version="opset1">
			<input>
				<port id="0" precision="FP32">
					<dim>1</dim>
					<dim>63</dim>
				</port>
			</input>
		</layer>
		<layer id="237" name="Identity_3_dense/MatMul/ReadVariableOp" type="Const" version="opset1">
			<data element_type="f32" shape="63, 1152" offset="10562956" size="290304"/>
			<output>
				<port id="0" precision="FP32" names="Identity_3_dense/MatMul/ReadVariableOp:0">
					<dim>63</dim>
					<dim>1152</dim>
				</port>
			</output>
		</layer>
		<layer id="238" name="Identity_3_dense/MatMul" type="MatMul" version="opset1">
			<data transpose_a="false" transpose_b="true"/>
			<input>
				<port id="0" precision="FP32">
					<dim>1</dim>
					<dim>1152</dim>
				</port>
				<port id="1" precision="FP32">
					<dim>63</dim>
					<dim>1152</dim>
				</port>
			</input>
			<output>
				<port id="2" precision="FP32" names="Identity_3_dense/MatMul:0">
					<dim>1</dim>
					<dim>63</dim>
				</port>
			</output>
		</layer>
		<layer id="239" name="Identity_3_dense/BiasAdd/ReadVariableOp" type="Const" version="opset1">
			<data element_type="f32" shape="1, 63" offset="10853260" size="252"/>
			<output>
				<port id="0" precision="FP32" names="Identity_3_dense/BiasAdd/ReadVariableOp:0">
					<dim>1</dim>
					<dim>63</dim>
				</port>
			</output>
		</layer>
		<layer id="240" name="Identity_3_dense/BiasAdd/Add" type="Add" version="opset1">
			<data auto_broadcast="numpy"/>
			<input>
				<port id="0" precision="FP32">
					<dim>1</dim>
					<dim>63</dim>
				</port>
				<port id="1" precision="FP32">
					<dim>1</dim>
					<dim>63</dim>
				</port>
			</input>
			<output>
				<port id="2" precision="FP32" names="Identity_3:0,Identity_3_dense/BiasAdd:0">
					<dim>1</dim>
					<dim>63</dim>
				</port>
			</output>
		</layer>
		<layer id="241" name="Identity_3:0" type="Result" version="opset1">
			<input>
				<port id="0" precision="FP32">
					<dim>1</dim>
					<dim>63</dim>
				</port>
			</input>
		</layer>
		<layer id="242" name="model_1/model/conv_handedness/MatMul_model_1/model/conv_handedness/BiasAdd_dense/MatMul/ReadVariableOp" type="Const" version="opset1">
			<data element_type="f32" shape="1, 1152" offset="10853512" size="4608"/>
			<output>
				<port id="0" precision="FP32" names="model_1/model/conv_handedness/MatMul_model_1/model/conv_handedness/BiasAdd_dense/MatMul/ReadVariableOp:0">
					<dim>1</dim>
					<dim>1152</dim>
				</port>
			</output>
		</layer>
		<layer id="243" name="model_1/model/conv_handedness/MatMul_model_1/model/conv_handedness/BiasAdd_dense/MatMul" type="MatMul" version="opset1">
			<data transpose_a="false" transpose_b="true"/>
			<input>
				<port id="0" precision="FP32">
					<dim>1</dim>
					<dim>1152</dim>
				</port>
				<port id="1" precision="FP32">
					<dim>1</dim>
					<dim>1152</dim>
				</port>
			</input>
			<output>
				<port id="2" precision="FP32" names="model_1/model/conv_handedness/MatMul_model_1/model/conv_handedness/BiasAdd_dense/MatMul:0">
					<dim>1</dim>
					<dim>1</dim>
				</port>
			</output>
		</layer>
		<layer id="244" name="model_1/model/conv_handedness/MatMul_model_1/model/conv_handedness/BiasAdd_dense/BiasAdd/ReadVariableOp" type="Const" version="opset1">
			<data element_type="f32" shape="1, 1" offset="10858120" size="4"/>
			<output>
				<port id="0" precision="FP32" names="model_1/model/conv_handedness/MatMul_model_1/model/conv_handedness/BiasAdd_dense/BiasAdd/ReadVariableOp:0">
					<dim>1</dim>
					<dim>1</dim>
				</port>
			</output>
		</layer>
		<layer id="245" name="model_1/model/conv_handedness/MatMul_model_1/model/conv_handedness/BiasAdd_dense/BiasAdd/Add" type="Add" version="opset1">
			<data auto_broadcast="numpy"/>
			<input>
				<port id="0" precision="FP32">
					<dim>1</dim>
					<dim>1</dim>
				</port>
				<port id="1" precision="FP32">
					<dim>1</dim>
					<dim>1</dim>
				</port>
			</input>
			<output>
				<port id="2" precision="FP32" names="model_1/model/conv_handedness/MatMul_model_1/model/conv_handedness/BiasAdd:0,model_1/model/conv_handedness/MatMul_model_1/model/conv_handedness/BiasAdd_dense/BiasAdd:0">
					<dim>1</dim>
					<dim>1</dim>
				</port>
			</output>
		</layer>
		<layer id="246" name="Identity_2" type="Sigmoid" version="opset1">
			<input>
				<port id="0" precision="FP32">
					<dim>1</dim>
					<dim>1</dim>
				</port>
			</input>
			<output>
				<port id="1" precision="FP32" names="Identity_2:0">
					<dim>1</dim>
					<dim>1</dim>
				</port>
			</output>
		</layer>
		<layer id="247" name="Identity_2:0" type="Result" version="opset1">
			<input>
				<port id="0" precision="FP32">
					<dim>1</dim>
					<dim>1</dim>
				</port>
			</input>
		</layer>
		<layer id="248" name="model_1/model/conv_handflag/MatMul_model_1/model/conv_handflag/BiasAdd_dense/MatMul/ReadVariableOp" type="Const" version="opset1">
			<data element_type="f32" shape="1, 1152" offset="10858124" size="4608"/>
			<output>
				<port id="0" precision="FP32" names="model_1/model/conv_handflag/MatMul_model_1/model/conv_handflag/BiasAdd_dense/MatMul/ReadVariableOp:0">
					<dim>1</dim>
					<dim>1152</dim>
				</port>
			</output>
		</layer>
		<layer id="249" name="model_1/model/conv_handflag/MatMul_model_1/model/conv_handflag/BiasAdd_dense/MatMul" type="MatMul" version="opset1">
			<data transpose_a="false" transpose_b="true"/>
			<input>
				<port id="0" precision="FP32">
					<dim>1</dim>
					<dim>1152</dim>
				</port>
				<port id="1" precision="FP32">
					<dim>1</dim>
					<dim>1152</dim>
				</port>
			</input>
			<output>
				<port id="2" precision="FP32" names="model_1/model/conv_handflag/MatMul_model_1/model/conv_handflag/BiasAdd_dense/MatMul:0">
					<dim>1</dim>
					<dim>1</dim>
				</port>
			</output>
		</layer>
		<layer id="250" name="model_1/model/conv_handflag/MatMul_model_1/model/conv_handflag/BiasAdd_dense/BiasAdd/ReadVariableOp" type="Const" version="opset1">
			<data element_type="f32" shape="1, 1" offset="10862732" size="4"/>
			<output>
				<port id="0" precision="FP32" names="model_1/model/conv_handflag/MatMul_model_1/model/conv_handflag/BiasAdd_dense/BiasAdd/ReadVariableOp:0">
					<dim>1</dim>
					<dim>1</dim>
				</port>
			</output>
		</layer>
		<layer id="251" name="model_1/model/conv_handflag/MatMul_model_1/model/conv_handflag/BiasAdd_dense/BiasAdd/Add" type="Add" version="opset1">
			<data auto_broadcast="numpy"/>
			<input>
				<port id="0" precision="FP32">
					<dim>1</dim>
					<dim>1</dim>
				</port>
				<port id="1" precision="FP32">
					<dim>1</dim>
					<dim>1</dim>
				</port>
			</input>
			<output>
				<port id="2" precision="FP32" names="model_1/model/conv_handflag/MatMul_model_1/model/conv_handflag/BiasAdd:0,model_1/model/conv_handflag/MatMul_model_1/model/conv_handflag/BiasAdd_dense/BiasAdd:0">
					<dim>1</dim>
					<dim>1</dim>
				</port>
			</output>
		</layer>
		<layer id="252" name="Identity_1" type="Sigmoid" version="opset1">
			<input>
				<port id="0" precision="FP32">
					<dim>1</dim>
					<dim>1</dim>
				</port>
			</input>
			<output>
				<port id="1" precision="FP32" names="Identity_1:0">
					<dim>1</dim>
					<dim>1</dim>
				</port>
			</output>
		</layer>
		<layer id="253" name="Identity_1:0" type="Result" version="opset1">
			<input>
				<port id="0" precision="FP32">
					<dim>1</dim>
					<dim>1</dim>
				</port>
			</input>
		</layer>
	</layers>
	<edges>
		<edge from-layer="0" from-port="0" to-layer="2" to-port="0"/>
		<edge from-layer="1" from-port="0" to-layer="2" to-port="1"/>
		<edge from-layer="2" from-port="2" to-layer="4" to-port="0"/>
		<edge from-layer="3" from-port="0" to-layer="4" to-port="1"/>
		<edge from-layer="4" from-port="2" to-layer="5" to-port="0"/>
		<edge from-layer="5" from-port="1" to-layer="7" to-port="0"/>
		<edge from-layer="6" from-port="0" to-layer="7" to-port="1"/>
		<edge from-layer="7" from-port="2" to-layer="9" to-port="0"/>
		<edge from-layer="8" from-port="0" to-layer="9" to-port="1"/>
		<edge from-layer="9" from-port="2" to-layer="10" to-port="0"/>
		<edge from-layer="10" from-port="1" to-layer="12" to-port="0"/>
		<edge from-layer="11" from-port="0" to-layer="12" to-port="1"/>
		<edge from-layer="12" from-port="2" to-layer="14" to-port="0"/>
		<edge from-layer="13" from-port="0" to-layer="14" to-port="1"/>
		<edge from-layer="14" from-port="2" to-layer="16" to-port="0"/>
		<edge from-layer="15" from-port="0" to-layer="16" to-port="1"/>
		<edge from-layer="16" from-port="2" to-layer="18" to-port="0"/>
		<edge from-layer="17" from-port="0" to-layer="18" to-port="1"/>
		<edge from-layer="18" from-port="2" to-layer="19" to-port="0"/>
		<edge from-layer="19" from-port="1" to-layer="21" to-port="0"/>
		<edge from-layer="20" from-port="0" to-layer="21" to-port="1"/>
		<edge from-layer="21" from-port="2" to-layer="23" to-port="0"/>
		<edge from-layer="22" from-port="0" to-layer="23" to-port="1"/>
		<edge from-layer="23" from-port="2" to-layer="24" to-port="0"/>
		<edge from-layer="24" from-port="1" to-layer="26" to-port="0"/>
		<edge from-layer="25" from-port="0" to-layer="26" to-port="1"/>
		<edge from-layer="26" from-port="2" to-layer="28" to-port="0"/>
		<edge from-layer="27" from-port="0" to-layer="28" to-port="1"/>
		<edge from-layer="28" from-port="2" to-layer="43" to-port="1"/>
		<edge from-layer="28" from-port="2" to-layer="30" to-port="0"/>
		<edge from-layer="29" from-port="0" to-layer="30" to-port="1"/>
		<edge from-layer="30" from-port="2" to-layer="32" to-port="0"/>
		<edge from-layer="31" from-port="0" to-layer="32" to-port="1"/>
		<edge from-layer="32" from-port="2" to-layer="33" to-port="0"/>
		<edge from-layer="33" from-port="1" to-layer="35" to-port="0"/>
		<edge from-layer="34" from-port="0" to-layer="35" to-port="1"/>
		<edge from-layer="35" from-port="2" to-layer="37" to-port="0"/>
		<edge from-layer="36" from-port="0" to-layer="37" to-port="1"/>
		<edge from-layer="37" from-port="2" to-layer="38" to-port="0"/>
		<edge from-layer="38" from-port="1" to-layer="40" to-port="0"/>
		<edge from-layer="39" from-port="0" to-layer="40" to-port="1"/>
		<edge from-layer="40" from-port="2" to-layer="42" to-port="0"/>
		<edge from-layer="41" from-port="0" to-layer="42" to-port="1"/>
		<edge from-layer="42" from-port="2" to-layer="43" to-port="0"/>
		<edge from-layer="43" from-port="2" to-layer="45" to-port="0"/>
		<edge from-layer="44" from-port="0" to-layer="45" to-port="1"/>
		<edge from-layer="45" from-port="2" to-layer="47" to-port="0"/>
		<edge from-layer="46" from-port="0" to-layer="47" to-port="1"/>
		<edge from-layer="47" from-port="2" to-layer="48" to-port="0"/>
		<edge from-layer="48" from-port="1" to-layer="50" to-port="0"/>
		<edge from-layer="49" from-port="0" to-layer="50" to-port="1"/>
		<edge from-layer="50" from-port="2" to-layer="52" to-port="0"/>
		<edge from-layer="51" from-port="0" to-layer="52" to-port="1"/>
		<edge from-layer="52" from-port="2" to-layer="53" to-port="0"/>
		<edge from-layer="53" from-port="1" to-layer="55" to-port="0"/>
		<edge from-layer="54" from-port="0" to-layer="55" to-port="1"/>
		<edge from-layer="55" from-port="2" to-layer="57" to-port="0"/>
		<edge from-layer="56" from-port="0" to-layer="57" to-port="1"/>
		<edge from-layer="57" from-port="2" to-layer="59" to-port="0"/>
		<edge from-layer="57" from-port="2" to-layer="72" to-port="1"/>
		<edge from-layer="58" from-port="0" to-layer="59" to-port="1"/>
		<edge from-layer="59" from-port="2" to-layer="61" to-port="0"/>
		<edge from-layer="60" from-port="0" to-layer="61" to-port="1"/>
		<edge from-layer="61" from-port="2" to-layer="62" to-port="0"/>
		<edge from-layer="62" from-port="1" to-layer="64" to-port="0"/>
		<edge from-layer="63" from-port="0" to-layer="64" to-port="1"/>
		<edge from-layer="64" from-port="2" to-layer="66" to-port="0"/>
		<edge from-layer="65" from-port="0" to-layer="66" to-port="1"/>
		<edge from-layer="66" from-port="2" to-layer="67" to-port="0"/>
		<edge from-layer="67" from-port="1" to-layer="69" to-port="0"/>
		<edge from-layer="68" from-port="0" to-layer="69" to-port="1"/>
		<edge from-layer="69" from-port="2" to-layer="71" to-port="0"/>
		<edge from-layer="70" from-port="0" to-layer="71" to-port="1"/>
		<edge from-layer="71" from-port="2" to-layer="72" to-port="0"/>
		<edge from-layer="72" from-port="2" to-layer="74" to-port="0"/>
		<edge from-layer="73" from-port="0" to-layer="74" to-port="1"/>
		<edge from-layer="74" from-port="2" to-layer="76" to-port="0"/>
		<edge from-layer="75" from-port="0" to-layer="76" to-port="1"/>
		<edge from-layer="76" from-port="2" to-layer="77" to-port="0"/>
		<edge from-layer="77" from-port="1" to-layer="79" to-port="0"/>
		<edge from-layer="78" from-port="0" to-layer="79" to-port="1"/>
		<edge from-layer="79" from-port="2" to-layer="81" to-port="0"/>
		<edge from-layer="80" from-port="0" to-layer="81" to-port="1"/>
		<edge from-layer="81" from-port="2" to-layer="82" to-port="0"/>
		<edge from-layer="82" from-port="1" to-layer="84" to-port="0"/>
		<edge from-layer="83" from-port="0" to-layer="84" to-port="1"/>
		<edge from-layer="84" from-port="2" to-layer="86" to-port="0"/>
		<edge from-layer="85" from-port="0" to-layer="86" to-port="1"/>
		<edge from-layer="86" from-port="2" to-layer="88" to-port="0"/>
		<edge from-layer="86" from-port="2" to-layer="101" to-port="1"/>
		<edge from-layer="87" from-port="0" to-layer="88" to-port="1"/>
		<edge from-layer="88" from-port="2" to-layer="90" to-port="0"/>
		<edge from-layer="89" from-port="0" to-layer="90" to-port="1"/>
		<edge from-layer="90" from-port="2" to-layer="91" to-port="0"/>
		<edge from-layer="91" from-port="1" to-layer="93" to-port="0"/>
		<edge from-layer="92" from-port="0" to-layer="93" to-port="1"/>
		<edge from-layer="93" from-port="2" to-layer="95" to-port="0"/>
		<edge from-layer="94" from-port="0" to-layer="95" to-port="1"/>
		<edge from-layer="95" from-port="2" to-layer="96" to-port="0"/>
		<edge from-layer="96" from-port="1" to-layer="98" to-port="0"/>
		<edge from-layer="97" from-port="0" to-layer="98" to-port="1"/>
		<edge from-layer="98" from-port="2" to-layer="100" to-port="0"/>
		<edge from-layer="99" from-port="0" to-layer="100" to-port="1"/>
		<edge from-layer="100" from-port="2" to-layer="101" to-port="0"/>
		<edge from-layer="101" from-port="2" to-layer="116" to-port="1"/>
		<edge from-layer="101" from-port="2" to-layer="103" to-port="0"/>
		<edge from-layer="102" from-port="0" to-layer="103" to-port="1"/>
		<edge from-layer="103" from-port="2" to-layer="105" to-port="0"/>
		<edge from-layer="104" from-port="0" to-layer="105" to-port="1"/>
		<edge from-layer="105" from-port="2" to-layer="106" to-port="0"/>
		<edge from-layer="106" from-port="1" to-layer="108" to-port="0"/>
		<edge from-layer="107" from-port="0" to-layer="108" to-port="1"/>
		<edge from-layer="108" from-port="2" to-layer="110" to-port="0"/>
		<edge from-layer="109" from-port="0" to-layer="110" to-port="1"/>
		<edge from-layer="110" from-port="2" to-layer="111" to-port="0"/>
		<edge from-layer="111" from-port="1" to-layer="113" to-port="0"/>
		<edge from-layer="112" from-port="0" to-layer="113" to-port="1"/>
		<edge from-layer="113" from-port="2" to-layer="115" to-port="0"/>
		<edge from-layer="114" from-port="0" to-layer="115" to-port="1"/>
		<edge from-layer="115" from-port="2" to-layer="116" to-port="0"/>
		<edge from-layer="116" from-port="2" to-layer="118" to-port="0"/>
		<edge from-layer="117" from-port="0" to-layer="118" to-port="1"/>
		<edge from-layer="118" from-port="2" to-layer="120" to-port="0"/>
		<edge from-layer="119" from-port="0" to-layer="120" to-port="1"/>
		<edge from-layer="120" from-port="2" to-layer="121" to-port="0"/>
		<edge from-layer="121" from-port="1" to-layer="123" to-port="0"/>
		<edge from-layer="122" from-port="0" to-layer="123" to-port="1"/>
		<edge from-layer="123" from-port="2" to-layer="125" to-port="0"/>
		<edge from-layer="124" from-port="0" to-layer="125" to-port="1"/>
		<edge from-layer="125" from-port="2" to-layer="126" to-port="0"/>
		<edge from-layer="126" from-port="1" to-layer="128" to-port="0"/>
		<edge from-layer="127" from-port="0" to-layer="128" to-port="1"/>
		<edge from-layer="128" from-port="2" to-layer="130" to-port="0"/>
		<edge from-layer="129" from-port="0" to-layer="130" to-port="1"/>
		<edge from-layer="130" from-port="2" to-layer="132" to-port="0"/>
		<edge from-layer="130" from-port="2" to-layer="145" to-port="1"/>
		<edge from-layer="131" from-port="0" to-layer="132" to-port="1"/>
		<edge from-layer="132" from-port="2" to-layer="134" to-port="0"/>
		<edge from-layer="133" from-port="0" to-layer="134" to-port="1"/>
		<edge from-layer="134" from-port="2" to-layer="135" to-port="0"/>
		<edge from-layer="135" from-port="1" to-layer="137" to-port="0"/>
		<edge from-layer="136" from-port="0" to-layer="137" to-port="1"/>
		<edge from-layer="137" from-port="2" to-layer="139" to-port="0"/>
		<edge from-layer="138" from-port="0" to-layer="139" to-port="1"/>
		<edge from-layer="139" from-port="2" to-layer="140" to-port="0"/>
		<edge from-layer="140" from-port="1" to-layer="142" to-port="0"/>
		<edge from-layer="141" from-port="0" to-layer="142" to-port="1"/>
		<edge from-layer="142" from-port="2" to-layer="144" to-port="0"/>
		<edge from-layer="143" from-port="0" to-layer="144" to-port="1"/>
		<edge from-layer="144" from-port="2" to-layer="145" to-port="0"/>
		<edge from-layer="145" from-port="2" to-layer="160" to-port="1"/>
		<edge from-layer="145" from-port="2" to-layer="147" to-port="0"/>
		<edge from-layer="146" from-port="0" to-layer="147" to-port="1"/>
		<edge from-layer="147" from-port="2" to-layer="149" to-port="0"/>
		<edge from-layer="148" from-port="0" to-layer="149" to-port="1"/>
		<edge from-layer="149" from-port="2" to-layer="150" to-port="0"/>
		<edge from-layer="150" from-port="1" to-layer="152" to-port="0"/>
		<edge from-layer="151" from-port="0" to-layer="152" to-port="1"/>
		<edge from-layer="152" from-port="2" to-layer="154" to-port="0"/>
		<edge from-layer="153" from-port="0" to-layer="154" to-port="1"/>
		<edge from-layer="154" from-port="2" to-layer="155" to-port="0"/>
		<edge from-layer="155" from-port="1" to-layer="157" to-port="0"/>
		<edge from-layer="156" from-port="0" to-layer="157" to-port="1"/>
		<edge from-layer="157" from-port="2" to-layer="159" to-port="0"/>
		<edge from-layer="158" from-port="0" to-layer="159" to-port="1"/>
		<edge from-layer="159" from-port="2" to-layer="160" to-port="0"/>
		<edge from-layer="160" from-port="2" to-layer="162" to-port="0"/>
		<edge from-layer="161" from-port="0" to-layer="162" to-port="1"/>
		<edge from-layer="162" from-port="2" to-layer="164" to-port="0"/>
		<edge from-layer="163" from-port="0" to-layer="164" to-port="1"/>
		<edge from-layer="164" from-port="2" to-layer="165" to-port="0"/>
		<edge from-layer="165" from-port="1" to-layer="167" to-port="0"/>
		<edge from-layer="166" from-port="0" to-layer="167" to-port="1"/>
		<edge from-layer="167" from-port="2" to-layer="169" to-port="0"/>
		<edge from-layer="168" from-port="0" to-layer="169" to-port="1"/>
		<edge from-layer="169" from-port="2" to-layer="170" to-port="0"/>
		<edge from-layer="170" from-port="1" to-layer="172" to-port="0"/>
		<edge from-layer="171" from-port="0" to-layer="172" to-port="1"/>
		<edge from-layer="172" from-port="2" to-layer="174" to-port="0"/>
		<edge from-layer="173" from-port="0" to-layer="174" to-port="1"/>
		<edge from-layer="174" from-port="2" to-layer="176" to-port="0"/>
		<edge from-layer="174" from-port="2" to-layer="189" to-port="1"/>
		<edge from-layer="175" from-port="0" to-layer="176" to-port="1"/>
		<edge from-layer="176" from-port="2" to-layer="178" to-port="0"/>
		<edge from-layer="177" from-port="0" to-layer="178" to-port="1"/>
		<edge from-layer="178" from-port="2" to-layer="179" to-port="0"/>
		<edge from-layer="179" from-port="1" to-layer="181" to-port="0"/>
		<edge from-layer="180" from-port="0" to-layer="181" to-port="1"/>
		<edge from-layer="181" from-port="2" to-layer="183" to-port="0"/>
		<edge from-layer="182" from-port="0" to-layer="183" to-port="1"/>
		<edge from-layer="183" from-port="2" to-layer="184" to-port="0"/>
		<edge from-layer="184" from-port="1" to-layer="186" to-port="0"/>
		<edge from-layer="185" from-port="0" to-layer="186" to-port="1"/>
		<edge from-layer="186" from-port="2" to-layer="188" to-port="0"/>
		<edge from-layer="187" from-port="0" to-layer="188" to-port="1"/>
		<edge from-layer="188" from-port="2" to-layer="189" to-port="0"/>
		<edge from-layer="189" from-port="2" to-layer="191" to-port="0"/>
		<edge from-layer="189" from-port="2" to-layer="204" to-port="1"/>
		<edge from-layer="190" from-port="0" to-layer="191" to-port="1"/>
		<edge from-layer="191" from-port="2" to-layer="193" to-port="0"/>
		<edge from-layer="192" from-port="0" to-layer="193" to-port="1"/>
		<edge from-layer="193" from-port="2" to-layer="194" to-port="0"/>
		<edge from-layer="194" from-port="1" to-layer="196" to-port="0"/>
		<edge from-layer="195" from-port="0" to-layer="196" to-port="1"/>
		<edge from-layer="196" from-port="2" to-layer="198" to-port="0"/>
		<edge from-layer="197" from-port="0" to-layer="198" to-port="1"/>
		<edge from-layer="198" from-port="2" to-layer="199" to-port="0"/>
		<edge from-layer="199" from-port="1" to-layer="201" to-port="0"/>
		<edge from-layer="200" from-port="0" to-layer="201" to-port="1"/>
		<edge from-layer="201" from-port="2" to-layer="203" to-port="0"/>
		<edge from-layer="202" from-port="0" to-layer="203" to-port="1"/>
		<edge from-layer="203" from-port="2" to-layer="204" to-port="0"/>
		<edge from-layer="204" from-port="2" to-layer="206" to-port="0"/>
		<edge from-layer="204" from-port="2" to-layer="219" to-port="1"/>
		<edge from-layer="205" from-port="0" to-layer="206" to-port="1"/>
		<edge from-layer="206" from-port="2" to-layer="208" to-port="0"/>
		<edge from-layer="207" from-port="0" to-layer="208" to-port="1"/>
		<edge from-layer="208" from-port="2" to-layer="209" to-port="0"/>
		<edge from-layer="209" from-port="1" to-layer="211" to-port="0"/>
		<edge from-layer="210" from-port="0" to-layer="211" to-port="1"/>
		<edge from-layer="211" from-port="2" to-layer="213" to-port="0"/>
		<edge from-layer="212" from-port="0" to-layer="213" to-port="1"/>
		<edge from-layer="213" from-port="2" to-layer="214" to-port="0"/>
		<edge from-layer="214" from-port="1" to-layer="216" to-port="0"/>
		<edge from-layer="215" from-port="0" to-layer="216" to-port="1"/>
		<edge from-layer="216" from-port="2" to-layer="218" to-port="0"/>
		<edge from-layer="217" from-port="0" to-layer="218" to-port="1"/>
		<edge from-layer="218" from-port="2" to-layer="219" to-port="0"/>
		<edge from-layer="219" from-port="2" to-layer="221" to-port="0"/>
		<edge from-layer="220" from-port="0" to-layer="221" to-port="1"/>
		<edge from-layer="221" from-port="2" to-layer="223" to-port="0"/>
		<edge from-layer="222" from-port="0" to-layer="223" to-port="1"/>
		<edge from-layer="223" from-port="2" to-layer="224" to-port="0"/>
		<edge from-layer="224" from-port="1" to-layer="226" to-port="0"/>
		<edge from-layer="225" from-port="0" to-layer="226" to-port="1"/>
		<edge from-layer="226" from-port="2" to-layer="228" to-port="0"/>
		<edge from-layer="227" from-port="0" to-layer="228" to-port="1"/>
		<edge from-layer="228" from-port="2" to-layer="229" to-port="0"/>
		<edge from-layer="229" from-port="1" to-layer="231" to-port="0"/>
		<edge from-layer="230" from-port="0" to-layer="231" to-port="1"/>
		<edge from-layer="231" from-port="2" to-layer="243" to-port="0"/>
		<edge from-layer="231" from-port="2" to-layer="249" to-port="0"/>
		<edge from-layer="231" from-port="2" to-layer="238" to-port="0"/>
		<edge from-layer="231" from-port="2" to-layer="233" to-port="0"/>
		<edge from-layer="232" from-port="0" to-layer="233" to-port="1"/>
		<edge from-layer="233" from-port="2" to-layer="235" to-port="0"/>
		<edge from-layer="234" from-port="0" to-layer="235" to-port="1"/>
		<edge from-layer="235" from-port="2" to-layer="236" to-port="0"/>
		<edge from-layer="237" from-port="0" to-layer="238" to-port="1"/>
		<edge from-layer="238" from-port="2" to-layer="240" to-port="0"/>
		<edge from-layer="239" from-port="0" to-layer="240" to-port="1"/>
		<edge from-layer="240" from-port="2" to-layer="241" to-port="0"/>
		<edge from-layer="242" from-port="0" to-layer="243" to-port="1"/>
		<edge from-layer="243" from-port="2" to-layer="245" to-port="0"/>
		<edge from-layer="244" from-port="0" to-layer="245" to-port="1"/>
		<edge from-layer="245" from-port="2" to-layer="246" to-port="0"/>
		<edge from-layer="246" from-port="1" to-layer="247" to-port="0"/>
		<edge from-layer="248" from-port="0" to-layer="249" to-port="1"/>
		<edge from-layer="249" from-port="2" to-layer="251" to-port="0"/>
		<edge from-layer="250" from-port="0" to-layer="251" to-port="1"/>
		<edge from-layer="251" from-port="2" to-layer="252" to-port="0"/>
		<edge from-layer="252" from-port="1" to-layer="253" to-port="0"/>
	</edges>
	<meta_data>
		<MO_version value="2021.4.0-3839-cd81789d294-releases/2021/4"/>
		<cli_parameters>
			<data_type value="FP32"/>
			<disable_nhwc_to_nchw value="False"/>
			<disable_resnet_optimization value="False"/>
			<disable_weights_compression value="False"/>
			<enable_concat_optimization value="False"/>
			<extensions value="DIR"/>
			<framework value="tf"/>
			<freeze_placeholder_with_value value="{}"/>
			<generate_deprecated_IR_V7 value="False"/>
			<input_model value="DIR/model_float32.pb"/>
			<input_model_is_text value="False"/>
			<keep_shape_ops value="True"/>
			<legacy_ir_generation value="False"/>
			<log_level value="ERROR"/>
			<mean_scale_values value="[(None, array([255., 255., 255.]))]"/>
			<mean_values value="()"/>
			<model_name value="hand_landmark_FP32"/>
			<output_dir value="DIR"/>
			<placeholder_data_types value="{}"/>
			<progress value="False"/>
			<reverse_input_channels value="True"/>
			<scale_values value="[255.0, 255.0, 255.0]"/>
			<silent value="False"/>
			<static_shape value="False"/>
			<stream_output value="False"/>
			<transform value=""/>
			<unset unset_cli_parameters="batch, disable_fusing, disable_gfusing, finegrain_fusing, input, input_checkpoint, input_meta_graph, input_shape, move_to_preprocess, output, placeholder_shapes, saved_model_dir, saved_model_tags, scale, tensorboard_logdir, tensorflow_custom_layer_libraries, tensorflow_custom_operations_config_update, tensorflow_object_detection_api_pipeline_config, tensorflow_use_custom_operations_config, transformations_config"/>
		</cli_parameters>
	</meta_data>
</net>
